Assets/ML-Agents/Models/AgentBehavior3.onnx (onnx, 77754 bytes, 11 tensors)

discrete_act_size_vector f4 [1, 2]
3.0 3.0
00000000: 0000 4040 0000 4040

network_body.observation_encoder.processors.0.normalizer.running_mean f4 [7]
-0.5194664 0.24999474 0.74170077 -0.45004275 0.3129917 -0.22806461 2.8079035
00000000: c0fb 04bf 9ffe 7f3e 1ae0 3d3f 016c e6be
00000010: 7340 a03e c589 69be b1b4 3340

network_body._body_endoder.seq_layers.0.weight f4 [128, 7]
0.3441604 0.4764687 0.20601381 0.611787 0.19700338 0.0019350781 0.10356644 0.37358752
-0.14453568 -0.066783994 -0.38355002 0.0035433986 -0.17048837 -0.15874842 0.2239295 -0.2718673
0.15712504 -0.36160937 -0.063611865 -0.61830086 -0.3263593 -0.09823122 -0.30137038 0.4742624
0.11562006 0.40307644 -0.5772239 -0.31669605 -0.0188953 -0.20731267 -0.7686657 0.30428797
-0.60987645 0.54772663 -0.2037973 0.613303 -0.14879318 0.41361603 -0.37814128 0.010410326
0.44164985 -0.06355689 -0.025123755 -0.3693576 0.19308648 -0.2756542 -0.01769164 0.34876293
0.17842609 -0.100515 0.12056016 -0.17239894 -0.16030943 -0.77487695 0.44410542 0.2888236
0.25791383 -0.88217586 -0.09697777 -0.7850421 -0.13157278 0.11075118 0.18665272 0.26469254
0.22563119 -0.07885157 0.4454944 0.55794245 -0.2763935 0.5801401 0.8732146 0.88795614
0.9503286 0.5330463 -0.38776967 -0.24265951 0.11770742 0.4987194 -0.82982016 0.04018267
-0.5110527 0.29974782 0.15829891 -0.49514717 -0.12961146 0.39149478 -0.036896147 0.254391
0.32953656 -0.48608777 -0.35883045 0.20378752 1.030768 0.043019284 -0.033362567 0.41627267
-0.15542842 -0.343943 0.39522493 -0.12503356 0.14104666 -0.68439156 0.37694037 -0.17983535
-0.17897105 0.39334616 -0.2882925 -0.11831266 0.14283784 -0.4411779 0.53913915 -0.0024071739
-0.7438708 0.2267149 0.13058868 0.03786945 -0.29681018 -0.20759724 -0.3356308 0.42954957
-0.09921039 -0.53686357 0.1876563 -0.42805597 -0.023826584 0.26491195 0.47713354 -0.52420986
-0.2472668 -0.3446975 -0.08868893 -0.037951753 -0.37824062 -0.6887594 0.7704976 0.31577253
-0.6409637 -0.15596223 -0.22675598 0.45298487 -0.78283983 -0.14338388 -0.3411596 -0.015466483
-0.43331882 -0.3500791 -0.24331746 0.02222124 -0.45615447 0.22328888 -0.4361729 -0.52730477
0.8578106 0.14345752 0.36039776 0.34938675 -0.05059678 0.6861071 0.35435528 0.247121
0.36447638 0.08149915 -0.30421722 0.1938985 0.39339986 -0.11074867 0.65037984 -0.17266598
-0.40024084 -0.5083839 0.6158317 0.20934127 -0.11432305 0.4736063 0.65712225 0.01671811
0.042118594 0.1768262 0.42171973 -0.39705274 0.45842132 0.34803033 -0.095298365 0.45374474
-0.18454924 0.5613789 -0.3905034 -0.34926984 0.5472067 -0.4363494 -0.4039257 -0.22773029
-0.74442184 0.43684456 -0.3560693 0.2986029 0.08949899 0.09341489 -0.0252824 0.2113888
0.029450873 0.5416318 -0.106172524 0.03897667 -0.11513715 0.061633483 0.4060456 0.09900513
0.10925864 0.32420242 -0.6942204 -0.19973516 -0.4706027 -0.28514227 -0.56356794 0.14433528
0.05549346 0.22075824 0.88361055 -0.23990197 0.17845906 -0.33927602 0.99355966 0.28315535
0.78085566 0.0017159448 0.63168776 -0.1747906 0.086556815 -0.20408432 -0.20280413 -0.37610003
0.2502361 0.3264562 -0.6068251 0.4572137 -0.03801674 -0.11832313 0.0026836793 -0.17620265
0.30855307 -0.092657 0.11717893 -0.18754618 0.62302595 0.48757678 0.17449917 -0.34913749
-0.45448896 0.3086197 -0.7303277 0.14176628 -0.47389403 1.0355173 0.13251911 0.50650924
00000000: cb35 b03e b5f3 f33e 49f5 523e 139e 1c3f
00000010: 41bb 493e 72a2 fd3a a41a d43d dd46 bf3e
00000020: 2901 14be 0cc6 88bd ab60 c4be 5d38 683b
00000030: 8194 2ebe f28e 22be c64d 653e 3132 8bbe
00000040: 63e5 203e dd24 b9be f046 82bd f748 1ebf
00000050: 9118 a7be 732d c9bd 384d 9abe 85d2 f23e
00000060: 36ca ec3d 0960 ce3e f2c4 13bf fc25 a2be
00000070: 51ca 9abc c649 54be 46c7 44bf a2cb 9b3e
00000080: dd20 1cbf d037 0c3f 3db0 50be 6d01 1d3f
00000090: 3d5d 18be 7bc5 d33e bc9b c1be 1290 2a3c
000000a0: ee1f e23e 1d2a 82bd 55d0 cdbc 701c bdbe
000000b0: 76b8 453e 8c22 8dbe 0fee 90bc 0e91 b23e
000000c0: 54b5 363e cfda cdbd 3fe8 f63d 5989 30be
000000d0: 2828 24be 565e 46bf c961 e33e b0e0 933e
000000e0: 480d 843e 47d6 61bf 489c c6bd 85f8 48bf
000000f0: 04bb 06be 84d1 e23d e421 3f3e c885 873e
00000100: dd0b 673e ef7c a1bd d817 e43e 51d5 0e3f
00000110: 7383 8dbe 1084 143f fe8a 5f3f 1851 633f
00000120: bc48 733f b975 083f bf89 c6be bc7b 78be
00000130: 9610 f13d 2658 ff3e 186f 54bf 9596 243d
00000140: 5ad4 02bf 8c78 993e 1c19 223e ee83 fdbe
00000150: deb8 04be 0172 c83e 6a20 17bd 8a3f 823e
00000160: 04b9 a83e 7fe0 f8be a0b8 b7be adad 503e
00000170: 35f0 833f fd34 303d 30a7 08bd b121 d53e
00000180: a128 1fbe 4c19 b0be ec5a ca3e cc08 00be
00000190: 896e 103e 4934 2fbf 54fe c03e c226 38be
000001a0: 3044 37be ab64 c93e 139b 93be e84d f2bd
000001b0: 1544 123e 12e2 e1be 0605 0a3f adc1 1dbb
000001c0: 516e 3ebf f327 683e 0ab9 053e ff1c 1b3d
000001d0: 81f7 97be 5f94 54be cdd7 abbe eced db3e
000001e0: d12e cbbd e46f 09bf f928 403e 272a dbbe
000001f0: f82f c3bc 8aa2 873e d94a f43e 9e32 06bf
00000200: 8233 7dbe 317c b0be 8ba2 b5bd 4c73 1bbd
00000210: c1a8 c1be 8952 30bf 553f 453f f0ac a13e
00000220: 3216 24bf 90b4 1fbe b832 68be a2ed e73e
00000230: 3168 48bf 39d3 12be 79ac aebe 2267 7dbc
00000240: f7db ddbe 913d b3be 3628 79be 5109 b63c
00000250: 148d e9be d7a5 643e 0e52 dfbe 72fd 06bf
00000260: 7a99 5b3f 87e6 123e 0e86 b83e d2e2 b23e
00000270: 923e 4fbd b7a4 2f3f 0e6e b53e 4a0d 7d3e
00000280: a69c ba3e 07e9 a63d 5cc2 9bbe 548d 463e
00000290: b56b c93e 33d0 e2bd 4b7f 263f 5acf 30be
000002a0: 5eec ccbe 7325 02bf 25a7 1d3f 8f5d 563e
000002b0: 3422 eabd 867c f23e 2a39 283f 6bf4 883c
000002c0: 8c84 2c3d ed11 353e a6eb d73e 7f4a cbbe
000002d0: 33b6 ea3e 0831 b23e ca2b c3bd 3b51 e83e
000002e0: 7afa 3cbe 87b6 0f3f 10f0 c7be 7fd3 b2be
000002f0: bd15 0c3f 3069 dfbe 59cf cebe 2132 69be
00000300: 6e92 3ebf 17aa df3e b74e b6be 7be2 983e
00000310: 3f4b b73d 4e50 bf3d 091d cfbc 4e76 583e
00000320: f542 f13c 62a8 0a3f fb70 d9bd 00a6 1f3d
00000330: 07cd ebbd 6473 7c3d 35e5 cf3e 34c3 ca3d
00000340: fec2 df3d dcfd a53e 6eb8 31bf 6087 4cbe
00000350: d6f2 f0be 2bfe 91be fd45 10bf a1cc 133e
00000360: 1c4d 633d 730e 623e 4d34 623f dda8 75be
00000370: f9bd 363e 96b5 adbe ed59 7e3f bdf9 903e
00000380: 28e6 473f 8ee9 e03a 4ab6 213f 4ffc 32be
00000390: b344 b13d 7bfb 50be e3ab 4fbe 2f90 c0be
000003a0: f21e 803e 4425 a73e e458 1bbf ea17 ea3e
000003b0: 71b7 1bbd 6653 f2bd abe0 2f3b 786e 34be
000003c0: abfa 9d3e f4c2 bdbd 82fb ef3d 1b0c 40be
000003d0: a17e 1f3f aaa3 f93e e9af 323e 26c2 b2be
000003e0: c7b2 e8be 6703 9e3e c2f6 3abf 2e2b 113e
000003f0: 3da2 f2be d58b 843f 17b3 073e 97aa 013f

network_body._body_endoder.seq_layers.0.bias f4 [128]
0.04296119 0.015024765 0.048356712 0.0579576 0.013507009 0.04082062 -0.12356695 0.004051199
0.014477285 -0.0028704682 -0.0021010535 0.050364215 0.017435959 0.05252726 0.058735594 -0.027744593
0.05276345 0.017092915 0.0075291125 -0.046245735 0.04995482 0.04203581 0.01765304 -0.0005677439
-0.032329448 -0.02136636 0.025967387 -0.0061463034 0.0007147719 0.034798246 0.013029673 -0.0076506315
0.061991394 0.012296265 -0.13178968 0.0031909628 0.06380767 -0.084470674 0.08958773 0.053252026
0.024215909 0.05325756 0.069462985 0.03439479 0.021509109 0.0238059 -0.110478975 -0.037669934
0.058556296 0.019533576 -0.027414208 0.019500991 0.020025358 -0.0098647075 -0.034405008 -0.02208472
0.03435575 -0.024636703 -0.03431966 0.07630489 0.0342373 0.074427985 -0.08577505 0.0051053255
0.011558587 0.031603944 0.014225879 0.027320907 -0.017682815 -0.0024802787 0.038526673 0.036736444
-0.007749072 -0.032186233 -0.008610356 0.022234477 -0.004952581 0.0095358845 0.020246936 -0.053634312
0.012763066 0.034999173 0.02204876 0.06557401 -0.018633286 -0.027473563 0.010877944 -0.061838213
0.039493963 0.09257319 0.020061927 -0.01259024 0.039339047 -0.04810175 -0.0018443613 0.021253131
0.047083337 0.013653265 0.006509061 -0.017853018 0.048806854 0.031555325 -0.005509703 0.0015343463
0.003580469 0.022812795 0.033146568 0.052259322 0.026633842 0.07175985 0.049268916 0.028402207
0.046330225 -0.01582574 -0.007913806 0.014870263 0.022075418 0.06495814 0.060204834 -0.016780794
0.025785707 0.06113442 0.006346308 -0.022035468 0.018625628 0.06531001 0.026852801 0.030515384
00000000: 13f8 2f3d 6f2a 763c b011 463d f364 6d3d
00000010: 804c 5d3c 8633 273d ab10 fdbd ecbf 843b
00000020: 2232 6d3c 771e 3cbb d4b1 09bb b54a 4e3d
00000030: dbd5 8e3c d326 573d bc94 703d a148 e3bc
00000040: 7d1e 583d 7106 8c3c c6b6 f63b 2b6c 3dbd
00000050: 6d9d 4c3d be2d 2c3d 1c9d 903c a6d4 14ba
00000060: e26b 04bd 8108 afbc 8fb9 d43c ee66 c9bb
00000070: 885f 3b3a 9b88 0e3d 697a 553c 26b2 fabb
00000080: b0ea 7d3d 4676 493c e0f3 06be 791f 513b
00000090: 98ad 823d f6fe acbd c679 b73d cc1e 5a3d
000000a0: 7160 c63c 9924 5a3d 9c42 8e3d 8de1 0c3d
000000b0: df33 b03c 9704 c33c cd42 e2bd ca4b 1abd
000000c0: bad8 6f3d e104 a03c c393 e0bc 8bc0 9f3c
000000d0: 380c a43c 959f 21bc 44ec 0cbd 04eb b4bc
000000e0: 9db8 0c3d e9d2 c9bc c692 0cbd bd45 9c3d
000000f0: 693c 0c3d b36d 983d d4aa afbd 934a a73b
00000100: 3a60 3d3c 2373 013d a913 693c 18d0 df3c
00000110: 8ddb 90bc 2c8c 22bb 25ce 1d3d f478 163d
00000120: edeb fdbb b6d5 03bd 7312 0dbc 1425 b63c
00000130: 4349 a2bb 663c 1c3c e7dc a53c a7af 5bbd
00000140: 2e1c 513c 4b5b 0f3d 9a9f b43c ab4b 863d
00000150: d5a4 98bc 3d10 e1bc 6739 323c 114a 7dbd
00000160: 6cc4 213d 0397 bd3d e958 a43c 4b47 4ebc
00000170: fb21 213d 5706 45bd 7fbe f1ba 0c1b ae3c
00000180: 75da 403d f2b1 5f3c f649 d53b 7e40 92bc
00000190: b2e9 473d 2840 013d bd8a b4bb 1e1c c93a
000001a0: 4da6 6a3b e6e1 ba3c b2c4 073d df0d 563d
000001b0: 372f da3c d4f6 923d 34ce 493d bfab e83c
000001c0: c3c4 3d3d fba4 81bc e8a8 01bc 67a2 733c
000001d0: 82d7 b43c c608 853d 5899 763d e077 89bc
000001e0: 8c3c d33c 1668 7a3d b1f4 cf3b ba83 b4bc
000001f0: c694 983c 41c1 853d 68fa db3c 66fb f93c

network_body._body_endoder.seq_layers.2.weight f4 [128, 128]
0.030250132 0.11349659 0.14616677 -0.06693735 0.23643652 -0.001698925 -0.06559425 0.072075285
0.08252388 0.033443052 0.06357639 0.22676814 -0.0010868874 -0.0616946 0.115402624 -0.04219223
0.0019806966 0.19432941 0.062625036 -0.03680828 -0.059490733 0.18270415 -0.028474946 0.13086823
0.053696994 -0.21071874 -0.15897924 -0.109728515 0.0056356727 0.08338678 -0.033741474 0.0545561
0.07938128 0.20411853 -0.05892608 0.022275863 -0.060400072 -0.020861628 -0.013565391 -0.08541587
0.012801112 -0.22139744 -0.17546587 0.07364577 -0.07618779 0.08681865 0.060660206 -0.062225148
-0.25451773 0.09000441 0.013846571 0.16633575 0.035942055 0.028962217 0.12866464 0.08545783
-0.008117413 0.00011356466 -0.06559324 -0.05196066 -0.18641144 -0.1825869 -0.13249111 -0.065948434
-0.022172892 0.045340158 0.26830187 0.040513992 0.080736786 0.05661245 -0.11028299 0.004340447
-0.058254436 0.01083858 0.06897312 -0.028238932 0.071210064 0.037533693 0.058858775 0.10592034
-0.028947487 0.12714803 0.036888268 0.10702938 0.18497361 0.10710309 0.01958967 0.03736239
0.028932532 -0.050208315 0.014521528 -0.046615206 -0.07506248 -0.101022795 -0.08919769 0.012606048
-0.21021487 0.00072966743 0.07880626 0.013638455 0.046730958 0.033980843 0.05170174 -0.009226285
0.07769843 0.009430853 0.14861435 -0.017622238 -0.067844406 -0.24310437 0.18716775 0.19169092
-0.12581356 0.07424884 0.117094904 -0.19659266 -0.16154845 -0.025483979 -0.022755684 0.0001532386
-0.012599618 0.033745848 -0.063569345 0.07505988 0.08919036 -0.00849966 -0.11075571 -0.05991953
-0.18661404 -0.007858405 -0.020411417 -0.119356744 -0.019139698 0.008328492 -0.019636964 0.11885176
-0.05231227 0.050752755 -0.22301812 -0.029914068 0.08666318 0.098421335 0.030621165 -0.015042286
0.15365332 -0.077922374 -0.003932604 0.17533126 0.034216113 0.15668818 -0.048785694 -0.105924025
-0.06441444 -0.33468205 -0.13879238 0.055211324 0.13324025 -0.1376455 -0.028342575 -0.042003628
-0.10280159 0.12683381 0.124742 -0.04858752 0.0660392 -0.04717777 0.01279689 -0.027702482
0.06929276 0.0133556975 0.052200466 -0.18167591 0.032773744 0.046158224 -0.093206584 -0.08030465
-0.049099807 0.01986782 -0.16123118 0.017735275 0.071355425 -0.15168224 -0.006894808 -0.17813762
0.20430322 -0.07146193 -0.15579163 0.015662944 0.012250241 0.0007878064 -0.14068301 0.13470471
-0.05091391 0.009745799 -0.06745584 -0.027756648 0.010589978 -0.018336834 -0.12700489 0.023332542
0.15705483 0.06338277 -0.18515888 0.12954602 0.13806136 -0.042755615 -0.11989279 -0.053418618
-0.020711185 0.09833766 0.028778527 0.06695008 -0.026663972 0.053370446 -0.02723097 -0.04898872
-0.21555172 0.25054774 -0.029955553 -0.22009854 -0.08070553 0.011219795 -0.048228014 0.012202916
0.026880777 0.0855077 0.16053209 -0.01768929 -0.030684443 0.10448297 -0.20841132 0.02327498
0.19465043 0.03912821 -0.016090395 0.15897392 -0.04807416 -0.047344368 -0.09315362 -0.17061977
0.079429306 -0.26907122 -0.02912601 -0.13813344 0.09593918 0.020685589 -0.115556814 -0.11873742
-0.08167544 -0.11051617 -0.0042309402 0.1268778 -0.0035510126 0.015996795 -0.07665658 0.14302568
00000000: 20cf f73c e670 e83d beac 153e 7316 89bd
00000010: 6a1c 723e 77ae deba 4756 86bd 359c 933d
00000020: 4802 a93d 95fb 083d 5734 823d e835 683e
00000030: e475 8eba 7ab3 7cbd 3658 ec3d c2d1 2cbd
00000040: 93ce 013b 4afe 463e 8e41 803d 47c4 16bd
00000050: 8eac 73bd cc16 3b3e 4a44 e9bc 5202 063e
00000060: 61f1 5b3d a7c6 57be 74cb 22be 58b9 e0bd
00000070: 73ab b83b b0c6 aa3d 8034 0abd 3876 5f3d
00000080: a792 a23d 7304 513e 795c 71bd df7b b63c
00000090: 1166 77bd 01e6 aabc 6041 5ebc 84ee aebd
000000a0: c1bb 513c 03b6 62be 53ad 33be 98d3 963d
000000b0: 5808 9cbd facd b13d d676 783d ccdf 7ebd
000000c0: 2650 82be 3b54 b83d badc 623c eb53 2a3e
000000d0: fa37 133d 2c42 ed3c aac0 033e 8404 af3d
000000e0: e6fe 04bc 9029 ee38 c055 86bd b3d4 54bd
000000f0: a4e2 3ebe 0ff8 3abe c0ab 07be f90f 87bd
00000100: eda3 b5bc 9ab6 393d dd5e 893e 00f2 253d
00000110: 5459 a53d 75e2 673d 0cdc e1bd 4f3a 8e3b
00000120: 349c 6ebd 4d94 313c c741 8d3d 5555 e7bc
00000130: 95d6 913d eebc 193d e615 713d c3ec d83d
00000140: 4823 edbc 1833 023e 2718 173d 3832 db3d
00000150: b969 3d3e dd58 db3d 847a a03c 4e09 193d
00000160: eb03 ed3c 3ca7 4dbd b4eb 6d3c 96ef 3ebd
00000170: 5cba 99bd 0ae5 cebd 47ad b6bd 9989 4e3c
00000180: 9142 57be 2747 3f3a 2d65 a13d d473 5f3c
00000190: f668 3f3d 7f2f 0b3d 34c5 533d d829 17bc
000001a0: 5b20 9f3d dd83 1a3c 5c2e 183e 835c 90bc
000001b0: 02f2 8abd 5af0 78be e7a8 3f3e a04a 443e
000001c0: 45d5 00be c70f 983d 74cf ef3d 964f 49be
000001d0: f56c 25be c7c3 d0bc 216a babc acae 2039
000001e0: a16e 4ebc 1639 0a3d a530 82bd ffb8 993d
000001f0: 6fa9 b63d 2842 0bbc e4d3 e2bd 2e6e 75bd
00000200: c017 3fbe 8ac0 00bc d835 a7bc 4f71 f4bd
00000210: dbca 9cbc 3a74 083c b3dd a0bc 8d68 f33d
00000220: 6445 56bd 1fe2 4f3d dd5e 64be 590e f5bc
00000230: 777c b13d 2091 c93d 3dd9 fa3c ec73 76bc
00000240: 4c57 1d3e c495 9fbd 13dd 80bb 0a8a 333e
00000250: 3226 0c3d de72 203e 82d3 47bd b2ee d8bd
00000260: b8eb 83bd 725b abbe 971f 0ebe 4525 623d
00000270: 2270 083e f1f2 0cbe b02e e8bc ff0b 2cbd
00000280: a489 d2bd b9e0 013e bc78 ff3d b503 47bd
00000290: 8f3f 873d 7a3d 41bd 0caa 513c 51f0 e2bc
000002a0: 5de9 8d3d dbd1 5a3c 28d0 553d 4009 3abe
000002b0: c33d 063d 6810 3d3d 18e3 bebd c476 a4bd
000002c0: e11c 49bd d7c1 a23c c919 25be 9149 913c
000002d0: cb22 923d 9752 1bbe d7ed e1bb b569 36be
000002e0: dd34 513e a25a 92bd d787 1fbe 934f 803c
000002f0: 3cb5 483c cb84 4e3a 350f 10be 08f0 093e
00000300: 1b8b 50bd d8ac 1f3c 4a26 8abd e961 e3bc
00000310: 9681 2d3c 2137 96bc 920d 02be e323 bf3c
00000320: fbd2 203e d3ce 813d 4a9a 3dbe b6a7 043e
00000330: f55f 0d3e 8320 2fbd 5a8a f5bd 7bcd 5abd
00000340: 81aa a9bc 4165 c93d f2c0 eb3c 201d 893d
00000350: 676e dabc f89a 5a3d 7c13 dfbc 65a8 48bd
00000360: 97b9 5cbe cb47 803e 5965 f5bc 8361 61be
00000370: f148 a5bd 3bd3 373c bd8a 45bd bdee 473c
00000380: 1335 dc3c a91e af3d 8662 243e 21e9 90bc
00000390: f15d fbbc 2bfb d53d c769 55be 2cab be3c
000003a0: 7152 473e e744 203d 01d0 83bc 0fca 223e
000003b0: 69e9 44bd 2bec 41bd 53c7 bebd f3b6 2ebe
000003c0: d5ab a23d b4c3 89be ac99 eebc da72 0dbe
000003d0: c37b c43d d374 a93c 0da9 ecbd 9b2c f3bd
000003e0: 7445 a7bd 4d56 e2bd b3a3 8abb 41ec 013e
000003f0: 1bb8 68bb b60b 833c 20fe 9cbd 5375 123e

network_body._body_endoder.seq_layers.2.bias f4 [128]
0.01790911 0.046544902 0.022296647 0.057609566 0.00066159765 -0.009396091 -0.041932072 0.0069375015
0.045641575 0.019899596 0.03847594 0.02229033 0.045806766 0.06124134 0.011534151 0.000263615
0.010865046 0.017971013 0.003626683 0.03833003 0.0035684635 0.06472028 -0.011431758 -0.0043030633
0.026587041 0.0033560724 0.007185413 0.013636994 0.017166266 0.032558497 0.038957298 0.011293699
0.051318537 0.04286696 0.01719259 0.008777501 0.06324253 0.08153853 -0.020621622 0.028225886
0.053692684 -0.0627732 -0.011718193 0.039943036 0.0010269212 0.048972152 -0.009114397 0.025673747
0.03999707 0.038551662 0.0025450545 0.044516608 0.03406542 -0.010675951 0.0015238118 0.07330623
-0.0007023872 -0.0047957744 0.06458444 0.06444186 -0.00059835234 0.004859734 0.0489817 0.08490089
0.0059967623 0.045904715 0.0026449475 -0.002998888 0.042929564 0.033545244 0.016209355 0.05404847
-0.029225525 -0.00726466 0.071906954 0.06632015 0.06673203 -0.04969634 -0.00805484 0.010397179
0.019732747 -0.028412994 0.03835313 0.0336007 0.007026855 0.04057047 0.004401088 0.048790835
-0.05960921 0.027982214 -0.035659187 0.056105983 0.07461044 -0.029973693 0.032063466 0.02007345
0.00692462 0.021976897 0.024198001 0.042296227 0.036219537 0.008721416 0.09123205 0.028845005
-0.057113573 0.039281037 0.010598625 0.01865455 -0.05588196 0.051948752 -0.046097726 0.0046427813
0.033115957 0.01679342 -0.0012634939 -0.06834294 0.009360395 0.041459788 -0.0039249468 -0.04227918
0.010825099 0.03302591 0.041645262 0.032253258 0.06565647 0.02893539 0.06987815 0.037303615
00000000: 20b6 923c dea5 3e3d 75a7 b63c 02f8 6b3d
00000010: 116f 2d3a 10f2 19bc f7c0 2bbd fb53 e33b
00000020: a9f2 3a3d 7a04 a33c f298 1d3d 369a b63c
00000030: e09f 3b3d 33d8 7a3d bcf9 3c3c ce35 8a39
00000040: 4e03 323c f237 933c a5ad 6d3b f3ff 1c3d
00000050: e2dc 693b 118c 843d 454c 3bbc b600 8dbb
00000060: 11cd d93c 8df1 5b3b 9d73 eb3b b36d 5f3c
00000070: 45a0 8c3c 0f5c 053d b091 1f3d 3509 393c
00000080: 6333 523d 4495 2f3d 79d7 8c3c 82cf 0f3c
00000090: 4d85 813d acfd a63d adee a8bc f939 e73c
000000a0: dcec 5b3d 3c8f 80bd aafd 3fbc 4f9b 233d
000000b0: c299 863a 0697 483d 8d54 15bc c051 d23c
000000c0: f8d3 233d 59e8 1d3d eeca 263b 0c57 363d
000000d0: 2f88 0b3d 2fea 2ebc a4ba c73a 9421 963d
000000e0: 6820 38ba df25 9dbb d944 843d 18fa 833d
000000f0: bfda 1cba 673e 9f3b 09a1 483d 85e0 ad3d
00000100: 7d80 c43b 9506 3c3d db56 2d3b fe88 44bb
00000110: e9d6 2f3d bd66 093d 7bc9 843c ee61 5d3d
00000120: 5e6a efbc 630c eebb f443 933d dcd2 873d
00000130: cdaa 883d 648e 4bbd 73f8 03bc ee58 2a3c
00000140: 92a6 a13c 5ec2 e8bc 2c18 1d3d e3a0 093d
00000150: 8841 e63b 392d 263d 0137 903b e6d8 473d
00000160: c928 74bd f53a e53c 5e0f 12bd 63cf 653d
00000170: 5ccd 983d 648b f5bc fb54 033d 1371 a43c
00000180: ece7 e23b e508 b43c e33a c63c cf3e 2d3d
00000190: f05a 143d 45e4 0e3c ded7 ba3d 5c4c ec3c
000001a0: ecef 69bd 27e5 203d dba5 2d3c 6dd1 983c
000001b0: 7be4 64bd 37c8 543d f8d0 3cbd 7922 983b
000001c0: 99a4 073d 5b92 893c d29b a5ba 62f7 8bbd
000001d0: 585c 193c bdd1 293d d79c 80bb ef2c 2dbd
000001e0: c25b 313c 2d46 073d 3994 2a3d fe1b 043d
000001f0: e676 863d e909 ed3c 471c 8f3d adcb 183d

action_model._discrete_distribution.branches.0.weight f4 [3, 128]
0.029593445 0.04855122 -0.021556122 0.017069971 -0.036841396 -0.045429554 0.007613225 -0.0535713
-0.03727138 -0.08906207 0.008234065 -0.058533482 -0.041141342 -0.023708995 -0.014507141 0.03383354
0.009480295 -0.05322484 0.01228064 -0.0009756073 0.0029770096 0.030150361 0.007810722 0.0014155121
-0.09829054 -0.044879965 -0.0060861125 0.036725163 0.014365679 0.035092097 -0.04342329 0.018475743
0.028450856 -0.018836977 0.0617763 0.06093641 -0.02930971 -0.00024773358 0.040038995 0.06866254
-0.04298055 0.0051670503 0.006911843 0.028418768 -0.039049596 -0.019030722 -0.004891022 -0.025434863
-0.09361915 0.035898224 0.016422592 0.0046893796 -0.027902888 -0.04026305 -0.035814974 0.027437095
-0.043414366 -0.07570674 0.06776535 -0.015543615 -0.044037957 0.036815774 -0.0068761203 -0.047077507
0.0008607837 -0.02219394 -0.02722754 0.024366872 0.021120314 0.026835026 0.008686307 -0.007968539
0.0065040286 -0.0090390695 0.026241945 -0.005398285 0.06038714 -0.027143933 0.019328285 0.0054360456
-0.05450532 -0.016975665 0.048947934 8.14444e-05 0.0036791342 -0.015361388 -0.052027952 -0.039373342
0.007618434 0.044741075 -0.058585573 0.08758958 0.0037004245 0.015169862 -0.025536029 -0.0015472122
0.025779333 0.01935774 -0.05717722 0.067413636 -0.026421476 0.0058767605 0.02068609 -0.03621524
-0.031687275 -0.02722731 -0.0014038441 -0.060662124 0.007913558 0.030251862 -0.035976157 -0.011156047
-0.02701711 0.011458174 -0.015541177 -0.021980816 0.020858536 -0.032143205 -0.010474379 0.013627107
0.006948515 -0.04967863 -0.046253156 -0.029448448 0.032002322 0.033306636 -0.035393305 -0.03811101
0.062703 -0.08489029 -0.054834947 -0.11234804 0.032143492 0.028446544 0.006916101 0.06929022
-0.04741677 -0.0053442614 0.067066334 0.057935733 9.46724e-05 -0.069512874 0.027597986 -0.0021288465
0.03841417 0.06604649 -0.020288333 0.103884935 0.015458711 -0.11696218 0.014861844 0.034711324
0.017975274 0.025007801 -0.039677717 0.033692546 0.068863824 -0.038159057 -0.040788934 0.009469473
-0.050084382 -0.09829312 -0.05137852 0.028694132 -0.011613324 -0.049060147 -0.01197133 0.024727294
-0.008685899 0.005763761 0.010450165 0.05019122 0.06380114 -0.08961561 0.026426721 0.037472453
0.001298899 0.011469179 0.03465707 0.079672456 0.004535522 0.06586996 0.029940862 -0.086447716
0.011124776 0.043780133 -0.09532374 0.08279176 -0.040894225 0.021151189 0.084385514 0.05127127
0.07053733 0.02783824 0.032843374 0.077665724 -0.059777476 0.092203826 -0.034398675 -0.05688393
0.0472992 0.06519715 -0.0714804 0.019801797 -0.09264309 0.0064448337 -0.01933063 0.043093987
0.08304322 0.044214465 -0.012686736 0.011655991 -0.0044087493 -0.010173074 0.07087901 0.004582472
0.0014629909 -0.010520024 0.020212242 -0.095730476 0.020493241 0.0419112 0.053234406 -0.02535493
0.05236755 0.047282513 0.073478766 -0.04288774 -0.045967355 0.07573093 -0.062639885 0.022531644
0.04500615 -0.08095043 0.02753608 0.033168387 0.029748118 -0.040707964 0.015633011 0.027979549
-0.056748863 0.052726712 0.032943968 0.048468295 0.044835594 -0.059875183 0.0022343376 0.0472706
0.057847295 0.08287295 -0.0070524286 0.065816596 -0.12953122 0.018810112 -0.01404498 -0.022901485
00000000: f46d f23c a5dd 463d 7796 b0bc 53d6 8b3c
00000010: 01e7 16bd 5714 3abd 5c78 f93b 946d 5bbd
00000020: e0a9 18bd 2d66 b6bd 2ce8 063c cec0 6fbd
00000030: d383 28bd 5e39 c2bc 5caf 6dbc 0a95 0a3d
00000040: 3d53 1b3c 4a02 5abd bd34 493c e6bf 7fba
00000050: ef19 433b e4fd f63c 16f1 ff3b b488 b93a
00000060: 8d4c c9bd 0ed4 37bd 036e c7bb 206d 163d
00000070: 065e 6b3c bbbc 0f3d 9fdc 31bd 715a 973c
00000080: c511 e93c 0150 9abc 2509 7d3d 7598 793d
00000090: eb1a f0bc 3de2 81b9 eeff 233d f29e 8c3d
000000a0: 600c 30bd 5c50 a93b be7c e23b 7ace e83c
000000b0: 78f2 1fbd 51e6 9bbc de44 a0bb c65c d0bc
000000c0: 66bb bfbd 040a 133d ac88 863c 5ea9 993b
000000d0: 9994 e4bc deea 24bd b9b2 12bd c2c3 e03c
000000e0: 43d3 31bd 230c 9bbd 8fc8 8a3d a6aa 7ebc
000000f0: 2561 34bd 23cc 163d 1451 e1bb 58d4 40bd
00000100: 37a6 613a 11d0 b5bc 4a0c dfbc 099d c73c
00000110: 8204 ad3c 21d5 db3c 0351 0e3c 7a8e 02bc
00000120: bf1f d53b 9b18 14bc 59f9 d63c 19e4 b0bb
00000130: 8158 773d f45c debc 5a56 9e3c db20 b23b
00000140: f840 5fbd 8d10 8bbc a17d 483d 21cd aa38
00000150: a11d 713b 55ae 7bbc 431b 55bd f145 21bd
00000160: 0ea4 f93b 6b42 373d 6df7 6fbd 2a62 b33d
00000170: d282 723b 038b 783c ef30 d1bc d4cb caba
00000180: 2e2f d33c 2094 9e3c a932 6abd 2910 8a3d
00000190: da71 d8bc d791 c03b e075 a93c 6e56 14bd
000001a0: 84ca 01bd cf0b dfbc 3101 b8ba d978 78bd
000001b0: dea7 013c c1d2 f73c bc5b 13bd dac7 36bc
000001c0: fc52 ddbc 11bb 3b3c 6ca0 7ebc 1d11 b4bc
000001d0: 85df aa3c 98a8 03bd bb9c 2bbc 3b44 5f3c
000001e0: 5eb0 e33b d27b 4bbd f373 3dbd df3d f1bc
000001f0: de14 033d 8a6c 083d 92f8 10bd 4a1a 1cbd
00000200: 6e6a 803d f6da adbd 9c9a 60bd bb16 e6bd
00000210: e5a8 033d ba08 e93c 76a0 e23b 08e8 8d3d
00000220: 1638 42bd ea1e afbb 135a 893d 054e 6d3d
00000230: dc8a c638 c45c 8ebd 2c15 e23c 1e84 0bbb
00000240: 2d58 1d3d 6243 873d b833 a6bc a0c1 d43d
00000250: 8946 7d3c de89 efbd 177f 733c 762d 0e3d
00000260: e240 933c 29dd cc3c 1a85 22bd 3201 0a3d
00000270: 7a08 8d3d ac4c 1cbd 4c12 27bd d925 1b3c
00000280: 4825 4dbd e74d c9bd 4872 52bd f50f eb3c
00000290: d045 3ebc 4bf3 48bd 6623 44bc e590 ca3c
000002a0: 4d4f 0ebc eedd bc3b 2b37 2b3c 4f95 4d3d
000002b0: 2caa 823d 6488 b7bd da7c d83c b77c 193d
000002c0: d13f aa3a 39e9 3b3c 92f4 0d3d 502b a33d
000002d0: b79e 943b d4e6 863d 8a46 f53c 800b b1bd
000002e0: b144 363c cc52 333d 1839 c3bd ba8e a93d
000002f0: b480 27bd 4245 ad3c 50d2 ac3d d301 523d
00000300: e075 903d 050d e43c c686 063d 350f 9f3d
00000310: 3ad9 74bd 5cd5 bc3d a0e5 0cbd 20ff 68bd
00000320: cebc 413d 1586 853d 5164 92bd 6137 a23c
00000330: a9bb bdbd 2f2f d33b 455b 9ebc 5283 303d
00000340: 9012 aa3d 3a1a 353d 07dc 4fbc c5f8 3e3c
00000350: 4577 90bb f7ac 26bc 0429 913d 9028 963b
00000360: d4c1 bf3a 2e5c 2cbc 2594 a53c 570e c4bd
00000370: 71e1 a73c 14ab 2b3d 520c 5a3d 24b5 cfbc
00000380: 5b7f 563d 4fab 413d 097c 963d 0eab 2fbd
00000390: 4448 3cbd d118 9b3d 5749 80bd 4894 b83c
000003a0: 5e58 383d 57c9 a5bd 5893 e13c 93db 073d
000003b0: 53b2 f33c 65bd 26bd cd10 803c 5e35 e53c
000003c0: 7f71 68bd f7f7 573d 41f0 063d b186 463d
000003d0: 87a5 373d ae3f 75bd f76d 123b d19e 413d
000003e0: 49f1 6c3d 4bb9 a93d 0f18 e7bb daca 863d
000003f0: d5a3 04be aa17 9a3c ea1c 66bc e59b bbbc

action_model._discrete_distribution.branches.0.bias f4 [3]
0.02318105 -0.026531862 0.007248278
00000000: 2fe6 bd3c 5959 d9bc f682 ed3b

action_model._discrete_distribution.branches.1.weight f4 [3, 128]
-0.020411046 -0.016510908 0.013689428 -0.01206947 -0.050165292 0.017330611 0.032058246 -0.017818186
-0.029143605 0.023833731 -0.03431488 -0.041787025 -0.017305441 0.05721549 -0.06291784 -0.0034761298
0.009064333 -0.04597649 0.0059594805 -0.019829651 -0.02802792 0.00055022823 -0.042298596 -0.015498282
-0.02270863 -0.037472196 -0.022351362 -0.01753128 -0.028822644 -0.025982337 -0.011664073 -0.038757287
-0.045896135 0.008560889 0.018964889 -0.018187491 0.01612021 -0.0088388 -0.012349945 -0.01506023
0.009011886 0.032619372 -0.052298907 -0.025417613 0.0008000987 0.027692737 -0.043774795 -0.014144345
-0.024292035 0.00083301705 -0.042809654 -0.036853507 0.01571717 -0.021136321 -0.0012850395 -0.043328684
-0.03563655 -0.03865431 0.013421009 -0.0065214136 0.0037855122 0.003953844 -0.057704672 0.0025950794
-0.029422347 -0.00047239717 -0.040718295 -0.024060061 -0.02043706 -0.026701111 -0.019040309 0.0060731866
0.011406099 -0.002466763 -0.0052008783 0.01543527 0.0064819236 -0.014649016 -0.0034496172 -0.03434541
-0.020957155 -0.01805395 -0.013177208 -0.06601885 -0.016470546 -0.008004151 -0.022712003 -0.011871787
0.04513914 -0.012222154 0.017198972 -0.0062124343 -0.021683164 -0.0059377374 -0.011175462 -0.032486826
-0.0010147757 -0.03471966 -0.033419892 -0.021274637 -0.011944394 -0.030679772 0.005679457 -0.026696268
0.0013039648 0.015000866 -0.03651341 -0.03308856 0.008845463 -0.0178504 0.03707901 -0.06290642
0.01407297 -0.028873319 -0.0391823 0.011330018 -0.034687333 0.06304036 -0.03780947 0.0023000317
-0.021262739 -0.06130712 -0.030689444 -0.016897999 0.0274703 -0.030638952 -0.0037764774 0.05341486
-0.037813336 0.039143194 -0.040417757 -0.0018267257 -0.005097624 0.011117192 -0.088827 -0.02380382
0.0013709662 0.017471725 0.014967278 0.017064413 0.08078643 -0.0028627343 -0.013522004 -0.11928385
0.05835574 0.01946318 -0.10333356 -0.0023448495 -0.027840795 -0.05426642 -0.02754178 0.02160034
0.014143953 -0.0037710532 -0.02001509 0.010173134 -0.018172372 0.035974286 -0.012243949 0.022854704
0.003762769 0.00078759214 -0.13457927 -0.044521358 0.052190047 0.11447856 -0.10443327 -0.03961066
0.053397708 -0.08100853 0.005399231 0.030420182 0.0537839 0.00984473 -0.015505481 0.07184649
0.027301133 0.076884694 -0.012299479 0.017838733 0.038403895 -0.022145215 0.04244262 0.038910337
0.010462318 -0.014068356 0.043026555 0.09912566 -0.036339473 0.029355543 0.09556235 0.12045793
-0.036441196 0.064743415 0.016844742 -0.04038377 -0.0021191803 -0.00041719517 -0.067830876 0.03140114
-0.08616715 0.011475581 0.07338703 0.13489217 0.026871754 -0.023044731 -0.04262704 -0.025089622
0.054514695 -0.015198858 -0.10343895 -0.006290436 -0.05895866 0.06878642 0.024317253 0.069759
-0.0580649 -0.022639707 -0.018631214 -0.007274033 0.14259131 -0.03567192 0.08374324 -0.017894285
-0.06200677 0.021253793 0.03770315 -0.059742462 0.0006665037 0.029977994 0.10158576 0.07654221
-0.021618886 -0.020072315 -0.016273709 0.051918037 -0.053216465 0.029164737 -0.0121153155 0.017904337
0.025292693 -0.056095082 -0.024204915 -0.010755416 0.016268518 -0.026972901 -0.03091944 -0.045492887
0.032901302 0.021560123 0.04439541 0.0665469 -0.0035955012 0.030994644 0.069608085 0.0112458095
00000000: 1135 a7bc e241 87bc 9f49 603c 07bf 45bc
00000010: 1f7a 4dbd edf8 8d3c 824f 033d 72f7 91bc
00000020: 92be eebc f53e c33c c28d 0cbd df28 2bbd
00000030: 24c4 8dbc ca5a 6a3d 12db 80bd c8cf 63bb
00000040: 9182 143c d851 3cbd bf47 c33b cb71 a2bc
00000050: cf9a e5bc 313d 103a 4b41 2dbd 82ec 7dbc
00000060: 7307 babc 727c 19bd 341a b7bc c29d 8fbc
00000070: 771d ecbc e9d8 d4bc ab1a 3fbc f6bf 1ebd
00000080: 96fd 3bbd f942 0c3c 415c 9b3c effd 94bc
00000090: 880e 843c 9dd0 10bc 6c57 4abc 2fbf 76bc
000000a0: 97a6 133c e49b 053d 6137 56bd 9938 d0bc
000000b0: b7bd 513a e1db e23c 334d 33bd afbd 67bc
000000c0: 1700 c7bc d45e 5a3a 2d59 2fbd b4f3 16bd
000000d0: 4bc1 803c 1426 adbc c56e a8ba 6b79 31bd
000000e0: a2f7 11bd fb53 1ebd cbe3 5b3c 95b1 d5bb
000000f0: 5b16 783b 3f8f 813b bc5b 6cbd 3512 2a3b
00000100: 2207 f1bc 13ac f7b9 3ac8 26bd 9b19 c5bc
00000110: 9f6b a7bc 4abc dabc 6cfa 9bbc 9501 c73b
00000120: a6e0 3a3c 6aa9 21bb 216c aabb 37e4 7c3c
00000130: 5166 d43b 6d02 70bc f912 62bb c6ad 0cbd
00000140: 57ae abbc e1e5 93bc 37e5 57bc e434 87bd
00000150: 3ded 86bc d823 03bc 860e babc e281 42bc
00000160: d2e3 383d 6e3f 48bc dce4 8c3c ad91 cbbb
00000170: e4a0 b1bc 5a91 c2bb 4919 37bc e810 05bd
00000180: 3902 85ba 3436 0ebd 4ce3 08bd 2648 aebc
00000190: 6bb2 43bc 2554 fbbc bd1a ba3b 22b2 dabc
000001a0: cce9 aa3a 31c6 753c 168f 15bd df87 07bd
000001b0: 90ec 103c 013b 92bc 29e0 173d 15d5 80bd
000001c0: 5092 663c bd87 ecbc 9f7d 20bd 8aa1 393c
000001d0: 4e14 0ebd 4e1b 813d 1ade 1abd 21bc 163b
000001e0: 322f aebc 2d1d 7bbd 6e68 fbbc ac6d 8abc
000001f0: 6509 e13c 8afe fabc c77e 77bb 8ac9 5a3d
00000200: 28e2 1abd 9d54 203d 178d 25bd be6e efba
00000210: f809 a7bb e224 363c eeea b5bd 3b00 c3bc
00000220: feb1 b33a dd20 8f3c 5039 753c abca 8b3c
00000230: 5b73 a53d b69c 3bbb 658b 5dbc 174b f4bd
00000240: 6e06 6f3d 3f71 9f3c 8ca0 d3bd 0cac 19bb
00000250: 6112 e4bc 7746 5ebd 4d9f e1bc 32f3 b03c
00000260: 0abc 673c c623 77bb b0f6 a3bc 37ad 263c
00000270: 3ade 94bc c659 133d d89a 48bc ca39 bb3c
00000280: ca98 763b 6a76 4e3a 26cf 09be 075c 36bd
00000290: 3bc5 553d bc73 ea3d 1ce1 d5bd ca3e 22bd
000002a0: 8eb7 5a3d cde7 a5bd 08ec b03b bf33 f93c
000002b0: 824c 5c3d ca4b 213c b30a 7ebc 4124 933d
000002c0: a0a6 df3c b975 9d3d c183 49bc 8922 923c
000002d0: 674d 1d3d e269 b5bc 50d8 2d3d 7260 1f3d
000002e0: 246a 2b3c f67e 66bc 9d3c 303d 6502 cb3d
000002f0: b3d8 14bd 097b f03c 31b6 c33d a6b2 f63d
00000300: 5d43 15bd 3298 843d fcfd 893c 7469 25bd
00000310: f2e1 0abb fdba dab9 eaea 8abd 7b9e 003d
00000320: 6778 b0bd 1304 3c3c f04b 963d 2c21 0a3e
00000330: 2722 dc3c 4ec8 bcbc b199 2ebd c088 cdbc
00000340: cd4a 5f3d a204 79bc cdd7 d3bd 0020 cebb
00000350: a37e 71bd e5df 8c3d fa34 c73c cedd 8e3d
00000360: 76d5 6dbd e876 b9bc 7da0 98bc 035b eebb
00000370: 7503 123e b81c 12bd 9381 ab3d 0997 92bc
00000380: d0fa 7dbd 6f1c ae3c 9e6e 1a3d 83b4 74bd
00000390: 4eb8 2e3a 6994 f53c 320c d03d 2ac2 9c3d
000003a0: 171a b1bc b26e a4bc 7150 85bc 02a8 543d
000003b0: 82f9 59bd e3ea ee3c 517f 46bc 1eac 923c
000003c0: 9f32 cf3c f5c3 65bd 6349 c6bc 7c37 30bc
000003d0: 8e45 853c 46f6 dcbc c44a fdbc c056 3abd
000003e0: 84c3 063d db9e b03c f6d7 353d be49 883d
000003f0: 80a2 6bbb 7be8 fd3c af8e 8e3d 5840 383c

action_model._discrete_distribution.branches.1.bias f4 [3]
-0.041761346 0.042139053 -0.00033240713
00000000: f20d 2bbd 009a 2c3d ee46 aeb9

onnx::Div_68 f4 [7]
2.4567583 0.004604557 2.6599522 2.3112447 0.0046807798 2.2984374 1.7369573
00000000: 873b 1d40 d3e1 963b a83c 2a40 6feb 1340
00000010: 3a61 993b 9919 1340 9e54 de3f
