Assets/ML-Agents/Models/AgentBehavior.onnx (onnx, 77343 bytes, 9 tensors)

discrete_act_size_vector f4 [1, 2]
0	0x40400000	3.0
1	0x40400000	3.0

network_body._body_endoder.seq_layers.0.weight f4 [128, 7]
0	0xbe1798bc	-0.14804357
1	0xbe8ff2b3	-0.28114852
2	0xbf2910c1	-0.6604119
3	0x3f600a99	0.8751617
4	0x3eced1d3	0.40394458
5	0x3ea641d7	0.32472107
6	0x3e8ea73b	0.27861962
7	0x3e086d42	0.13322929
8	0x3e7773cf	0.24165271
9	0xbf28b149	-0.65895516
10	0xbf33cedd	-0.70237523
11	0x3eaa855e	0.33304876
12	0x3dabafbf	0.0838313
13	0xbdd291cb	-0.10281714
14	0x3e8cc0fd	0.27490988
15	0x3def8ff0	0.11697376
16	0x3f10d76a	0.56578696
17	0xbc69587f	-0.0142422905
18	0xbd3c21d0	-0.045930684
19	0x3e5ee27a	0.21766081
20	0xbf13ce03	-0.57736224
21	0xbe215519	-0.15755118
22	0x3f1b334d	0.60625154
23	0x3ed30587	0.41215155
24	0x3e7f13c9	0.24909891
25	0xbefb61ed	-0.4909815
26	0x3ee8066c	0.453174
27	0xbe8fd83d	-0.28094664
28	0x3eafb6ed	0.3431925
29	0xbe156680	-0.14589882
30	0x3ef0c82b	0.47027716
31	0x3ec92d2d	0.3929228
32	0x3ec32218	0.3811195
33	0x3e40a7b6	0.18813977
34	0x3f0b1f68	0.543448
35	0xbe9e672c	-0.3093809
36	0x3f11f0c2	0.5700799
37	0xbea2317b	-0.31678376
38	0xbe7452bb	-0.23859684
39	0x3ebbf62d	0.36711255
40	0xbf0e4d27	-0.55586475
41	0xbdb66833	-0.08906593
42	0xbcaa91db	-0.020821502
43	0xbd486ca6	-0.04893174
44	0x3eec1721	0.46111396
45	0x3db5fd9f	0.08886265
46	0x3f15965b	0.5843255
47	0x3f0b2d33	0.54365844
48	0x3eccb5e2	0.39982516
49	0xbdb7e5af	-0.089793555
50	0xbec3ef6a	-0.38268596
51	0xbdd33583	-0.10312941
52	0xbe8b8395	-0.27248827
53	0x3d434040	0.047668695
54	0x3c216069	0.009849646
55	0xbed59ad8	-0.417197
56	0xbe91cde8	-0.28477407
57	0xbe37f628	-0.17964995
58	0xbe7325fb	-0.23744957
59	0x3d5742b0	0.052553833
60	0x3f0c0d85	0.5470813
61	0xbde83ff2	-0.113403216
62	0xbd0f6709	-0.03501037
63	0xbbe160a2	-0.0068779746
64	0xbe469da7	-0.19396077
65	0xbee3e6ec	-0.44512117
66	0x3f21bf6a	0.631827
67	0x3ef9d5e9	0.48796013
68	0x3f0d0e62	0.5510007
69	0xbeeb632d	-0.45974103
70	0x3d48b786	0.049003147
71	0x3de0561d	0.10953925
72	0xbee38db4	-0.44444048
73	0x3e59aaaf	0.21256517
74	0xbe08861c	-0.13332409
75	0xbe3f09a1	-0.18656017
76	0xbb0027be	-0.0019554938
77	0xbf0418b4	-0.51600194
78	0x3f58359d	0.8445681
79	0xbf1bf26a	-0.6091677
80	0x3dabc7b7	0.08387702
81	0xbea828b2	-0.32843548
82	0xbd6779f9	-0.056512807
83	0x3e040f93	0.12896566
84	0x3e8aa685	0.2708017
85	0x3ebb3ace	0.36568302
86	0x3ea1b700	0.3158493
87	0x3f6524f9	0.8950954
88	0x3d19a6d8	0.03751263
89	0x3e650c1c	0.223679
90	0xbed64ef9	-0.41857126
91	0x3f2f56fb	0.68492097
92	0x3ebe52ee	0.37172645
93	0x3ed51f23	0.41625318
94	0xbd066899	-0.032814596
95	0x3f360b34	0.71110845
96	0x3f18a94e	0.5963334
97	0xbe47644c	-0.19471854
98	0xbe91e1a9	-0.28492478
99	0xbf11005c	-0.56641173
100	0x3ddc2f7b	0.10751244
101	0x3e1e6c1b	0.15470926
102	0x3ee28339	0.4424074
103	0xbb312796	-0.0027031652
104	0xbda58cb0	-0.08083475
105	0xbe384ba2	-0.17997602
106	0x3f1852b2	0.59501183
107	0xbf3589dd	-0.7091349
108	0x3f6baf4d	0.9206436
109	0x3e67e7d1	0.22647025
110	0x3e81281e	0.2522592
111	0xbe6bc45e	-0.23024127
112	0x3e286916	0.16446337
113	0x3eccfbb5	0.40035787
114	0x3ed425e2	0.41435152
115	0x3e24db39	0.16099252
116	0x3eb14a0c	0.34626806
117	0xbda8203f	-0.082092755
118	0xbf086821	-0.5328389
119	0xbde61bd8	-0.112357795
120	0xbd3dc32a	-0.0463287
121	0xbe153e3b	-0.1457452
122	0x3e4afaae	0.19822189
123	0xbf14ef82	-0.5817796
124	0x3e1b063e	0.151391
125	0xbed53cb5	-0.41647878
126	0xbf2d0027	-0.6757836
127	0x3e8df9be	0.277296
128	0xbed84d64	-0.42246544
129	0xbcf96ac2	-0.030446414
130	0xbe9dc77b	-0.30816254
131	0xbf333a73	-0.7001106
132	0x3da1f47e	0.07907961
133	0xbdd1f5f8	-0.10251993
134	0xbe9dd658	-0.30827594
135	0x3f1dcf28	0.6164422
136	0x3f0efd83	0.5585558
137	0xbe84e288	-0.2595408
138	0x3f34bc99	0.7060028
139	0xbe911267	-0.28334352
140	0xbdb8ef12	-0.09029974
141	0xbe03391d	-0.12814756
142	0x3d6a5039	0.057205413
143	0x3f0a364e	0.5398911
144	0x3e21f7e8	0.15817225
145	0xbe9ff7cf	-0.3124375
146	0xbd4c88e4	-0.049935237
147	0xbe1a1a4d	-0.15049095
148	0x3ccea77e	0.02522635
149	0xbeff077c	-0.49810398
150	0x3ebb9062	0.36633593
151	0x3eb0f099	0.3455856
152	0xbdbc09dc	-0.09181568
153	0x3e91f6d7	0.28508636
154	0x3e4a4761	0.19753791
155	0x3e534251	0.20630766
156	0x3ea7bc3f	0.32760808
157	0xbeaebdf7	-0.34129307
158	0x3ecec502	0.4038468
159	0xbf1376b6	-0.57603014
160	0xbf25f775	-0.64830714
161	0xbde3f460	-0.11130595
162	0x3f945f60	1.1591606
163	0xbed685c1	-0.4189892
164	0x3f2004e0	0.6250744
165	0xbde7c3b5	-0.11316625
166	0x3d0ccfe3	0.034377944
167	0xbe1b533f	-0.15168475
168	0xbe559a3c	-0.20859617
169	0xbe97f24c	-0.29677045
170	0x3ef4614c	0.47730482
171	0x3ebd8f54	0.37023413
172	0xbf1568eb	-0.5836322
173	0x3e8208cd	0.2539734
174	0xbd31ceca	-0.0434101
175	0xbf20f1a3	-0.6286871
176	0x3e56a737	0.20962225
177	0x3e4f5347	0.20246612
178	0x3f59772e	0.8494748
179	0x3e4d546c	0.20051736
180	0xbec79745	-0.38982597
181	0x3e868e3a	0.26280385
182	0x3dd895a2	0.10575415
183	0x3f137578	0.5760112
184	0x3eb324d4	0.34989035
185	0x3e1e2a26	0.15445766
186	0xbe871269	-0.26381233
187	0xbf3935c1	-0.72347647
188	0xbc679a5f	-0.014135926
189	0xbe1c0ad0	-0.152385
190	0xbdd7521f	-0.1051371
191	0x3da89cb2	0.08233012
192	0x3e118ca4	0.14213806
193	0xbec610af	-0.38684604
194	0x3e9242c7	0.28566572
195	0x3f0a0824	0.5391867
196	0xbf771279	-0.9651256
197	0x3e4caca3	0.1998773
198	0xbf1d6ec8	-0.61497164
199	0xbeb80269	-0.3593934
200	0xbf578f5a	-0.8420311
201	0xbeae3d6a	-0.3403123
202	0xbe820d1b	-0.25400624
203	0xbdcb72a9	-0.09933979
204	0xbc8a50f7	-0.01688431
205	0x3dfa8e31	0.12234152
206	0x3f08790b	0.53309697
207	0xbd95ca4e	-0.07313977
208	0x3f0c8462	0.548895
209	0xbd4a3ec2	-0.049376257
210	0x3e89ffcc	0.2695297
211	0x3dfbfc9a	0.12304039
212	0xbdafff88	-0.085936606
213	0x3f2e63af	0.68120855
214	0x3f46e6a3	0.77695674
215	0xbe51b67f	-0.20479773
216	0xbe3e2737	-0.18569647
217	0xbedb007b	-0.42773804
218	0x3d1e7bc1	0.03869224
219	0x3f12cdce	0.57345283
220	0x3ed4ab12	0.41536766
221	0xbe015af9	-0.1263236
222	0xbf0e2d90	-0.5553827
223	0xbe1760f6	-0.14783081
224	0x3daaf6bd	0.08347843
225	0x3e4420b6	0.19153103
226	0x3f283b77	0.65715736
227	0x3d8e5707	0.06950193
228	0x3f4d0275	0.80081874
229	0xbdf3585c	-0.118820876
230	0x3db13473	0.08652582
231	0xbe2029e2	-0.15640977
232	0xbf1dde5f	-0.61667436
233	0xbf5aae56	-0.85422266
234	0x3e4afe97	0.19823681
235	0x3f079a69	0.52969986
236	0x3e9918f9	0.29901865
237	0x3eab21f1	0.33424333
238	0xbeda0779	-0.42583826
239	0xbcaa4eda	-0.020789552
240	0xbbd2bb55	-0.006431023
241	0xbf330b21	-0.69938856
242	0xbd9688dc	-0.073503226
243	0x3f00b135	0.50270396
244	0x3e41590e	0.18881628
245	0xbe4aaa0a	-0.19791427
246	0x3ec97839	0.39349535
247	0xbe9d3887	-0.3070719
248	0xbe91645c	-0.2839688
249	0xbed74bde	-0.4205007
250	0x3f2d503b	0.67700547
251	0x3f0c9c2c	0.549258
252	0x3f184c6b	0.59491605
253	0xbed07c38	-0.4071977
254	0x3ede8c35	0.43466344
255	0x3e338648	0.17531693

network_body._body_endoder.seq_layers.0.bias f4 [128]
0	0x3d71cf9c	0.059035882
1	0xbcdd35cb	-0.02700319
2	0x3d0a3460	0.033741355
3	0x3cffd451	0.03122917
4	0x3dfdc077	0.123902254
5	0x3d2dbc8a	0.042416133
6	0x3d899571	0.06717957
7	0xbdb3f358	-0.087866485
8	0x3d23a0b5	0.039948184
9	0x3ca9e609	0.020739572
10	0xbb20900d	-0.0024499923
11	0x3d8eec61	0.069786794
12	0xbbf9c633	-0.007622504
13	0x3d0bebe3	0.034160506
14	0x3d81d61b	0.063396655
15	0x3d638742	0.055548914
16	0x3cc1b2cd	0.02364483
17	0xbdd86b82	-0.105673805
18	0x3d973021	0.07382227
19	0x3c87bb07	0.016568674
20	0x3d81a38e	0.06330024
21	0x3d79a7d9	0.060951088
22	0x3de6b219	0.11264438
23	0x3d8a0f9b	0.06741258
24	0x3d745f3e	0.059661143
25	0x3dd8f2fe	0.10593222
26	0x3da5a42e	0.080879554
27	0x3d75acfc	0.059979424
28	0x3cbae939	0.022816287
29	0x3d646e96	0.055769525
30	0x3cc4c4ee	0.024019685
31	0x3dfd07c9	0.123550005
32	0x3cae8191	0.021302016
33	0x3da86e9c	0.08224222
34	0x3ce1c102	0.027557854
35	0x3d30cc73	0.043163728
36	0x3d2d20e9	0.042267714
37	0x3d4ead86	0.050458454
38	0xbbccfba0	-0.006255582
39	0x3d280925	0.041024346
40	0xbbfa7966	-0.0076438664
41	0xbda51d90	-0.08062279
42	0x3e0161bb	0.12634937
43	0x3d96c268	0.07361299
44	0x3d77e81b	0.060524087
45	0xbdbc0650	-0.091808915
46	0x3c18794c	0.009306263
47	0x3d08bb7b	0.03338192
48	0x3e020a4e	0.12699243
49	0x3bbdeecb	0.0057962886
50	0x3cb74ec3	0.022376424
51	0x3da0fcba	0.07860704
52	0xbd60cf13	-0.05488498
53	0xbd107c65	-0.035274882
54	0xbd3fd5a3	-0.0468346
55	0x3c10a58e	0.008828534
56	0x3d81f786	0.063460395
57	0x3d81e8ea	0.06343253
58	0x3cadfea6	0.02123959
59	0x3cf8e359	0.030381845
60	0x3b0523bd	0.002031549
61	0x3ce9fb78	0.028562292
62	0x3dc2e241	0.09515811
63	0x3d088aaa	0.033335365
64	0x3d236208	0.03988841
65	0xbc83ac06	-0.016073238
66	0x3c93c2cb	0.01803722
67	0x3b472bee	0.0030391174
68	0x3d915df3	0.070979975
69	0x3c6aca13	0.014330405
70	0x3d8b02e4	0.06787661
71	0x3cff6731	0.031177135
72	0x3e0cce15	0.13750489
73	0xbbc5d42a	-0.006037255
74	0x3dc92fa5	0.098235406
75	0xbd3a178c	-0.045432612
76	0xbd84c1ad	-0.06482253
77	0x3d41cc8a	0.047314204
78	0xbd6179e2	-0.055047877
79	0x3d6b613e	0.057465784
80	0x3c8159b6	0.015789848
81	0x3d2b284f	0.04178649
82	0x3d4d493f	0.05011868
83	0xbc09215c	-0.00836977
84	0x3d0ab3b4	0.033862785
85	0xbd2d9eb0	-0.042387664
86	0x3d517567	0.051137354
87	0x3da2a2dc	0.07941219
88	0x3dde0efd	0.108427025
89	0x3d3c80fa	0.04602144
90	0x3ceac727	0.028659416
91	0xbd612069	-0.05496255
92	0xbc27abe6	-0.010233855
93	0x3deaf13b	0.11471792
94	0x3d9ede28	0.07757217
95	0x3d832d13	0.064050816
96	0x3d996a18	0.07490939
97	0xbd5c17f4	-0.05373378
98	0xbbfa3e38	-0.0076368116
99	0xbd10fdb9	-0.03539822
100	0x3d8a690a	0.06758316
101	0x3d634e15	0.055494387
102	0x3dd58129	0.10425026
103	0x3ce5c3e1	0.028047504
104	0xbd8cc377	-0.068732195
105	0x3d7e712c	0.062119648
106	0x3dadbb54	0.08482996
107	0xbb95ea01	-0.0045750146
108	0x3d252075	0.040314157
109	0x3cf68c0a	0.030096073
110	0x3cbbf043	0.022941714
111	0xbc41fcce	-0.0118400585
112	0x3d0177ad	0.031608272
113	0xbb3c28f9	-0.0028710945
114	0x3d04f6ad	0.03246181
115	0x3d25d024	0.0404817
116	0xbbfa14c4	-0.00763187
117	0x3de545a3	0.11194923
118	0x3d1ac0cf	0.037781533
119	0x3cd3829c	0.025819115
120	0xbc97c936	-0.018528562
121	0xbdec6936	-0.11543505
122	0x3c90d096	0.017677587
123	0xbd724beb	-0.059154432
124	0xbd3e19c9	-0.04641131
125	0x3d9ee278	0.07758039
126	0xbd71ef4c	-0.059066102
127	0x3cdae777	0.0267217

network_body._body_endoder.seq_layers.2.weight f4 [128, 128]
0	0x3d91cddb	0.07119342
1	0x3d4d5dd6	0.050138317
2	0x3b5411c5	0.0032359224
3	0x3deea10e	0.116518125
4	0x3d1a5b53	0.03768475
5	0x3e67441b	0.22584574
6	0x3d2d3aaa	0.042292275
7	0x3d96cbe0	0.07363105
8	0xbd24f0a2	-0.040268548
9	0xbe352487	-0.17689715
10	0xbe4e1214	-0.20124084
11	0x3e1d106e	0.15338299
12	0xbceb8958	-0.028752014
13	0x3e04463c	0.12917417
14	0x3d7d781e	0.06188213
15	0x3d18d569	0.0373129
16	0xbd93c8f1	-0.07216061
17	0xbdbfa5ee	-0.093578205
18	0xbd0333e8	-0.032031924
19	0x3d9925fb	0.07477947
20	0xbdd829c3	-0.105548404
21	0xbb416e48	-0.0029515196
22	0x3ba0671f	0.0048951055
23	0x3ddc9820	0.10771203
24	0xbe15e75b	-0.14639036
25	0xbe3c02e7	-0.18360482
26	0xbda3df40	-0.08001566
27	0x3b286941	0.0025697502
28	0x3dbaffc4	0.09130815
29	0xba6f4e4a	-0.00091287924
30	0xbd852a5c	-0.0650222
31	0xbe818a83	-0.2530099
32	0xbe65d6e0	-0.2244525
33	0x3cc55767	0.024089528
34	0x3d8e9de0	0.06963706
35	0x3d664ee8	0.056227595
36	0x3c5eb556	0.013593039
37	0xbd81d817	-0.06340044
38	0xbd3b6d22	-0.045758374
39	0xbd7b3c5d	-0.061336864
40	0xbd93d1a0	-0.07217717
41	0xbe174015	-0.14770539
42	0x3d037f41	0.03210378
43	0xbd8b8c8c	-0.068139166
44	0xbe9cffb4	-0.30663836
45	0x3d90b1a9	0.07065136
46	0x3e3a0426	0.18165645
47	0x3c116e11	0.0088763395
48	0x3e0ed277	0.13947473
49	0x3d90134c	0.070349306
50	0xbd48f5a0	-0.04906237
51	0xbdd8a3a9	-0.10578091
52	0x3bb99895	0.005663941
53	0xbc09add0	-0.008403257
54	0xbd9496ef	-0.07255351
55	0x3d7714d4	0.060322598
56	0xbd5f313f	-0.054490324
57	0x3bb255a9	0.0054423404
58	0x3dcca706	0.09992795
59	0xbd99fb66	-0.075186536
60	0x3c8fc147	0.017548217
61	0xbdf28838	-0.11842388
62	0x3e0f0e65	0.13970335
63	0xbd9872cf	-0.07443773
64	0x3e0a6034	0.13513261
65	0x3c8d087d	0.017215962
66	0x3b61de89	0.0034464917
67	0x3c960308	0.018311992
68	0xbc82f096	-0.015983861
69	0xb9e5b1ef	-0.00043810855
70	0x3df069bb	0.117389165
71	0xbd843775	-0.0645589
72	0x3d4fc6cf	0.050726708
73	0xbe400ff1	-0.18756081
74	0xbb568cec	-0.0032737805
75	0xbd0da27b	-0.03457878
76	0x3db65098	0.08902091
77	0x3ddcb0fd	0.10775945
78	0x3e29dc25	0.16587885
79	0x3e78f97d	0.24313922
80	0xbe85e765	-0.26153103
81	0xbb33a681	-0.0027412476
82	0xbd016daf	-0.031598743
83	0xbd9afea3	-0.07568099
84	0x3ded7415	0.115944065
85	0x3de080dd	0.10962079
86	0x3e241dd5	0.16027005
87	0xbd4c02e8	-0.04980746
88	0x3e2bd802	0.16781619
89	0x3e57a9c6	0.21060857
90	0xbe6d2f20	-0.23162508
91	0xbdf4e80f	-0.11958324
92	0xbdaa883c	-0.08326766
93	0xbd24daa0	-0.04024756
94	0xbb4f5ef8	-0.00316423
95	0x3d4dcf4c	0.05024652
96	0x3e5a3b9b	0.213118
97	0x3c85be0c	0.016325973
98	0xbb6547b3	-0.0034985363
99	0xbdbdfcdc	-0.09276745
100	0xbcd225fc	-0.025652878
101	0xbe394e96	-0.18096384
102	0xbe6269c7	-0.22110663
103	0xbd2c138b	-0.042010825
104	0x3e081e19	0.13292731
105	0x3e1aa794	0.15102988
106	0x3daf139a	0.085486606
107	0xbd864385	-0.06555847
108	0xbccb861b	-0.02484422
109	0xbd9e074e	-0.07716237
110	0xbd4c8a7b	-0.049936753
111	0xbe35c87d	-0.17752261
112	0x3d131bf1	0.03591532
113	0x3d0d848c	0.034550235
114	0xbdc866bd	-0.09785221
115	0xbcf02f56	-0.029319447
116	0x3e2a8124	0.16650826
117	0xbcc367f6	-0.023853283
118	0xbdb5ffe8	-0.08886701
119	0xbc8d7825	-0.017269203
120	0xbe70360c	-0.23458117
121	0xbdeedbb2	-0.11662997
122	0xbd0a178a	-0.033713855
123	0xbdbb2c5c	-0.0913932
124	0xbdda0ab2	-0.10646571
125	0x3dcac418	0.09900683
126	0xbdfb4618	-0.12269229
127	0x3dadff6f	0.08495986
128	0x3ddfca41	0.10927249
129	0x3e3373f8	0.17524707
130	0xbce903c2	-0.028444175
131	0x3cdb2783	0.02675224
132	0x3c0c8e98	0.008578919
133	0x3b0a6300	0.0021116138
134	0xbc2fa90c	-0.010721456
135	0x3ddf4d04	0.109033614
136	0x3d6ab8b1	0.05730504
137	0x3e250d61	0.16118385
138	0xbd3ce80b	-0.04611973
139	0x3daa780d	0.08323679
140	0xbb621474	-0.0034497054
141	0x3d63a166	0.055573843
142	0xbaaca8ae	-0.0013172829
143	0x3ccf4a7c	0.025304072
144	0x3e13c60f	0.14431022
145	0x3e09b27f	0.13446997
146	0x3d4f7d89	0.05065683
147	0xbc841775	-0.016124466
148	0x3e163f5b	0.14672606
149	0xbd373a76	-0.044733487
150	0x3b4e1197	0.003144359
151	0x3df72a04	0.12068561
152	0x3ddfcf89	0.10928256
153	0xb9b6c3d8	-0.0003485966
154	0xbcbb1a72	-0.022839759
155	0x3d2ce36b	0.04220907
156	0x3e35e29b	0.17762224
157	0x3d4a3cf8	0.04937455
158	0x3da16b2e	0.07881771
159	0xbe3b6e63	-0.18303828
160	0xbd9059e3	-0.070483945
161	0x3db77f70	0.08959854
162	0x3dd095ce	0.10184823
163	0x3bd4e727	0.006497282
164	0xbdb78bbb	-0.08962198
165	0xbd5a2c90	-0.053265154
166	0xbc825798	-0.015910909
167	0xbd3245ca	-0.043523587
168	0xbd967172	-0.07345857
169	0xb9e7cda1	-0.0004421296
170	0xbdd1442e	-0.10218082
171	0x3df79879	0.12089629
172	0xbd96508c	-0.07339582
173	0xbe1fb162	-0.1559501
174	0x3d14a949	0.036294255
175	0xbdb8755a	-0.09006758
176	0x3e1b158d	0.1514494
177	0xbdca5c6a	-0.09880908
178	0xbd9ef441	-0.077614315
179	0x3e5510cb	0.20807187
180	0x3ddfc1ac	0.10925612
181	0xbdea8051	-0.11450256
182	0xbd94d83e	-0.072678074
183	0xbe087901	-0.1332741
184	0xbdf14d33	-0.11782303
185	0xbaed9bb9	-0.0018128074
186	0xbd84ba22	-0.064808145
187	0x3dd60871	0.10450829
188	0xbd9e7b02	-0.07738306
189	0xbcdc5a52	-0.026898537
190	0x3d50d97e	0.050988667
191	0x3c82bcdd	0.015959198
192	0xbdd4876a	-0.10377391
193	0xbd8c904a	-0.068634585
194	0x3db3dae5	0.08781985
195	0x3e4bc061	0.19897605
196	0xbd1806a7	-0.03711572
197	0xbc837bc5	-0.016050229
198	0x3d0daa86	0.034586452
199	0xbd66255f	-0.056187984
200	0xbcf6647b	-0.03007721
201	0xbc04708e	-0.008083476
202	0x3c8b40af	0.016998617
203	0xbcaacfcd	-0.02085104
204	0x3e52c53f	0.20583056
205	0xbd54bf47	-0.05194023
206	0xbd49123a	-0.049089648
207	0x3c81ce36	0.0158454
208	0xbe04af17	-0.12957416
209	0x3d116ce0	0.035504222
210	0x3e4ef343	0.20209984
211	0xbb210901	-0.0024572017
212	0x3e25594a	0.16147342
213	0x3d35918b	0.044328254
214	0xbc977a3f	-0.018490909
215	0x3d74ed8d	0.05979686
216	0x3c753acf	0.014967634
217	0xbb85253e	-0.0040632775
218	0xbd28cc2a	-0.04121033
219	0xbdc44988	-0.095843375
220	0x3cb08c90	0.0215514
221	0x3d4752d9	0.048662994
222	0x3e189323	0.14899878
223	0x3e328559	0.1743368
224	0xbd853b1c	-0.06505415
225	0x3dad0107	0.084474616
226	0xbdfae75e	-0.12251161
227	0x3cc5be30	0.02413854
228	0xbb941d16	-0.004520069
229	0x3b18e395	0.002332901
230	0x3e4c47ea	0.19949308
231	0xbce3ea81	-0.027821781
232	0x3d893bfa	0.06700893
233	0xbd9f23e6	-0.07770519
234	0xbd796a50	-0.060892403
235	0xbd4faa20	-0.050699353
236	0xbd82ef6c	-0.06393322
237	0xbdce98a1	-0.100877054
238	0xbdaff24e	-0.08591138
239	0x3e2f1fe1	0.17102005
240	0xbca92c3b	-0.020650974
241	0x3c3f13df	0.0116624525
242	0xbd8067ac	-0.06269774
243	0x3da647ba	0.081191495
244	0xbd7b2450	-0.061313927
245	0x3dd663e4	0.104682714
246	0xbcca9567	-0.024729444
247	0x3dce69af	0.10078751
248	0xbd153f02	-0.036437042
249	0xbe287a75	-0.16452964
250	0x3d8b246c	0.06794056
251	0xbe07d605	-0.13265236
252	0x3d8f4e67	0.06997376
253	0xbd109249	-0.03529576
254	0xbd7339e2	-0.059381373
255	0x3da945e9	0.082652874

network_body._body_endoder.seq_layers.2.bias f4 [128]
0	0x3d6b97f7	0.05751797
1	0x3cc6c4e7	0.024263812
2	0xba9657ab	-0.0011470219
3	0xbd488110	-0.04895121
4	0x3cd08759	0.025455164
5	0x3d289546	0.041157983
6	0xbd877053	-0.06613221
7	0xbd76c39c	-0.06024514
8	0x3d090587	0.033452537
9	0xbd95be1f	-0.07311653
10	0xbd08a7ba	-0.03336308
11	0x3d70ac39	0.058757994
12	0xbdf96a68	-0.121784985
13	0x3d636504	0.055516258
14	0x3d24cca6	0.04023423
15	0x3c2da3d8	0.010598145
16	0xbc4ef070	-0.012630567
17	0x3c86797d	0.016415352
18	0xbcede98b	-0.029042026
19	0xbc0eda69	-0.008719065
20	0xbd746b63	-0.059672724
21	0x3be7af76	0.007070477
22	0x3cf676ba	0.03008591
23	0xbc27578e	-0.010213746
24	0x3cdc4a1a	0.026890803
25	0xbda55754	-0.08073297
26	0x3dbcc136	0.092165396
27	0xbd02e5b5	-0.031957347
28	0x3cb9ce35	0.022681335
29	0xbd78adf0	-0.060712755
30	0x3d0579ab	0.032586735
31	0x3d915dd6	0.07097976
32	0x3d13c5bf	0.036077257
33	0x3d87dc55	0.06633822
34	0x3ca33995	0.019924918
35	0x3c007105	0.007839446
36	0xbbdcaaea	-0.0067342417
37	0x3d4722f7	0.04861733
38	0x3d2d88ed	0.04236691
39	0x3d232648	0.03983143
40	0xbd874464	-0.06604841
41	0x3d4b98ba	0.0497062
42	0x3bf0e187	0.0073511037
43	0x3c4c4589	0.01246775
44	0x3d43ea1b	0.047830682
45	0x3c0dcff8	0.008655541
46	0x3aa5e206	0.0012655861
47	0xbd28a47e	-0.041172497
48	0xbd25ff1a	-0.040526487
49	0xbb560002	-0.0032653813
50	0x3b99ccb0	0.00469359
51	0x3d9e7110	0.07736409
52	0xbcbeae1e	-0.023276385
53	0x3b89c46b	0.004204323
54	0x3c9f8c57	0.019476099
55	0x3cfe6569	0.031054216
56	0x3c8b9974	0.017040946
57	0x3b9d0beb	0.0047926805
58	0x3d1207d2	0.03565199
59	0x3c20e373	0.009819853
60	0xbda26ebd	-0.07931278
61	0x3d7664bc	0.06015466
62	0xbd0da5fe	-0.03458213
63	0x3c9cc609	0.0191374
64	0x3d0f3587	0.034963157
65	0x3d841f17	0.064512424
66	0x3d9dbf1a	0.07702465
67	0x3c69185e	0.014227001
68	0x3c7acbaa	0.015307346
69	0x3a59568c	0.00082907896
70	0x3a63ca7a	0.0008689534
71	0x3d6e761f	0.058218118
72	0x3cd2ccaa	0.025732357
73	0x3ce8e5e0	0.028429925
74	0x3d4b2208	0.049593
75	0xbc9f9ae1	-0.019483032
76	0x3d8f1987	0.06987291
77	0x3c442dbe	0.011973796
78	0x3d1fcb9a	0.03901253
79	0x3d6e16a7	0.05812707
80	0x3d8d8cb5	0.06911603
81	0x3c06bd29	0.00822381
82	0x3bd55146	0.0065099327
83	0xbc59c443	-0.013291421
84	0x3cfb82b7	0.030701978
85	0xbd5ce711	-0.0539313
86	0x3d069c76	0.032864057
87	0xbd7de1c3	-0.06198288
88	0x3d15af76	0.036544286
89	0x3cdb1e92	0.026747975
90	0x3d88c271	0.06677712
91	0x3b004825	0.0019574251
92	0x3c00d383	0.007862928
93	0xbc2f0747	-0.010682887
94	0xbb9d70a8	-0.0048046894
95	0x3cb1fe2a	0.02172764
96	0x3b688749	0.0035481027
97	0x3cabbe43	0.020964747
98	0x3d7523e9	0.0598487
99	0x3d5dd10b	0.054154437
100	0xbd1d08d4	-0.038338497
101	0xbac294ee	-0.001484541
102	0xbddedbde	-0.1088178
103	0x3da592a1	0.08084608
104	0x3d34771f	0.044058915
105	0x3cec7dc9	0.028868573
106	0x3c29cc9c	0.010363724
107	0xbc12aafd	-0.0089519
108	0x3c612065	0.013740634
109	0x3d1a4cbe	0.037670843
110	0x3da083ac	0.078376144
111	0xbce52777	-0.02797292
112	0xbb214f76	-0.0024614013
113	0x3c4a0bce	0.012331916
114	0x3cb78f05	0.022407064
115	0xbd06ae4f	-0.032881077
116	0xbb4453c2	-0.002995715
117	0x3d0d6e3e	0.034528963
118	0x3cfa4366	0.030549716
119	0x3c6ee11c	0.014580037
120	0x3d0f0b19	0.034922693
121	0xbc902601	-0.017596247
122	0xbcb25d9f	-0.021773158
123	0x3cb65089	0.022255199
124	0x3dac477f	0.08412074
125	0x3cdce698	0.026965424
126	0x3d17fa44	0.037103906
127	0xbd866fb0	-0.065642715

action_model._discrete_distribution.branches.0.weight f4 [3, 128]
0	0xbc1a1db0	-0.009406492
1	0xbbe6e59d	-0.007046415
2	0xbd8542e4	-0.06506899
3	0x3d5fd4df	0.05464637
4	0xbc6bdf15	-0.014396449
5	0xbd3371d1	-0.043809716
6	0x3d614890	0.05500084
7	0x3b893f29	0.0041884375
8	0xbd17dc18	-0.037075132
9	0x3d31331b	0.04326163
10	0x3adc405e	0.0016803851
11	0xbd60d61a	-0.054891683
12	0x3ce413ca	0.027841467
13	0xbc8f31de	-0.017479833
14	0xbd1f86db	-0.038946968
15	0xbc7e5c90	-0.015524998
16	0x3cc0a99b	0.023518374
17	0xbc8f00a9	-0.01745637
18	0x3d28f308	0.041247398
19	0xbc3d9e76	-0.011573425
20	0xbd1bb88d	-0.0380178
21	0xbc556d53	-0.013026553
22	0xbd3e80b3	-0.046509456
23	0xbd26df40	-0.04074025
24	0xbcaf9e08	-0.02143766
25	0x3c2d96a8	0.010595001
26	0xbd46c295	-0.04852541
27	0x3c0a3194	0.008434672
28	0xbc44f6b1	-0.012021706
29	0xbcadcec2	-0.021216754
30	0xbd06a09b	-0.03286801
31	0xbce335e9	-0.027735667
32	0xbd1b8d26	-0.037976407
33	0xbb4bb0c5	-0.0031080705
34	0xbb0eae7e	-0.0021771486
35	0xbd09e644	-0.033666864
36	0x3d66f12a	0.056382336
37	0xbd8ccf4d	-0.06875477
38	0xbd35d4f7	-0.044392552
39	0xbd065fea	-0.032806315
40	0x3d183767	0.03716221
41	0xbceec781	-0.029147865
42	0xba1c3c77	-0.00059599377
43	0xbcb58ad0	-0.022160918
44	0xbc7fd8cf	-0.015615656
45	0xbc480c87	-0.012210018
46	0xbc522138	-0.012825303
47	0xbbc9eecf	-0.0061625014
48	0x3c96a5cc	0.018389605
49	0xbd6ece37	-0.05830213
50	0xbc0e60f0	-0.008690104
51	0xbc35113a	-0.01105147
52	0xbc79f14d	-0.0152552845
53	0x3d85d5f7	0.06534951
54	0xbc8558e1	-0.016277732
55	0xbd30ebce	-0.04319363
56	0x3b5c7208	0.0033637304
57	0xbc80da59	-0.015729116
58	0xbce1e860	-0.027576625
59	0x3bca94b3	0.006182277
60	0xbd8df2f4	-0.06931105
61	0xbd18de6a	-0.037321486
62	0x3c532b9b	0.012888814
63	0x3cf79873	0.03022406
64	0xbd0b49c3	-0.03400589
65	0xbce87f26	-0.028380942
66	0xbd2be33e	-0.041964762
67	0x3c9fc4bb	0.019502988
68	0xbd5591f9	-0.052141163
69	0xbcdb3e9e	-0.026763257
70	0xbd12a445	-0.03580119
71	0xbc2ece62	-0.010669323
72	0xbd28c1e8	-0.04120055
73	0x3b94832b	0.004532238
74	0x3ca39f93	0.019973552
75	0x3d227979	0.039666627
76	0xbd840236	-0.06445734
77	0x3c1e35f5	0.009656419
78	0xbd12b8da	-0.03582082
79	0xbd997bd5	-0.07494322
80	0xbda6cf6a	-0.0814503
81	0xbd00f672	-0.03148503
82	0x3da3e775	0.08003131
83	0xbca3c9be	-0.01999366
84	0x3d2e397e	0.042535298
85	0xbcdd81cb	-0.02703943
86	0x3d3a8a81	0.045542244
87	0xbd0b51be	-0.034013502
88	0xbd138c9a	-0.03602276
89	0xbcbb143c	-0.022836797
90	0xbc464d51	-0.012103395
91	0x3ce251a7	0.027626825
92	0xbc0f34ab	-0.008740584
93	0xbcb7d40a	-0.022439975
94	0x3d987478	0.0744409
95	0xbc013087	-0.007885105
96	0xba4d90dc	-0.0007841715
97	0xbcbc675f	-0.02299851
98	0xbd43f483	-0.047840606
99	0x3d30ae4e	0.04313498
100	0x3ccd948e	0.02509525
101	0xbd260f9c	-0.04054223
102	0x3ac6ae7b	0.00151582
103	0xbd397759	-0.045279834
104	0xbce72ccf	-0.028219609
105	0xbd456dd3	-0.04820044
106	0xbd843930	-0.0645622
107	0xbbf566c3	-0.007489057
108	0xbd0b2980	-0.033975124
109	0xbd038983	-0.032113563
110	0xbd3ee7c4	-0.046607748
111	0x3cc94b66	0.024572086
112	0xbc84ced4	-0.016211905
113	0xbc35079b	-0.011049177
114	0xbd04d18d	-0.032426406
115	0x3c94b670	0.0181534
116	0x3bdd7e2d	0.006759426
117	0xbcaf443b	-0.02139484
118	0xbd07be44	-0.033140436
119	0x3c7e03cb	0.015503834
120	0x3af2b735	0.0018517735
121	0xbc75fe20	-0.015014201
122	0x3d6c9ff6	0.05776974
123	0xbd9d32a4	-0.076756746
124	0x3c0198e6	0.007909989
125	0x3bcc8e48	0.006242547
126	0x3d30d03d	0.04316734
127	0x3c6cc80a	0.01445199
128	0x3d2acf1f	0.041701432
129	0xbd960a34	-0.07326165
130	0x3d70c059	0.058777187
131	0xbc530e25	-0.01288179
132	0xbd8e3194	-0.0694305
133	0x3d0de8c1	0.0346458
134	0xbd5c2c8b	-0.053753417
135	0xbd702f15	-0.05863865
136	0xbda243dd	-0.079231
137	0xbd2f33e8	-0.04277411
138	0x3b2880c0	0.0025711507
139	0xbdb4817c	-0.0881376
140	0xbcefe553	-0.029284155
141	0x3c180e37	0.009280733
142	0x3c9a2fae	0.018821564
143	0x3c1536dc	0.009107318
144	0xbdb50414	-0.088386685
145	0x3d56d035	0.052444655
146	0x3aaf6900	0.0013382733
147	0xbc451f0e	-0.01203133
148	0xbd45bfa4	-0.048278466
149	0x3d0d2867	0.03446236
150	0xbda86bc9	-0.082236834
151	0x3c66d402	0.014088633
152	0xbcded090	-0.02719906
153	0xbd378efd	-0.0448141
154	0x3d504ba6	0.050853394
155	0xbd0325b8	-0.032018393
156	0xbd07e643	-0.03317858
157	0xbb83c316	-0.004021059
158	0xbc19b579	-0.009381645
159	0x3dc83368	0.0977543
160	0x3c431680	0.01190722
161	0x3dfda29a	0.123845294
162	0x3c86008b	0.01635768
163	0x3d6638f3	0.056206655
164	0xbca7aa9f	-0.0204671
165	0x3ce2194e	0.027599957
166	0xbca0e391	-0.019639762
167	0x3b2a3bff	0.0025975702
168	0xbb8ca61b	-0.0042922623
169	0xbe0332ac	-0.12812299
170	0xbc8cb525	-0.01717622
171	0x3cb3f12d	0.021965588
172	0x3bdea0a4	0.006794052
173	0x3d24308d	0.040085364
174	0xbdfcd7af	-0.12345826
175	0xbc7376c4	-0.014859859
176	0xbcfebb37	-0.03109513
177	0x3d1769bd	0.036966074
178	0xbd5995fd	-0.053121556
179	0x3dfdfbb4	0.12401524
180	0x3adbd66c	0.0016772277
181	0x3cfe328a	0.031029958
182	0x3cceeea3	0.025260275
183	0xbb69be12	-0.003566627
184	0xbd5c41f4	-0.053773835
185	0xbd33887a	-0.043831326
186	0xbdfa154b	-0.122110926
187	0xbd3d78ed	-0.046257902
188	0xbcd52dfb	-0.026022902
189	0xbd1d555e	-0.03841149
190	0xbd84b38f	-0.064795606
191	0x3d1cbb1e	0.038264386
192	0x3d214219	0.039369676
193	0x3d2aaaa4	0.04166664
194	0xbdb81a39	-0.089893766
195	0x3d093654	0.033499077
196	0x3b560ecd	0.003266263
197	0x3ca17ee3	0.019713825
198	0x3be31a35	0.0069306144
199	0x3d669075	0.05629011
200	0x3d0886b0	0.033331573
201	0x3b17871a	0.0023121298
202	0xbce73515	-0.028223554
203	0xbcdb7cc0	-0.026792884
204	0xbddb422f	-0.10705983
205	0x3d3d847e	0.046268933
206	0x3cc96b36	0.024587255
207	0x3d294cff	0.041333195
208	0xbc35be64	-0.011092756
209	0x3c2165f8	0.009850971
210	0x3cf0f218	0.029412314
211	0x3d1a09f4	0.03760715
212	0xbcf1a03c	-0.029495351
213	0xbd79246d	-0.060825754
214	0x3d2200c7	0.039551523
215	0x3ce1bc57	0.027555628
216	0x3cacb806	0.021083843
217	0xbc2e15ca	-0.010625312
218	0x3da6a028	0.08136016
219	0x3cb5a2f8	0.022172436
220	0x3ce20f60	0.027595222
221	0x3c1da4b9	0.0096217925
222	0xbd9e0a2a	-0.077167824
223	0x3d685274	0.05671926
224	0x3d231ca7	0.039822247
225	0x3c85f66b	0.016352853
226	0x3cf2f1fe	0.029656406
227	0x3d997988	0.07493883
228	0xbd42631a	-0.047457792
229	0x3d315b82	0.04330016
230	0xbd81ec17	-0.06343859
231	0x3d632dd9	0.055463646
232	0xbdc50749	-0.0962053
233	0x3cb7d8ac	0.022442184
234	0xbc8129f9	-0.015767084
235	0x3d0921bd	0.03347944
236	0x3c978c1e	0.01849943
237	0xbdc3184d	-0.095261194
238	0x3db6c38d	0.08924017
239	0xbd00a168	-0.03140393
240	0xbc172c6c	-0.0092269
241	0x3d49b4a9	0.049244557
242	0xbce4d633	-0.02793417
243	0xbd5b33ad	-0.05351608
244	0x3d01d5e7	0.031698134
245	0xbd3013b6	-0.042987548
246	0x3cfffd19	0.031248616
247	0x3d9fb308	0.077978194
248	0x3d80f6cd	0.062970735
249	0x3d3a28ba	0.045448996
250	0x3c3fbcc9	0.011702725
251	0xbbe0f759	-0.0068654236
252	0x3d8b8c5e	0.06813882
253	0x3dd0fb2c	0.10204157
254	0xbc5bf200	-0.0134243965
255	0x3be0b9db	0.006858093

action_model._discrete_distribution.branches.0.bias f4 [3]
0	0xbd49b536	-0.04924508
1	0x3d35d291	0.044390265
2	0x39b0515b	0.0003362995

action_model._discrete_distribution.branches.1.weight f4 [3, 128]
0	0x3d750ed6	0.0598286
1	0x3d2ed5fa	0.042684533
2	0x3d39e937	0.045388427
3	0x3cb4ad19	0.022055196
4	0x3c9ec226	0.019379687
5	0xbc51c295	-0.01280274
6	0x3d0af5a2	0.03392566
7	0xbcd3309e	-0.025780018
8	0x3c28e47d	0.010308382
9	0x3c83fb24	0.016110964
10	0xbcec0d2f	-0.02881488
11	0x3b6a14fe	0.0035718079
12	0x3d49fba2	0.04931224
13	0xbd8ada17	-0.067798786
14	0xbc992463	-0.018694108
15	0xbd2160ea	-0.039399065
16	0x3d244a0b	0.040109675
17	0x3d01e5c6	0.03171327
18	0x3d8c1383	0.06839659
19	0xbd698415	-0.05701073
20	0x3c229d81	0.009925247
21	0x3bed5744	0.007243069
22	0xbc873a6f	-0.016507355
23	0x3ae95fa6	0.0017804995
24	0xbb6f1bb2	-0.0036485014
25	0xbc9cfb37	-0.019162757
26	0x3d7f90c2	0.06239391
27	0x3ccc1ca9	0.02491601
28	0x3d2f02f4	0.042727426
29	0xbcb44c16	-0.022008937
30	0xbd22dc13	-0.03976066
31	0x3d389e66	0.045072936
32	0xbd5ebed1	-0.054381195
33	0x3d73d614	0.059530333
34	0x3b4a20da	0.0030842335
35	0xb9b1279e	-0.00033789588
36	0x3d596101	0.053071026
37	0xbc095b03	-0.008383515
38	0xbd47d852	-0.048790284
39	0xbd1032e6	-0.03520479
40	0x3b9ae545	0.004727038
41	0x3a948e36	0.0011333886
42	0x3d8b52c8	0.06802899
43	0xbce5ab25	-0.02803571
44	0xbd2047a8	-0.039130837
45	0x3abf67fb	0.0014603132
46	0x3d1dd8e1	0.03853691
47	0xbcb443bf	-0.02200496
48	0xbb85176c	-0.00406163
49	0x3ca989db	0.020695617
50	0xbc6788aa	-0.014131704
51	0x3d57dca0	0.05270064
52	0x3a959b11	0.0011414011
53	0x3b2c430d	0.0026285083
54	0xbc981975	-0.018566826
55	0x3d79aa85	0.060953636
56	0xbc7c7cdf	-0.015410631
57	0xbc54dc36	-0.0129919555
58	0xbc573e85	-0.013137464
59	0xbcfe62f4	-0.031053044
60	0xbcd82a51	-0.026387366
61	0xbc7feebb	-0.015620883
62	0x3bdddc44	0.0067706425
63	0x3d7c7c76	0.061642133
64	0x3c58fba6	0.013243591
65	0xbb6c9260	-0.0036097988
66	0xbdb0304f	-0.08602964
67	0x3d54948d	0.05189948
68	0xbcf33955	-0.029690424
69	0xbc13bca1	-0.009017141
70	0xbc83296e	-0.016010966
71	0x3d29eb3f	0.041484114
72	0xbb3491aa	-0.0027552643
73	0xbdcc0b5e	-0.099631056
74	0xbc7aaee2	-0.015300484
75	0x3d15c337	0.036563125
76	0x3ce6e481	0.028185131
77	0x3c75077a	0.014955396
78	0xbc373940	-0.011183083
79	0xbcf7fc29	-0.030271607
80	0xbd2cff88	-0.04223588
81	0xbb517c03	-0.0031964786
82	0xbc42a8c0	-0.011881053
83	0x3d017ad2	0.03161127
84	0x3da36fd7	0.07980316
85	0x3d243a15	0.040094454
86	0x3d88dbf8	0.06682581
87	0xbc97aa67	-0.018513871
88	0xbd1cd366	-0.038287543
89	0xbd3b27a3	-0.045692097
90	0x3d862e18	0.065517604
91	0xbd40a4ff	-0.047032353
92	0xbae2f6d1	-0.0017315989
93	0xbc89e780	-0.01683402
94	0xbc6d11d7	-0.014469585
95	0x3bba13b2	0.0056786174
96	0x3ab4a987	0.0013783433
97	0xbc48a7ca	-0.012247035
98	0x3c07b492	0.008282797
99	0x3d389fe9	0.045074377
100	0x3c2dab6e	0.010599954
101	0x3b4299f4	0.0029693814
102	0x3d11e278	0.035616368
103	0x3d0bb64a	0.03410939
104	0xbc0212c5	-0.007939045
105	0xbc453595	-0.012036701
106	0x3b02ec98	0.0019977447
107	0xbcb0da6e	-0.02158853
108	0xbc6ddecd	-0.014518452
109	0xbc8f6b1a	-0.017507125
110	0x3da90eec	0.08254799
111	0x3ccb021e	0.024781283
112	0x3c2dcd3b	0.010608013
113	0x3c484c88	0.012225278
114	0x3c2854ef	0.010274156
115	0x3c819461	0.015817823
116	0xbc9e297d	-0.019306893
117	0x3bb86ff5	0.0056285807
118	0xbd1579fe	-0.036493294
119	0xbca9610f	-0.020676164
120	0xbb9da344	-0.0048107225
121	0x3a546b0e	0.00081031106
122	0x3d3eea76	0.046610318
123	0xbbd1cd8f	-0.0064026783
124	0x3c7b5e18	0.015342258
125	0x3d904199	0.07043762
126	0x3bf51e17	0.0074803936
127	0xbca72aff	-0.020406244
128	0xbdfe8401	-0.124275215
129	0xbd064b8b	-0.032786887
130	0xbca1c9e8	-0.019749597
131	0xbcbd7473	-0.023126816
132	0x3b415912	0.0029502553
133	0x3c238921	0.009981425
134	0xbc1d773e	-0.009610949
135	0xbb588b4b	-0.003304201
136	0x3d49c67a	0.049261548
137	0xbc9e64f8	-0.019335255
138	0x3c2b801a	0.0104675535
139	0xbbe5acba	-0.007009116
140	0x3c48092d	0.012209219
141	0x3c480b83	0.012209776
142	0xbc5d57db	-0.013509716
143	0x3d305830	0.043052852
144	0xbc84dc7a	-0.016218413
145	0x3d2c66c4	0.042090192
146	0xbd74773a	-0.059684016
147	0x3d20a7cb	0.03922252
148	0xbd6b6b56	-0.05747541
149	0x3d8f8b0d	0.07008944
150	0x3b8ebea9	0.0043562246
151	0x3c99fceb	0.018797358
152	0xbb23ecab	-0.0025012891
153	0xbb494d80	-0.003071636
154	0xbdc91711	-0.09818853
155	0xbcc45349	-0.023965495
156	0xbca6e7e6	-0.02037425
157	0x3c176b01	0.00924182
158	0x3d305eea	0.043059267
159	0xbdfbf43a	-0.12302442
160	0x3d4d4975	0.050118882
161	0xbd1bf2c8	-0.03807333
162	0x3d952751	0.0728289
163	0xbcd2feec	-0.025756322
164	0xbbbf9f3c	-0.0058478396
165	0x3d085ea0	0.033293366
166	0x3b894bc5	0.0041899406
167	0xbcb87fd7	-0.022521896
168	0xbc89a41b	-0.016801884
169	0xbc131a16	-0.008978387
170	0x3d2c8dbe	0.042127363
171	0x3d922600	0.07136154
172	0x3ce6e642	0.028185967
173	0x3d3f30f9	0.046677563
174	0xbb000128	-0.001953194
175	0x3b5ae2bd	0.0033399307
176	0xbcbbaa41	-0.022908332
177	0xbd03c2a4	-0.032168046
178	0xbcd37f9b	-0.025817683
179	0xbda62af1	-0.08113659
180	0x3cf19f54	0.029494919
181	0x3b2b3162	0.0026121964
182	0x3d2a508b	0.041580718
183	0xbdb439c4	-0.088000804
184	0xbaf204e2	-0.001846459
185	0x3d4fa702	0.05069638
186	0xbd4e8189	-0.050416503
187	0x39ce9401	0.00039401653
188	0xbc8cb0a4	-0.017174073
189	0xbce2e34a	-0.02769627
190	0xba4b8114	-0.00077630696
191	0x3b4b735a	0.0031044097
192	0x3ceb41eb	0.028717956
193	0xbc62e189	-0.013847717
194	0x3d21df73	0.03951974
195	0xba9eaf6e	-0.0012106725
196	0xbca7ba83	-0.020474678
197	0xbbdc6899	-0.006726336
198	0x3cb1af35	0.02168999
199	0xbdd87d1c	-0.10570738
200	0x3d01962a	0.03163735
201	0x3d610743	0.054938566
202	0x3be49381	0.0069755916
203	0xbcf86f93	-0.03032664
204	0x3c0dff91	0.008666889
205	0x3ce2892b	0.027653297
206	0x3d95af7f	0.07308864
207	0x3d1dbafa	0.038508393
208	0x3cff6eea	0.031180818
209	0x3d8a584f	0.06755125
210	0x3c9331f0	0.017968148
211	0xb979abee	-0.0002381054
212	0x3d173ab1	0.036921207
213	0xbd0eaad2	-0.034830876
214	0x3a11356c	0.00055392715
215	0xbc8200d7	-0.015869541
216	0x3cd7fa33	0.026364421
217	0xbd189868	-0.03725472
218	0xbe164dd6	-0.1467813
219	0x3d5e5d31	0.054288093
220	0x3d767dee	0.06017869
221	0x3d094a2b	0.033517998
222	0xba963f7f	-0.0011463015
223	0x3d313c06	0.043270133
224	0x3d6bbde4	0.05755414
225	0x3d13ae61	0.036054973
226	0xbdc1390b	-0.09434708
227	0x3ceed348	0.029153481
228	0xbcd324c4	-0.025774367
229	0x3cabcd37	0.020971878
230	0x3c343691	0.010999338
231	0xbe0d218e	-0.13782331
232	0x3d5e486d	0.05426829
233	0x3d08cad3	0.033396553
234	0xbcba456b	-0.02273818
235	0x3cc4b376	0.024011355
236	0x3c844cbc	0.016149871
237	0x3d59eb58	0.053202957
238	0xbe1a71f0	-0.15082526
239	0xbd3e8fc2	-0.046523817
240	0xbc91ff82	-0.017822031
241	0x3d300a3b	0.042978507
242	0xbd7c19d0	-0.061548054
243	0xbce2fba3	-0.02770788
244	0xb8f95c92	-0.00011890488
245	0xbd52e137	-0.051484313
246	0x3bade84f	0.0053072344
247	0x3cf62b1d	0.030049855
248	0x3d515190	0.051103175
249	0x3c752d0a	0.014964351
250	0xbcf68d07	-0.030096544
251	0xbc78e533	-0.015191364
252	0xbe1617ad	-0.14657469
253	0xbc7e401d	-0.0155182155
254	0x3d9dab82	0.07698728
255	0x3cd52b5b	0.02602165

action_model._discrete_distribution.branches.1.bias f4 [3]
0	0xbc82fe8c	-0.015990518
1	0x3ba994d5	0.005175213
2	0x3c94065c	0.018069439
