Scripts/mount/results/agent_02/AgentBehavior.onnx (onnx, 77343 bytes, 9 tensors)

discrete_act_size_vector f4 [1, 2]
3.0 3.0
00000000: 0000 4040 0000 4040

network_body._body_endoder.seq_layers.0.weight f4 [128, 7]
-0.11198267 -0.3098145 -0.62930745 0.87621725 0.37527865 0.30844015 0.24761856 0.091733724
0.24011248 -0.6532794 -0.70421755 0.331506 0.061028354 -0.07644178 0.27826288 0.10209305
0.55082023 -0.012660005 -0.060810868 0.23222013 -0.59844667 -0.12533318 0.60595477 0.4197021
0.25293526 -0.49128145 0.45990756 -0.26400357 0.31174645 -0.2034089 0.45729408 0.41671607
0.32361022 0.1794686 0.50216424 -0.30570406 0.56604314 -0.35472327 -0.266727 0.36307707
-0.55476266 -0.10398193 0.0026510945 -0.074599914 0.48581955 0.08273066 0.5586562 0.59311897
0.36827856 -0.082716554 -0.36963478 -0.09579878 -0.25205708 0.060721878 -0.01149183 -0.37713057
-0.24930793 -0.19527411 -0.21921314 0.04762899 0.5314556 -0.118316926 -0.06934588 0.01851879
-0.17906661 -0.4505165 0.63009375 0.5028543 0.55834603 -0.430076 0.08493225 0.12783524
-0.47079715 0.20456506 -0.1150278 -0.20329364 0.010851067 -0.42507514 0.81725734 -0.60066223
0.0916447 -0.35574326 -0.0742104 0.095385954 0.30590278 0.3856212 0.30283907 0.9136238
0.057451982 0.23827268 -0.38968363 0.66456085 0.3625273 0.43237847 -0.033001456 0.7019069
0.57558024 -0.20708874 -0.21980613 -0.5814152 0.11044498 0.14742592 0.42740077 0.017592443
-0.10541161 -0.124734715 0.5902613 -0.7059082 0.9167393 0.22172186 0.2543257 -0.23375274
0.1941437 0.38225538 0.39002195 0.1744905 0.32816562 -0.06504916 -0.56816787 -0.113848254
0.02283125 -0.17451432 0.2021016 -0.5126171 0.1783465 -0.36495155 -0.6582518 0.25737488
-0.392215 -0.034687597 -0.3280836 -0.6943762 0.05396781 -0.07693067 -0.28587034 0.639736
0.56357837 -0.23713417 0.7268875 -0.24181774 -0.05084518 -0.13390191 0.039893825 0.5487557
0.15241784 -0.30485487 -0.047121007 -0.083583474 0.021344025 -0.49706134 0.36355793 0.3417039
-0.105477266 0.27711177 0.17914763 0.13447921 0.29890612 -0.3180637 0.33202025 -0.54597175
-0.7251604 -0.05624509 1.1473484 -0.40968165 0.6213524 -0.12497978 0.04137012 -0.16178532
-0.17609529 -0.3015597 0.47991008 0.37911603 -0.5884172 0.27460605 -0.039216224 -0.5453849
0.1784861 0.17975676 0.8698153 0.16938116 -0.3803523 0.24001877 0.0787152 0.53356177
0.32800582 0.17031696 -0.30626035 -0.7056391 -0.036055923 -0.17815572 -0.10478608 0.15570773
0.14057365 -0.3864956 0.29077902 0.5372303 -0.9792729 0.18760845 -0.59369946 -0.35070112
-0.85429776 -0.3523952 -0.25078863 -0.056924228 -0.015451409 0.16542977 0.54475135 -0.07170688
0.5687996 -0.033242904 0.28351322 0.13101155 -0.10754231 0.69250834 0.78493214 -0.19239601
-0.16235879 -0.35534754 -0.042722814 0.5362012 0.4289757 -0.20773846 -0.5416857 -0.2092101
0.10358262 0.18833248 0.62126625 0.07016573 0.7976191 -0.09091632 0.07672887 -0.09959504
-0.6717866 -0.8137918 0.22849739 0.4745878 0.27109003 0.28937685 -0.46375862 -0.03362637
0.007758679 -0.67974716 -0.08633978 0.48373532 0.17577665 -0.20906954 0.3536563 -0.24893281
-0.2751619 -0.4603399 0.6612251 0.51771563 0.5622451 -0.45058453 0.42598283 0.18671577
00000000: 2c57 e5bd 02a0 9ebe 4b1a 21bf c64f 603f
00000010: 8624 c03e deeb 9d3e b88f 7d3e e4de bb3d
00000020: 0ce0 753e 523d 27bf 9a47 34bf 28bb a93e
00000030: def8 793d 828d 9cbd 7978 8e3e 2916 d13d
00000040: 8e02 0d3f e96b 4fbc d114 79bd 1dcb 6d3e
00000050: cd33 19bf 5757 00be da1f 1b3f 32e3 d63e
00000060: bb80 813e 3e89 fbbe 0179 eb3e 7a2b 87be
00000070: 3b9d 9f3e 6c4a 50be 7322 ea3e cf5b d53e
00000080: 3db0 a53e 9ec6 373e d68d 003f 3e85 9cbe
00000090: 34e8 103f 4a9e b5be 7190 88be 3de5 b93e
000000a0: ed04 0ebf 7af4 d4bd fcbd 2d3b d7c7 98bd
000000b0: 57bd f83e b16e a93d 1804 0f3f a5d6 173f
000000c0: 028f bc3e 4c67 a9bd c540 bdbe 2732 c4bd
000000d0: a00d 81be 81b7 783d 3b48 3cbc 4217 c1be
000000e0: 944a 7fbe f0f5 47be 6979 60be 9e16 433d
000000f0: 790d 083f 2550 f2bd 3605 8ebd b8b4 973c
00000100: 3d5d 37be 19aa e6be d34d 213f 0fbb 003f
00000110: c4ef 0e3f ec32 dcbe f6f0 ad3d 3ee7 023e
00000120: 530c f1be 8179 513e b293 ebbd 352c 50be
00000130: acc8 313c 73a3 d9be c737 513f 00c5 19bf
00000140: 37b0 bb3d fb23 b6be 9ffb 97bd b659 c33d
00000150: 4a9f 9c3e 2470 c53e b90d 9b3e 40e3 693f
00000160: c552 6b3d c1fd 733e 9d84 c7be a920 2a3f
00000170: 2e9d b93e b660 dd3e 892c 07bd 2cb0 333f
00000180: 3a59 133f 120f 54be dc14 61be a0d7 14bf
00000190: fa30 e23d d2f6 163e 46d4 da3e 071e 903c
000001a0: 0be2 d7bd ea74 ffbd 5d1b 173f 66b6 34bf
000001b0: 6daf 6a3f 0e0b 633e fa36 823e e15c 6fbe
000001c0: 9bcd 463e fab6 c33e f5b0 c73e a3ad 323e
000001d0: 5305 a83e 7e38 85bd 7373 11bf 4629 e9bd
000001e0: 9a08 bb3c e2b3 32be b9f3 4e3e e03a 03bf
000001f0: 77a0 363e eeda babe 3183 28bf a4c6 833e
00000200: 68d0 c8be 9514 0ebd 93fa a7be a3c2 31bf
00000210: 5a0d 5d3d d48d 9dbd 995d 92be bdc5 233f
00000220: ac46 103f 4dd3 72be 4d15 3a3f 129f 77be
00000230: 0943 50bd 951d 09be b567 233d 417b 0c3f
00000240: 6c13 1c3e f015 9cbe f501 41bd d02d abbd
00000250: aad9 ae3c d37e febe 4424 ba3e d0f3 ae3e
00000260: 7704 d8bd 98e1 8d3e 7a72 373e ebb4 093e
00000270: 390a 993e 3fd9 a2be 8ffe a93e cec4 0bbf
00000280: 1da4 39bf 4061 66bd 50dc 923f cbc1 d1be
00000290: f310 1f3f 66f5 ffbd b773 293d 0dab 25be
000002a0: 5352 34be 0866 9abe c6b6 f53e 7f1b c23e
000002b0: 82a2 16bf 2a99 8c3e 31a1 20bd 589e 0bbf
000002c0: 0fc5 363e 2812 383e 37ac 5e3f 4172 2d3e
000002d0: 89bd c2be 7bc7 753e 6f35 a13d 8197 083f
000002e0: 61f0 a73e 9267 2e3e 28ce 9cbe c4a4 34bf
000002f0: 60af 13bd 746e 36be 169a d6bd d971 1f3e
00000300: 8af2 0f3e c0e2 c5be fde0 943e ed87 093f
00000310: a1b1 7abf 6e1c 403e b0fc 17bf 198f b3be
00000320: 42b3 5abf 256d b4be 5e67 80be 6129 69bd
00000330: e827 7dbc 6c66 293e d374 0b3f 0fdb 92bd
00000340: da9c 113f b629 08bd a528 913e e427 063e
00000350: 253f dcbd 3a48 313f 50f1 483f 7603 45be
00000360: 6241 26be 1df0 b5be 1efe 2ebd 7b44 093f
00000370: b4a2 db3e 64b9 54be eaab 0abf 2c3b 56be
00000380: 2023 d43d 3bda 403e 4e0b 1f3f 0db3 8f3d
00000390: c430 4c3f 5632 babd 0724 9d3d 7cf8 cbbd
000003a0: 35fa 2bbf a954 50bf 38fb 693e 2cfd f23e
000003b0: 50cc 8a3e 3429 943e c571 edbe cebb 09bd
000003c0: 843c fe3b e903 2ebf e9d2 b0bd 28ac f73e
000003d0: cbfe 333e 5316 56be 7012 b53e 3ee8 7ebe
000003e0: 05e2 8cbe acb1 ebbe 0c46 293f 0389 043f
000003f0: 4bef 0f3f 04b3 e6be 6c1a da3e 6b32 3f3e

network_body._body_endoder.seq_layers.0.bias f4 [128]
0.030372173 -0.028544154 0.018861076 0.030930428 0.06639186 0.038381875 0.041511416 -0.07481294
0.024323199 0.035633627 0.015846428 0.042478517 0.012316766 0.024961669 0.048390217 0.050800316
0.005541418 -0.03651129 0.053900477 0.03897507 0.05754549 0.05706887 0.040816206 0.055598915
0.054872476 0.07479616 0.03843121 0.06033049 0.010548275 0.057202462 0.03199089 0.042134788
0.018103577 0.02712661 0.014721051 0.0033250926 -0.0011174015 0.012204483 -0.035178576 0.047332555
-0.0279915 -0.027077748 0.059590522 0.066975415 0.0032122552 -0.09640353 -0.0036578171 0.02140094
0.0891487 -0.02180627 0.020293301 0.055247232 -0.0067338957 -0.037814014 -0.01002188 -0.031021673
0.030372964 0.020767244 -0.0099824695 0.0012300129 0.02239012 0.028267894 0.027157534 0.020392666
0.030198185 0.008677272 0.0592869 0.00010952293 0.030443778 -0.006439002 0.06189442 -0.004608451
0.11963083 0.035830174 0.055925958 -0.020636886 -0.021005958 -0.03645405 -0.009209277 -0.0038638066
0.0032899994 0.055533167 0.004543063 0.040739533 0.045725785 0.02059518 0.040479213 0.05298786
0.0777515 -0.008297549 0.018626498 -0.05011251 -0.02197028 0.0688476 0.06883843 0.04921653
0.042859584 -0.03375977 -0.005763115 -0.010240096 0.02323691 0.013542432 0.10517236 0.039003987
-0.0649356 0.053592917 0.0455813 -0.022123782 -0.0014825074 0.042216174 0.035949938 -0.0034634452
0.027263021 0.0058153947 0.04509309 0.03542641 -0.053032078 0.077241555 0.009086942 0.07287101
0.011916473 -0.039250717 0.014664589 -0.05682225 -0.048597928 0.05545007 -0.02013577 0.012081532
00000000: 10cf f83c 6ed5 e9bc 8b82 9a3c cf61 fd3c
00000010: 75f8 873d 5036 1d3d e007 2a3d 8737 99bd
00000020: 7241 c73c 91f4 113d 5ed0 813c f4fd 2d3d
00000030: 43cc 493c 6a7c cc3c d234 463d fe13 503d
00000040: c994 b53b dd8c 15bd bfc6 5c3d 53a4 1f3d
00000050: d2b4 6b3d 0cc1 693d e52e 273d b0bb 633d
00000060: f6c1 603d bb2e 993d 0b6a 1d3d 1b1d 773d
00000070: acd2 2c3c 214d 6a3d e108 033d 8795 2c3d
00000080: f44d 943c a038 de3c 9030 713c cce9 593b
00000090: c675 92ba 50f5 473c 6917 10bd c8df 413d
000000a0: 6e4e e5bc 27d2 ddbc 3115 743d 682a 893d
000000b0: b384 523b 376f c5bd fdb7 6fbb 0651 af3c
000000c0: 9893 b63d 10a3 b2bc 233e a63c ec4a 623d
000000d0: 03a8 dcbb dee2 1abd d032 24bc 2a21 febc
000000e0: b9d0 f83c 1120 aa3c 838d 23bc 6238 a13a
000000f0: 7c6b b73c 1292 e73c 7a79 de3c 850e a73c
00000100: 2f62 f73c 1e2b 0e3c d2d6 723d adaf e538
00000110: 3b65 f93c 44fe d2bb 0185 7d3d 7d02 97bb
00000120: 0201 f53d a9c2 123d 9e12 653d b00e a9bc
00000130: b014 acbc d850 15bd 82e2 16bc eb37 7dbb
00000140: 089d 573b bf76 633d fadd 943b 7fde 263d
00000150: f64a 3b3d 39b7 a83c 88cd 253d cc09 593d
00000160: 2e3c 9f3d 71f2 07bc 9996 983c c642 4dbd
00000170: 04fb b3bc f8ff 8c3d 2afb 8c3d 4697 493d
00000180: 888d 2f3d af47 0abd 83d8 bcbb 13c6 27bc
00000190: 555b be3c 14e1 5d3c 9b64 d73d a5c2 1f3d
000001a0: f5fc 84bd 3f84 5b3d 75b3 3a3d ef3c b5bc
000001b0: b250 c2ba deea 2c3d 3e40 133d f8fa 62bb
000001c0: b356 df3c 118f be3b 88b3 383d 491b 113d
000001d0: 2a38 59bd d230 9e3d 66e1 143c 653d 953d
000001e0: 4f3d 433c 5cc5 20bd bf43 703c 73be 68bd
000001f0: 9f0e 47bd 9d1f 633d c5f3 a4bc 9ef1 453c

network_body._body_endoder.seq_layers.2.weight f4 [128, 128]
0.030429976 0.009644717 0.010177839 0.09962097 0.02211276 0.21637666 0.03431599 0.053692777
-0.047785528 -0.18569688 -0.22906147 0.13370322 -0.027285755 0.10803909 0.094221205 -0.0063093207
-0.037197385 -0.07061705 -0.032189757 0.053892348 -0.09363418 -0.035528507 0.022425786 0.07525578
-0.14585467 -0.14163001 -0.032384302 -0.0025874877 0.0820934 -0.026245307 -0.09418235 -0.10190354
-0.18826765 -0.03757993 0.055334717 0.026776293 0.016792778 -0.10705492 -0.031479847 -0.07811617
-0.09589565 -0.1454804 0.06148846 -0.09831648 -0.2478898 0.07530136 0.17247066 0.007270441
0.085969344 0.019429438 -0.046326578 -0.11146073 0.016917631 -0.018887194 -0.12695646 0.034631938
0.013028233 0.070831075 0.0904268 -0.102940045 0.0640653 -0.14854728 0.07263673 -0.11572899
0.08075243 0.015422839 -0.0289848 -0.012111799 -0.036613528 0.035612162 0.104036115 -0.03747163
0.019298373 -0.17258464 0.039405495 -0.08139714 0.11042154 0.058305286 0.12651613 0.1585892
-0.23570295 0.0031160722 0.022903968 -0.08617747 0.09450721 0.094648555 0.16303776 0.010030524
0.16388771 0.15288335 -0.22888361 -0.08910743 -0.045514666 -0.0019997281 -0.018099084 0.047192063
0.21377447 0.005357975 -0.011165976 -0.091560185 -0.103789076 -0.12290858 -0.22214578 -0.056453303
0.15343075 0.09817813 0.055878423 -0.08481679 0.007111611 -0.079546444 -0.03247 -0.18875024
0.0067730225 0.014107125 -0.10822373 -0.008219283 0.15377858 -0.020221628 -0.06142812 -0.024012348
-0.248461 -0.14920199 -0.038912345 -0.09648054 -0.10387477 0.04634747 -0.12903781 0.055155788
0.09263839 0.15691407 -0.03375007 0.026274843 0.023570983 -0.024103831 0.0018706552 0.095884725
0.012889265 0.15641838 -0.065288916 0.033692908 -0.002265363 0.06848345 -0.05031692 0.00072983257
0.14496599 0.1208979 0.01185432 -0.009422389 0.120473675 -0.07235538 0.04995118 0.096671596
0.11683264 -0.03958496 -0.02717526 0.04152117 0.13508202 0.059360422 0.06821583 -0.20642914
-0.057425924 0.065312445 0.0663952 -0.004207778 -0.07580635 -0.05385941 -0.026095336 -0.029390588
-0.076184705 0.008047489 -0.0997611 0.13311778 -0.017486386 -0.14915448 0.039718334 -0.079370074
0.14155023 -0.10247863 -0.11872444 0.17277339 0.10397574 -0.12715533 -0.074085906 -0.12928762
-0.14575113 -0.029866412 -0.11283254 0.0653481 -0.14017539 -0.021081492 0.034556985 0.031404853
-0.10979139 -0.08839242 0.10553608 0.18920399 -0.017766226 -0.018746436 0.006040578 -0.07803789
-0.046409253 -0.0087880455 -0.026280731 -0.029915357 0.19479065 0.015522436 -0.03389895 0.031409357
-0.15397401 0.013533969 0.17629802 -0.0004884832 0.17795213 0.02620931 -0.028623058 0.013524592
0.0002937666 0.01678351 -0.05565552 -0.11385716 0.020504009 0.0498221 0.15772976 0.11978116
-0.10916203 0.051682096 -0.14873978 0.02669756 0.022331357 0.06235572 0.19503061 -0.026231628
0.041860495 -0.051917072 -0.08745933 -0.029349176 -0.05720567 -0.10676267 -0.11957538 0.14460868
-0.01661888 0.0036362512 -0.08517887 0.027040005 -0.011323992 0.114999674 -0.02255682 0.09656107
-0.030359792 -0.16495495 0.044933006 -0.13228019 0.07892706 -0.021852098 -0.09846309 0.04019695
00000000: 4948 f93c e004 1e3c f3c0 263c 1406 cc3d
00000010: d225 b53c d891 5d3e ec8e 0c3d f5ec 5b3d
00000020: c2ba 43bd 5327 3ebe 178f 6abe 7fe9 083e
00000030: 6086 dfbc 9943 dd3d 0cf7 c03d 6bbe cebb
00000040: 495c 18bd ac9f 90bd 68d9 03bd 39be 5c3d
00000050: 47c3 bfbd 5786 11bd 48b6 b73c b41f 9a3d
00000060: ed5a 15be 7507 11be 67a5 04bd d792 29bb
00000070: 9620 a83d 6600 d7bc ade2 c0bd ceb2 d0bd
00000080: 3cc9 40be 6aed 19bd a8a6 623d f559 db3c
00000090: 0291 893c 9c3f dbbd 03f1 00bd 5ffb 9fbd
000000a0: f064 c4bd d0f8 14be 53db 7b3d 275a c9bd
000000b0: d3d6 7dbe 9937 9a3d 269c 303e e13c ee3b
000000c0: b210 b03d 7c2a 9f3c f0c0 3dbd 8645 e4bd
000000d0: d896 8a3c 51b9 9abc e000 02be 38da 0d3d
000000e0: 5f74 553c e20f 913d b031 b93d 3bd2 d2bd
000000f0: ab34 833d c71c 18be 91c2 943d 5203 edbd
00000100: 8861 a53d 13b0 7c3c 8871 edbc 9170 46bc
00000110: 11f8 15bd 0fde 113d e310 d53d da7b 19bd
00000120: 9f17 9e3c 07ba 30be a867 213d 8bb3 a6bd
00000130: b024 e23d 86d1 6e3d 728d 013e 3565 223e
00000140: 1d5c 71be 0437 4c3b 1aa1 bb3c d07d b0bd
00000150: ff8c c13d 1ad7 c13d 5ff3 263e 1157 243c
00000160: 2ed2 273e 748d 1c3e 7760 6abe f57d b6bd
00000170: 966d 3abd df0d 03bb 8844 94bc 774c 413d
00000180: b2e7 5a3e f491 af3b 7ff1 36bc e883 bbbd
00000190: 5e8f d4bd 7eb7 fbbd 2f7a 63be 943b 67bd
000001a0: f31c 1d3e 9e11 c93d c6e0 643d 6db4 adbd
000001b0: 8408 e93b 3fe9 a2bd 43ff 04bd be47 41be
000001c0: 3bf0 dd3b 9221 673c 67a4 ddbd 2caa 06bc
000001d0: 2278 1d3e d4a7 a5bc 0d9c 7bbd 8bb5 c4bc
000001e0: 8f6c 7ebe 68c8 18be 8d62 1fbd 9797 c5bd
000001f0: 4cbc d4bd d8d6 3d3d 7d22 04be 09eb 613d
00000200: 32b9 bd3d 15ae 203e 833d 0abd 573e d73c
00000210: ef17 c13c 6675 c5bc c630 f53a 365f c43d
00000220: 7f2d 533c 242c 203e 32b6 85bd 9301 0a3d
00000230: 7c76 14bb 0d41 8c3d 1d19 4ebd 3c52 3f3a
00000240: f771 143e 5199 f73d 9f38 423c 5d60 1abc
00000250: e7ba f63d 0f2f 94bd 9c99 4c3d c2fb c53d
00000260: f345 ef3d d723 22bd a79e debc 1a12 2a3d
00000270: f152 0a3e ea23 733d beb4 8b3d 2962 53be
00000280: 7237 6bbd 88c2 853d 35fa 873d 66e1 89bb
00000290: 5c40 9bbd af9b 5cbd e3c5 d5bc 88c4 f0bc
000002a0: ba06 9cbd 9ed9 033c 8c4f ccbd 0750 083e
000002b0: 9c3f 8fbc f4bb 18be b1af 223d c78c a2bd
000002c0: 8bf2 103e 51e0 d1bd cd25 f3bd 82eb 303e
000002d0: 3cf1 d43d 0235 02be 5aba 97bd f963 04be
000002e0: c93f 15be 68aa f4bc bf14 e7bd 3ad5 853d
000002f0: 238a 0fbe 18b3 acbc a08b 0d3d 60a2 003d
00000300: 4fda e0bd 1607 b5bd 4d23 d83d b1be 413e
00000310: 7a8a 91bc 2092 99bc 0af0 c53b 54d2 9fbd
00000320: a117 3ebd bcfb 0fbc b04a d7bc 0d11 f5bc
00000330: 3377 473e d151 7e3c a0d9 0abd 19a7 003d
00000340: 5dab 1dbe 95bd 5d3c 7887 343e 8d0d 00ba
00000350: 1539 363e e8b4 d63c e77a eabc 4096 5d3c
00000360: b004 9a39 927d 893c 0bf7 63bd f12d e9bd
00000370: 06f8 a73c 4212 4c3d e983 213e d34f f53d
00000380: 5890 dfbd 9bb0 533d 3e4f 18be d7b4 da3c
00000390: 40f0 b63c b668 7f3d 1bb6 473e b6e3 d6bc
000003a0: e975 2b3d ffa6 54bd e11d b3bd af6d f0bc
000003b0: 7e50 6abd 63a6 dabd f0e3 f4bd 4c14 143e
000003c0: 5124 88bc 2c4e 6e3b 4272 aebd 0083 dd3c
000003d0: 4488 39bc f384 eb3d 15c9 b8bc cfc1 c53d
000003e0: 19b5 f8bc f3e9 28be ac0b 383d 7574 07be
000003f0: 83a4 a13d 2c03 b3bc 04a7 c9bd 8fa5 243d

network_body._body_endoder.seq_layers.2.bias f4 [128]
0.025341108 0.025487073 -0.03953445 -0.05103523 0.029009517 0.038834795 -0.048865166 -0.026392877
0.009629152 -0.044080712 -0.016770096 0.03477431 -0.06788646 0.07205195 0.043841247 0.015851852
-0.004111554 -0.0225359 -0.04119397 -0.005228671 -0.027856264 -0.026907356 0.019480621 -0.014053573
0.039220646 -0.03997012 0.07505158 -0.005082664 0.022549026 -0.018195417 0.01776576 0.03321923
0.02893832 0.03892675 -0.00022951802 -0.014874864 -0.034454267 0.029636456 0.036403175 0.03787953
-0.03346194 0.027808297 -0.058434695 -0.016165696 0.051179744 -0.003593353 -0.009742829 -0.0043398575
-0.008407782 -0.036038574 0.01362433 0.059976887 -0.020602962 -0.021721866 0.01181139 0.020249208
0.028546112 -0.010859623 0.021074893 0.027041957 -0.019261677 0.057056893 -0.027828667 0.0043247202
0.020206956 0.06473485 0.051306795 -0.011774957 0.017864535 0.007872759 -0.010535591 0.04718462
0.015461355 0.0077631753 0.07397656 0.00523889 0.055252932 -0.013040128 0.014071111 0.04695403
0.04826908 -0.01768454 -0.02824728 -0.01883401 -0.021716267 -0.02097016 0.005986956 -0.02355573
0.033909652 0.019667141 0.032962706 -0.005718845 -0.031809267 -0.016788846 0.0061540813 -0.012134146
-0.038435362 0.016587017 0.034070544 -0.0004694896 -0.025351277 -0.004598971 -0.04754078 0.047163475
0.01836897 0.016379526 0.005178341 -0.0049735727 0.020119822 0.010320163 0.008156182 0.01729237
0.019000292 -0.012020286 0.032102417 0.003412973 -0.0028053583 0.04726946 0.032260288 -0.017295348
0.0061225295 -0.020458326 -0.016215367 0.014832855 0.06322932 0.010005172 -0.035169385 -0.033758577
00000000: 2898 cf3c 44ca d03c e0ee 21bd 510a 51bd
00000010: 5ea5 ed3c 3c11 1f3d d726 48bd e035 d8bc
00000020: 97c3 1d3c fa8d 34bd 7161 89bc 826f 0e3d
00000030: 0e08 8bbd f98f 933d e192 333d bedb 813c
00000040: 37ba 86bb 359d b8bc 02bb 28bd 4555 abbb
00000050: d232 e4bc d16c dcbc d395 9f3c f540 66bc
00000060: d4a5 203d b5b7 23bd a5b4 993d 7a8c a6bb
00000070: bcb8 b83c 8e0e 95bc 8089 913c e310 083d
00000080: 0e10 ed3c a871 1f3d c6aa 70b9 b4b5 73bc
00000090: eb1f 0dbd 27c8 f23c 7f1b 153d 9127 1b3d
000000a0: 630f 09bd 3ace e33c 3859 6fbd ec6d 84bc
000000b0: daa1 513d 767e 6bbb 63a0 1fbc 5d35 8ebb
000000c0: cbc0 09bc 2f9d 13bd 9538 5f3c 53aa 753d
000000d0: 8bc7 a8bc 0ef2 b1bc 8f84 413c abe1 a53c
000000e0: 89d9 e93c 8fec 31bc 41a5 ac3c 1887 dd3c
000000f0: aaca 9dbc 7db4 693d f2f8 e3bc 62b6 8d3b
00000100: 0f89 a53c b493 843d 1327 523d c0eb 40bc
00000110: a558 923c bffc 003c 799d 2cbc a944 413d
00000120: a051 7d3c 3c62 fe3b 0681 973d ffaa ab3b
00000130: e650 623d 43a6 55bc 848a 663c de52 403d
00000140: cdb5 453d 2bdf 90bc d766 e7bc c849 9abc
00000150: 50e6 b1bc 9dc9 abbc 3a2e c43b f2f7 c0bc
00000160: d9e4 0a3d fc1c a13c e703 073d 2665 bbbb
00000170: 6f4a 02bd c388 89bc 2da8 c93b 4cce 46bc
00000180: 666e 1dbd 7fe1 873c 8e8d 0b3d d425 f6b9
00000190: 7bad cfbc f7b2 96bb 1fba 42bd 7d2e 413d
000001a0: 867a 963c 5b2e 863c 13af a93b 5af9 a2bb
000001b0: 53d2 a43c e715 293c 82a1 053c baa8 8d3c
000001c0: 80a6 9b3c bcf0 44bc d37d 033d 2fac 5f3b
000001d0: 1ada 37bb 9f9d 413d 5d23 043d f9ae 8dbc
000001e0: 809f c83b 3898 a7bc 17d6 84bc 8105 733c
000001f0: 607e 813d bcec 233c c60d 10bd 6f46 0abd

action_model._discrete_distribution.branches.0.weight f4 [3, 128]
0.03611121 -0.0003237071 0.0050814715 0.025029365 -0.0027119992 -0.03923569 0.038656283 -0.011883137
-0.028835777 0.006959297 -0.0445169 -0.031472962 0.014251109 0.011225685 -0.013934102 -0.0073706727
0.030222764 0.0021915026 0.032691404 -0.009038244 -0.042602796 -0.0021037965 -0.020188792 -0.038463652
-0.033392742 -0.017892381 -0.008794089 -0.018836284 0.0016198291 -0.03737012 -0.016652774 0.018555483
-0.03065771 0.03893687 0.010713513 -0.038351692 0.02963264 -0.05070548 -0.035437614 -0.023281077
-0.0028818857 -0.0019093916 0.016163262 -0.010104177 -0.004012535 -0.015608723 0.005402975 -0.039159596
-0.0021874374 -0.0100912275 -0.0034674495 0.038027775 -0.024916902 0.03526204 -0.01833411 -0.010555693
-0.019043691 -0.011583484 -0.0054710857 0.01468087 -0.06539983 -0.0051925695 -0.01286109 0.005283064
-0.021829994 -0.0012778848 -0.039798655 0.027635641 -0.053571455 -0.012115676 -0.0238244 0.02988949
-0.048902128 -0.025607932 0.04127293 0.010436463 -0.043592878 0.026064338 -0.026312217 -0.05232213
-0.05673322 -0.024829103 0.044246323 -0.013281428 0.047117736 -0.030701252 0.021121217 -0.036419895
-0.02373222 0.004992784 0.033846136 -0.0049924883 -0.005229938 -0.028871538 0.054464083 -0.0075739436
-0.0047673434 -0.009800089 -0.026657576 0.046203736 -0.00095136504 -0.027142826 0.0009868061 0.0030047556
-0.014932781 -0.03282121 -0.038247522 -0.015283085 -0.013766532 -0.007177926 0.018264497 -0.010540426
-0.0085602 -0.01589587 -0.0359592 -0.02389366 -0.021040026 -0.029759232 -0.027374376 0.0039094556
-0.018962175 -0.025395798 0.03378753 -0.059316095 0.044701997 0.03794212 0.023208696 -0.009326599
0.03639987 -0.067083105 0.011610042 -0.012455274 -0.07065521 0.032365095 -0.040352773 -0.05486028
-0.03863694 -0.019100038 -0.01089793 -0.054191284 -0.02053587 -0.0028530105 0.0132026225 0.012976638
-0.095936745 0.014582528 -0.0067504933 0.011545026 -0.048187938 0.012039466 -0.034919452 -0.00022986381
-0.021558309 -0.031235628 0.011197793 -0.028330052 -0.019570183 -0.0230024 -0.0026862123 0.060146704
0.018472161 0.07529284 0.0008102348 0.01415649 -0.026335416 0.03467349 -0.006177306 0.0038879872
-0.02024813 -0.097446084 -0.038913257 0.010977611 0.0025453046 0.026312644 -0.09728801 -0.020015264
-0.03647556 0.008409421 -0.063922875 0.06946291 -0.0037960205 -0.016502 0.032180924 -0.042215083
-0.05041105 -0.025729325 -0.10576679 -0.05113369 -0.05204281 -0.0063767517 -0.049184296 0.013051129
0.023632644 0.037847787 -0.054297075 0.0012847753 -0.0017110462 0.013974827 0.015123965 0.036718052
0.031089274 0.0068516363 -0.016996052 -0.020332351 -0.05351059 0.0068671373 0.016395181 0.045644373
0.00077363267 0.006629122 0.0046763993 0.028440582 -0.04619239 -0.059712972 0.023992786 -0.008036854
0.026257338 -0.012454131 0.046583094 -0.011090022 -3.5149795e-05 0.0036191747 -0.07161798 0.016831333
0.011371608 -0.0033746155 0.017015934 0.0025553664 -0.033871867 0.026959118 -0.051940642 0.030527703
-0.045348737 0.01870228 0.004288828 0.019242603 0.02441929 -0.042404365 0.050795592 -0.042002555
-0.021136316 -0.0071292412 -0.0339106 -0.05220937 0.014695896 -0.033318758 0.03641516 0.015072174
0.02172092 0.01813045 0.0050082044 -0.0014615778 0.05796961 0.048968635 -0.025561696 -0.009116325
00000000: 59e9 133d 3bb7 a9b9 7982 a63b 620a cd3c
00000010: ccbb 31bb 9ab5 20bd 0d56 1e3d 7db1 42bc
00000020: 0239 ecbc d10a e43b 5a57 36bd cbe9 00bd
00000030: 7c7d 693c efeb 373c dc4b 64bc af85 f1bb
00000040: bb95 f73c 509f 0f3b 6ce7 053d 2515 14bc
00000050: 4580 2ebd d9df 09bb f762 a5bc 108c 1dbd
00000060: d4c6 08bd 0b93 92bc 1515 10bc 8d4e 9abc
00000070: 7250 d43a 6911 19bd 666b 88bc ab01 983c
00000080: e125 fbbc 447c 1f3d bb87 2f3c aa16 1dbd
00000090: 26c0 f23c 8db0 4fbd 0827 11bd f5b7 bebc
000000a0: 05de 3cbb 8d44 faba d168 843c fd8b 25bc
000000b0: 957b 83bb bbbb 7fbc 700b b13b d065 20bd
000000c0: 1c5b 0fbb ad55 25bc 263e 63bb 03c3 1b3d
000000d0: 881e ccbc ee6e 103d 6a31 96bc c9f1 2cbc
000000e0: 8401 9cbc a7c8 3dbc cb46 b3bb 0888 703c
000000f0: 59f0 85bd 6e26 aabb 52b7 52bc 8e1d ad3b
00000100: d1d4 b2bc b37e a7ba ea03 23bd 2464 e23c
00000110: be6d 5bbd d480 46bc 632b c3bc ceda f43c
00000120: 994d 48bd bac7 d1bc ce0d 293d b3fd 2a3c
00000130: 728e 32bd e184 d53c b88c d7bc bb4f 56bd
00000140: 1861 68bd 6766 cbbc a23b 353d 599a 59bc
00000150: 87fe 403d 3181 fbbc 6706 ad3c 072d 15bd
00000160: 136a c2bc 829a a33b 3fa2 0a3d 0798 a3bb
00000170: e65f abbb 0184 ecbc bb15 5f3d d82e f8bb
00000180: 6037 9cbb 8d90 20bc fd60 dabc 2140 3d3d
00000190: 0765 79ba a25a debc b857 813a 6feb 443b
000001a0: a0a8 74bc 886f 06bd 6fa9 1cbd e865 7abc
000001b0: 058d 61bc cf34 ebbb 6d9f 953c c0b1 2cbc
000001c0: 1540 0cbc 0e38 82bc f449 13bd a3bc c3bc
000001d0: 225c acbc a2c9 f3bc 3a40 e0bc e41a 803b
000001e0: 9056 9bbc d90a d0bc cb64 0a3d 6ff5 72bd
000001f0: 7119 373d 3269 1b3d 2a20 be3c 97ce 18bc
00000200: 0818 153d de62 89bd 0c38 3e3c 3511 4cbc
00000210: aeb3 90bd 4391 043d f348 25bd 2cb5 60bd
00000220: c541 1ebd af77 9cbc 3b8d 32bc aef7 5dbd
00000230: d73a a8bc 93f9 3abb d04f 583c f79b 543c
00000240: 7c7a c4bd 8eeb 6e3c 3e33 ddbb 5927 3d3c
00000250: b760 45bd 2e41 453c b307 0fbd 9907 71b9
00000260: 0d9b b0bc dce1 ffbc f376 373c 6d14 e8bc
00000270: a651 a0bc 876f bcbc 2a0b 30bb 645c 763d
00000280: ee52 973c 2233 9a3d f065 543a 9ff0 673c
00000290: 5fbd d7bc ca05 0e3d 006b cabb 9acd 7e3b
000002a0: 68df a5bc d091 c7bd 8263 1fbd 70db 333c
000002b0: 20cf 263b 9d8d d73c f03e c7bd 0df7 a3bc
000002c0: 6667 15bd abc7 093c ffe9 82bd 9242 8e3d
000002d0: a8c6 78bb 342f 87bc 25d0 033d b9e9 2cbd
000002e0: d17b 4ebd 4ec6 d2bc 429c d8bd 8f71 51bd
000002f0: d72a 55bd 12f4 d0bb 7975 49bd 67d4 553c
00000300: 3f99 c13c 4806 1b3d 9c66 5ebd e865 a83a
00000310: 2f45 e0ba acf6 643c 82ca 773c ab65 163d
00000320: efae fe3c b183 e03b 4e3b 8bbc 0890 a6bc
00000330: ec2d 5bbd b905 e13b 304f 863c 98f5 3a3d
00000340: 9ccd 4a3a 1b39 d93b 7b3c 993b 39fc e83c
00000350: 3b34 3dbd 9795 74bd 858c c43c 02ad 03bc
00000360: a119 d73c 690c 4cbc eacd 3e3d ecb2 35bc
00000370: ce6d 13b8 ad2f 6d3b 73ac 92bd dde1 893c
00000380: fb4f 3a3c a728 5dbb 0065 8b3c ef77 273b
00000390: 3abd 0abd 5ed9 dc3c b6bf 54bd 3c15 fa3c
000003a0: 99bf 39bd 8635 993c 4c89 8c3b aaa2 9d3c
000003b0: f60a c83c 33b0 2dbd 0a0f 503d df0a 2cbd
000003c0: 1126 adbc 699c e9bb d7e5 0abd 7ed9 55bd
000003d0: 0ec7 703c 4079 08bd 1028 153d 48f1 763c
000003e0: 12f0 b13c 4f86 943c dd1b a43b 6a92 bfba
000003f0: 8b71 6d3d 5693 483d c366 d1bc a35c 15bc

action_model._discrete_distribution.branches.0.bias f4 [3]
-0.034232736 0.032851137 -0.000628639
00000000: a037 0cbd ea8e 063d 40cb 24ba

action_model._discrete_distribution.branches.1.weight f4 [3, 128]
-0.0011843409 0.03836048 -0.009724787 0.0050925054 0.01786924 -0.028658066 0.030274644 -0.012826982
0.0023298713 0.008180467 -0.028421601 0.0109775895 0.037129957 -0.0899136 -0.039727967 -0.059893105
0.018706191 -0.025693601 0.05059248 -0.04296255 0.0041464614 -0.019806586 0.017099056 -0.012979444
0.032545734 -0.0131115895 0.015262556 0.046346508 0.028130945 0.010899472 -0.040465776 -0.0040833657
-0.05778089 -0.018018378 -0.054522406 -0.019852994 0.043716285 -0.01819332 -0.028712684 -0.016240144
0.018845115 0.011433289 0.018288286 -0.04072273 -0.060582124 -0.014055503 0.029022137 0.0016543311
0.016692983 -0.021812372 0.0073000477 0.006011785 0.0031566008 0.03347116 -0.021260645 0.058296576
0.006627592 0.005641935 0.00029198194 -0.048420362 -0.00369195 -0.014153976 -0.005663461 0.04049865
-0.027517455 -0.026948135 -0.03423053 -0.0040607145 -0.0062676575 -0.03541584 -0.021581527 -0.015151614
-0.011385974 -0.040887896 -0.032719564 0.0392212 0.020747822 -0.049689572 -0.036452524 -0.045635846
-0.031041833 -0.027180305 0.011269028 -0.015301335 0.019665446 0.027777603 0.018814558 0.011605784
-0.04632278 -0.038964044 0.014353029 0.008177886 -0.04623445 -0.019465253 0.03646752 -0.01706917
-0.036822647 -0.052848384 0.0050593605 0.013896489 0.00052875263 -0.027647479 0.023657272 0.0020899854
-0.010034855 -0.02465298 -0.0074326345 -0.035429116 -0.045832504 0.0018545729 0.01376001 0.047314305
0.01856022 0.0073952796 0.030807488 0.024059543 -0.015591473 0.029943176 -0.03638452 0.006719976
0.010445027 -0.009979455 0.046171103 0.0024804613 -0.013624909 -0.0011953447 -0.012505816 0.01949356
-0.05472612 -0.014512291 0.015269986 0.0017014215 0.0070766653 0.010085758 0.0059944363 0.0116232
0.034361456 0.014074174 0.009659823 -0.011424928 0.0074046915 0.013252344 0.0023152288 0.025712544
0.0032335198 0.023359483 -0.019657098 0.032189153 -0.012899109 0.031979743 0.006498835 0.024126658
-0.000757891 0.023706907 -0.056591425 -0.015504251 -0.015471287 0.03032166 0.01512466 -0.054103713
0.038011994 -0.033376478 0.048088178 0.002239245 0.019603323 0.025168033 0.0149241 0.00025179793
0.0059011606 -0.009048699 0.022818057 0.033521026 0.025742967 0.03373196 0.015677271 0.024287539
0.011387262 0.014526256 -0.005814679 -0.045538098 0.0322759 0.013664228 0.034614295 -0.04888134
0.014978864 0.041293778 -0.029186811 0.0030420786 0.017700518 -0.009506654 0.0025542001 0.0106251715
0.015246314 0.0076347175 0.020117491 0.016558997 1.5842044e-05 0.01115784 0.025397642 -0.049451396
0.02977138 0.0486401 -0.001567685 -0.004894448 0.015727526 0.021772858 0.034323238 0.030971188
0.023963049 0.031394634 0.009458682 0.013542035 0.0216346 0.00417678 0.0024537598 0.020540709
0.018506927 -0.0074756094 -0.072706036 0.034761555 0.027471162 0.030803278 0.017078891 0.016894598
0.019100025 0.01920283 -0.047326572 0.006569306 0.0005554151 0.022232557 0.029071242 -0.05814859
0.043097354 0.022025019 0.0085809855 0.012895741 0.020381598 0.041447904 -0.051880296 -0.018866643
-0.00821533 0.02132434 -0.05319871 0.000704372 0.014224382 -0.04358613 0.011136632 0.027206132
0.03279509 0.024925457 -0.0030109726 0.0033812998 -0.07055446 -0.02079058 0.0149617195 0.045928877
00000000: e33b 9bba e11f 1d3d b754 1fbc 08df a63b
00000010: 8362 923c 52c4 eabc 8802 f83c 4328 52bc
00000020: c1b0 183b 5e07 063c 6bd4 e8bc 59db 333c
00000030: 9515 183d 9f24 b8bd cbb9 22bd 7952 75bd
00000040: ba3d 993c 637b d2bc 0f3a 4f3d 80f9 2fbd
00000050: 0adf 873b 6c41 a2bc 5213 8c3c bca7 54bc
00000060: ad4e 053d fed1 56bc cd0f 7a3c d6d5 3d3d
00000070: de72 e63c b393 323c 71bf 25bd c1cd 85bb
00000080: a8ab 6cbd 479b 93bc e352 5fbd bfa2 a2bc
00000090: d90f 333d 280a 95bc dd36 ebbc 0d0a 85bc
000000a0: 1261 9a3c b152 3b3c 51d1 953c e1cc 26bd
000000b0: f624 78bd 0d49 66bc d5bf ed3c 24d6 d83a
000000c0: b9bf 883c dcaf b2bc 3d35 ef3b 82fe c43b
000000d0: f9de 4e3b 0e19 093d ce2a aebc 64c8 6e3d
000000e0: 452c d93b fbdf b83b 2715 9939 6e54 46bd
000000f0: a5f4 71bb 14e6 67bc 8e94 b9bb eae1 253d
00000100: 496c e1bc 56c2 dcbc 5035 0cbd be0f 85bb
00000110: ec60 cdbb 3310 11bd becb b0bc 7a3e 78bc
00000120: 3c8c 3abc 117a 27bd f304 06bd 69a6 203d
00000130: 56f7 a93c 4b87 4bbd 3e4f 15bd a7ec 3abd
00000140: 714b febc 3ba9 debc bba1 383c 73b2 7abc
00000150: 6e19 a13c db8d e33c fd20 9a3c 3026 3e3c
00000160: f5bc 3dbd c398 1fbd f828 6b3c 8afc 053c
00000170: 5660 3dbd 9875 9fbc f75e 153d a5d4 8bbc
00000180: 58d3 16bd 8c77 58bd fec8 a53b 19ae 633c
00000190: fd9b 0a3a f77c e2bc e5cc c13c 23f8 083b
000001a0: 3c69 24bc 0cf5 c9bc 758d f3bb 1f1e 11bd
000001b0: ddba 3bbd 2415 f33a aa71 613c a5cc 413d
000001c0: 9a0b 983c 1a54 f23b fc5f fc3c 8518 c53c
000001d0: 6173 7fbc 644b f53c ef07 15bd 3f33 dc3b
000001e0: 9e21 2b3c de80 23bc e91d 3d3d 3c8f 223b
000001f0: 033b 5fbc 1dad 9cba 32e5 4cbc f5b0 9f3c
00000200: 7f28 60bd f6c4 6dbc f72e 7a3c 3b02 df3a
00000210: 5fe3 e73b bc3e 253c fa6c c43b 3c6f 3e3c
00000220: 99be 0c3d 5d97 663c 3c44 1e3c 9f2f 3bbc
00000230: 0ea3 f23b 5c20 593c 18bb 173b 1da3 d23c
00000240: 76e9 533b 635c bf3c ec07 a1bc c6d8 033d
00000250: c956 53bc 31fd 023d 2ef4 d43b 45a5 c53c
00000260: 34ad 46ba fd34 c23c 69cc 67bd 8b05 7ebc
00000270: 487b 7dbc 2165 f83c 6ccd 773c db9b 5dbd
00000280: 77b2 1b3d c6b5 08bd 1cf8 443d 4cc0 123b
00000290: 2697 a03c 312d ce3c 3684 743c bf03 8439
000002a0: 865e c13b ff40 14bc efec ba3c 584d 093d
000002b0: eae2 d23c 862a 0a3d 9f6d 803c a9f6 c63c
000002c0: a391 3a3c 89ff 6d3c 1089 bebb 2886 3abd
000002d0: bc33 043d eddf 5f3c b8c7 0d3d cd37 48bd
000002e0: e969 753c aa23 293d 2e19 efbc 9c5d 473b
000002f0: ad00 913c ccc1 1bbc 5e64 273b 3315 2e3c
00000300: adcb 793c a72c fa3b 70cd a43c bca6 873c
00000310: 88e4 8437 5fcf 363c b70e d03c 8c8d 4abd
00000320: 1ce3 f33c d73a 473d c87a cdba 9b61 a0bb
00000330: 03d7 803c fe5c b23c 8696 0c3d 4ab7 fd3c
00000340: 284e c43c a997 003d 96f8 1a3c 69df 5d3c
00000350: 0b3b b13c 5fdd 883b 42cf 203b fd44 a83c
00000360: d79b 973c f5f5 f4bb e7e6 94bd 2262 0e3d
00000370: 340b e13c 2857 fc3c 08e9 8b3c 8a66 8a3c
00000380: a877 9c3c 414f 9d3c 82d9 41bd 5543 d73b
00000390: 4799 113a 0d21 b63c d026 ee3c 372d 6ebd
000003a0: da86 303d d06d b43c 4397 0c3c a848 533c
000003b0: 4ff7 a63c 47c5 293d 6f80 54bd 388e 9abc
000003c0: 9799 06bc 62b0 ae3c e4e6 59bd 9ba5 383a
000003d0: 620d 693c 5f87 32bd 6c76 363c 65df de3c
000003e0: 2554 063d 7930 cc3c bd53 45bb cc98 5d3b
000003f0: db7e 90bd 0251 aabc 0022 753c eb1f 3c3d

action_model._discrete_distribution.branches.1.bias f4 [3]
-0.021896895 -0.007937794 0.03406645
00000000: 1e61 b3bc 850d 02bc 4389 0b3d
