Scripts/mount/results/agent_01/AgentBehavior.onnx (onnx, 77343 bytes, 9 tensors)

discrete_act_size_vector f4 [1, 2]
3.0 3.0
00000000: 0000 4040 0000 4040

network_body._body_endoder.seq_layers.0.weight f4 [128, 7]
-0.035161946 0.66629124 0.20830154 -0.4938454 0.053477094 0.8447019 0.7155019 -0.08672737
-0.12012253 0.24192846 0.31565222 -0.05203354 -0.5107037 0.18856454 -0.065632485 0.009766506
0.42701915 -0.72208023 0.07899206 -0.15719482 0.31845996 0.2102626 -0.109969065 0.18107757
0.08814864 -0.057441592 -0.5296127 -0.05093773 0.03484819 -0.17875619 -0.2818015 0.1658747
-0.09504954 0.72710586 -0.02728302 -0.056065284 0.45241806 0.706283 0.08168249 -0.33648
0.4812 -0.25148043 -0.62401533 -0.17155449 -0.26744834 0.11014099 -0.13557236 0.13249856
0.023408908 0.17174882 -0.17058876 -0.5090631 -0.21311314 -0.3093206 -0.51284236 -0.11601051
-0.6170352 -0.59148955 0.058796357 0.11495986 0.616235 0.006168206 -1.1585325 -0.43605542
0.74712926 -0.19626063 -0.109730266 0.19219737 -0.60383356 -0.13525297 0.07414406 -0.3808428
-0.29010418 0.35938945 0.011892621 0.30573085 0.04777769 0.052371662 -0.033455435 -0.42564118
1.3241385 0.6830301 0.20193246 -0.38035378 0.6132006 -0.21199921 -0.14590481 0.21236895
-0.08777727 0.70442855 0.49318483 -0.55091435 -0.24991906 -0.63517725 0.25375256 0.2772422
-0.119808964 -0.48504928 0.5043933 -0.52519846 -0.08512086 0.27420127 0.10786826 0.21040274
0.30355635 0.11895096 -0.37814242 -0.5023763 0.47411126 0.03029185 0.4733513 0.08661887
0.03393303 -0.02333104 0.3509761 0.2624944 0.838687 0.67759264 -0.060992602 0.37801376
0.32308626 0.1510908 -0.098380364 0.098471485 -0.34143388 -0.36411646 0.14237587 0.39876902
0.09032685 0.38585743 -0.032514293 0.22255114 -0.18997681 0.42356354 0.10084524 0.5766435
-0.243997 0.2999341 0.3016729 0.28955114 0.25531772 0.06939783 0.8721256 0.3923754
0.7105409 -0.50980437 0.20167083 -0.0921699 0.7645785 -0.3839699 -0.7523664 -0.04588822
-0.13804425 0.14498273 0.3625529 0.0809294 0.4217741 -0.47282973 0.21722858 -0.13161376
-0.15209566 0.2554184 0.1044817 0.53024733 -0.28078493 0.6007672 0.5531744 -0.18091439
0.97170883 -0.35722637 0.8825263 -0.010096629 0.49197453 -0.07609674 -0.04119305 0.06928413
-0.15362738 -0.02243549 -0.36953837 -0.3054147 0.18203206 -0.30614412 -0.12197987 -0.45789537
-0.04006754 0.0027650571 -0.20825806 0.12506764 0.5221626 0.36828563 -0.11218561 0.2922649
0.7167354 -0.3746179 -1.2918792 -0.48126364 -0.5517479 -0.11788132 0.46864212 0.017700702
0.37575778 -0.22757664 -0.9297885 0.16585994 0.56853855 0.029486911 -0.54214144 -0.24647425
-0.35143575 0.606512 0.43546647 -0.75031865 0.49447724 0.26443952 -0.7033354 0.06538307
0.017108064 0.20293659 -0.3188921 -0.722566 0.23270828 -0.33184332 -0.4334933 -0.43528098
-0.4680591 -0.4881752 0.25119597 -0.33530754 0.106830284 -0.76176417 0.30493832 -0.10590883
0.18507147 -0.7551191 0.09044216 0.21417886 0.03973386 0.31522635 -0.5340758 -0.6197195
0.38392198 -0.39569288 0.30594504 0.26054123 -0.23792537 -0.104417294 0.2994939 -0.3457137
0.85662794 0.044675793 0.04659165 -0.3517423 -0.16221172 0.2608565 0.04583513 0.04119446
00000000: f905 10bd 1092 2a3f 004d 553e 4ed9 fcbe
00000010: cc0a 5b3d 623e 583f 222b 373f 1f9e b1bd
00000020: cd02 f6bd 18bc 773e 2b9d a13e 1f21 55bd
00000030: 7abd 02bf 1017 413e 536a 86bd b203 203c
00000040: 41a2 da3e 40da 38bf 97c6 a13d aef7 20be
00000050: 2f0d a33e 144f 573e 7637 e1bd 666c 393e
00000060: 4687 b43d e047 6bbd b394 07bf 15a4 50bd
00000070: fabc 0e3d dd0b 37be 4948 90be 0fdb 293e
00000080: 55a9 c2bd 9c23 3a3f a480 dfbc b6a4 65bd
00000090: 57a3 e73e f6ce 343f 2649 a73d 1b47 acbe
000000a0: d95f f63e 0bc2 80be 78bf 1fbf fbab 2fbe
000000b0: fdee 88be 9991 e13d 7bd3 0abe b4ad 073e
000000c0: 0ac4 bf3c ecde 2f3e d2ae 2ebe f651 02bf
000000d0: 553a 5abe 455f 9ebe a349 03bf eb96 edbd
000000e0: 05f6 1dbf dc6b 17bf 73d4 703d 1370 eb3d
000000f0: 94c1 1d3f aa1e ca3b cb4a 94bf a842 dfbe
00000100: dd43 3f3f 8cf8 48be 43ba e0bd 63cf 443e
00000110: d694 1abf c17f 0abe d7d8 973d d4fd c2be
00000120: 8988 94be e501 b83e 45d9 423c c188 9c3e
00000130: 8ab2 433d ab83 563d 9108 09bd a4ed d9be
00000140: 5f7d a93f 10db 2e3f 62c7 4e3e bbbd c2be
00000150: b7fa 1c3f 5216 59be 1268 15be 3f77 593e
00000160: 92c4 b3bd 6e55 343f b982 fc3e b908 0dbf
00000170: c8ea 7fbe fa9a 22bf dbeb 813e b1f2 8d3e
00000180: 675e f5bd 6158 f8be eb1f 013f 6873 06bf
00000190: d853 aebd 1c64 8c3e 09ea dc3d d173 573e
000001a0: bd6b 9b3e 909c f33d e29b c1be bc9b 00bf
000001b0: b6be f23e 9d26 f83c 1a5b f23e 3c65 b13d
000001c0: 5cfd 0a3d bd20 bfbc 24b3 b33e aa65 863e
000001d0: 31b4 563f b676 2d3f 61d3 79bd 058b c13e
000001e0: 906b a53e 8cb7 1a3e a57b c9bd 6bab c93d
000001f0: 6cd0 aebe 796d babe fbca 113e 742b cc3e
00000200: 49fd b83d 1b8f c53e b52d 05bd 72e4 633e
00000210: 4889 42be 52dd d83e f387 ce3d e99e 133f
00000220: 59da 79be f690 993e df74 9a3e 0c40 943e
00000230: 01b9 823e 7320 8e3d a043 5f3f 6ee5 c83e
00000240: 02e6 353f 8a82 02bf cc82 4e3e 93c3 bcbd
00000250: 6bbb 433f b497 c4be 169b 40bf 49f5 3bbd
00000260: 795b 0dbe 5a76 143e 89a0 b93e 50be a53d
00000270: c6f2 d73e bd16 f2be 2b71 5e3e c2c5 06be
00000280: f7be 1bbe 33c6 823e 80fa d53d 4abe 073f
00000290: 0bc3 8fbe e1cb 193f d69c 0d3f 9f41 39be
000002a0: e9c1 783f 60e6 b6be 3eed 613f 556c 25bc
000002b0: 16e4 fb3e 9cd8 9bbd 0bba 28bd d7e4 8d3d
000002c0: 7f50 1dbe a2ca b7bc 2234 bdbe 515f 9cbe
000002d0: 9d66 3a3e ecbe 9cbe 95d0 f9bd 4371 eabe
000002e0: dc1d 24bd f635 353b 9a41 55be bb11 003e
000002f0: 73ac 053f ef8f bc3e 92c1 e5bd bfa3 953e
00000300: f97b 373f ebcd bfbe 4c5c a5bf 3068 f6be
00000310: 5a3f 0dbf c36b f1bd dcf1 ef3e 1001 913c
00000320: 5363 c03e da09 69be 9e06 6ebf 30d7 293e
00000330: be8b 113f 898e f13c c8c9 0abf bf63 7cbe
00000340: 63ef b3be 5f44 1b3f 76f5 de3e e214 40bf
00000350: 1f2c fd3e 9e64 873e ca0d 34bf 8fe7 853d
00000360: 3626 8c3c 9cce 4f3e d345 a3be 16fa 38bf
00000370: 144b 6e3e 5ee7 a9be d5f2 ddbe 26dd debe
00000380: 71a5 efbe 1af2 f9be c29c 803e 6ead abbe
00000390: d6c9 da3d fa02 43bf e020 9c3e bbe6 d8bd
000003a0: 6083 3d3e 7c4f 41bf bd39 b93d b451 5b3e
000003b0: f9bf 223d 5965 a13e 31b9 08bf f0a5 1ebf
000003c0: 6c91 c43e 4298 cabe d4a4 9c3e a965 853e
000003d0: b5a2 73be bcd8 d5bd 4457 993e 6301 b1be
000003e0: f84b 5b3f f7fd 363d e3d6 3e3d 9117 b4be
000003f0: d41a 26be fc8e 853e 9ebd 3b3d 86bb 283d

network_body._body_endoder.seq_layers.0.bias f4 [128]
0.065515175 -0.14493729 0.13022394 -0.08298512 0.0177169 0.11981359 0.010568867 0.07387134
0.13927917 -0.026521921 0.08731824 0.012384144 0.047499854 0.11384167 0.042844117 0.08127476
0.048074298 0.045184612 0.0036477046 0.03817675 -0.04801952 -0.0468581 0.11583356 0.17921703
0.021269344 -0.025214544 -0.16537745 0.004307218 0.02516107 -0.043314718 -0.07167586 0.07625914
-0.029300207 -0.013845837 0.09301343 0.123618074 0.05407601 0.018023299 -0.10545627 0.15106043
-0.033110764 -0.074401975 -0.126224 0.022904765 0.1168736 -0.0607866 -0.06262034 0.03130804
0.2133731 -0.09015045 -0.046694268 0.059062388 0.11709102 0.00041850848 -0.024466002 -0.14973377
-0.040503882 -0.07192495 -0.055178616 0.050108954 0.006146897 -0.047208846 -0.042018484 -0.0734016
0.0077048843 -0.050389767 0.08080854 0.06251554 0.057132643 -0.052259874 0.05950757 -0.009921883
0.048403196 -0.0060554747 -0.1438573 -0.06460923 -0.09771228 -0.08644092 0.0010154244 -0.027294518
-0.047821928 0.10030456 0.14566755 -0.05330021 -0.018508201 -0.079900704 -0.03860775 0.06587796
0.14954817 -0.13415125 0.14443813 -0.013324341 0.065316565 0.07969977 0.017724702 0.097378395
0.04120002 0.0572947 0.0705536 0.0058291634 0.069437 -0.01214043 -0.066622026 0.07159839
-0.029515153 -0.03448072 0.06435472 -0.04258252 0.0130771445 0.0636626 -0.1363544 -0.052075583
0.021527695 0.002454633 0.0023452367 -0.027604816 -0.14670399 0.10410716 -0.0003871404 -0.15500242
-0.04266989 0.08131092 0.04557345 -0.0496887 0.07928108 0.04816122 -0.009437164 0.04492417
00000000: d22c 863d 716a 14be 6d59 053e 1af4 a9bd
00000010: 0823 913c d460 f53d 0b29 2d3c db49 973d
00000020: 339f 0e3e 8044 d9bc e8d3 b23d dde6 4a3c
00000030: 358f 423d d225 e93d 507d 2f3d 6273 a63d
00000040: 8ee9 443d 8013 393d 540e 6f3b 395f 1c3d
00000050: 1eb0 44bd 47ee 3fbd 253a ed3d ab84 373e
00000060: 0c3d ae3c bb8e cebc b558 29be 9023 8d3b
00000070: 971e ce3c c66a 31bd cbca 92bd c12d 9c3d
00000080: fd06 f0bc a6d9 62bc d37d be3d 792b fd3d
00000090: ce7e 5d3d 99a5 933c 75f9 d7bd 96af 1a3e
000000a0: 279f 07bd 1060 98bd dd40 01be c6a2 bb3c
000000b0: 6d5b ef3d 5ffb 78bd 183f 80bd dc3c 003d
000000c0: 7a7e 5a3e cda0 b8bd 7d42 3fbd 67eb 713d
000000d0: 6bcd ef3d 426b db39 ed6c c8bc cf53 19be
000000e0: 66e7 25bd 634d 93bd f902 62bd 0c3f 4d3d
000000f0: e96b c93b 105e 41bd 931b 2cbd 9453 96bd
00000100: 4179 fc3b 8065 4ebd f37e a53d 2608 803d
00000110: eb03 6a3d 730e 56bd 36be 733d 658f 22bc
00000120: 6e42 463d 016d c6bb 544f 13be d851 84bd
00000130: 601d c8bd f007 b1bd fd17 853a c198 dfbc
00000140: ede0 43bd 7a6c cd3d e029 153e 5251 5abd
00000150: 839e 97bc fba2 a3bd 2923 1ebd 06eb 863d
00000160: 2823 193e f25e 09be 97e7 133e 564e 5abc
00000170: b1c4 853d a239 a33d 6533 913c 536e c73d
00000180: 5ac1 283d d9ad 6a3d 687e 903d 9102 bf3b
00000190: fc34 8e3d a7e8 46bc 2171 88bd 2da2 923d
000001a0: c3c9 f1bc a83b 0dbd 68cc 833d 026b 2ebd
000001b0: 8541 563c 8a61 823d 7da0 0bbe 354d 55bd
000001c0: d95a b03c e8dd 203b 8bb2 193b 7f23 e2bc
000001d0: 9239 16be 2236 d53d 1bf9 cab9 f4b8 1ebe
000001e0: 9fc6 2ebd 5786 a63d 3aab 3a3d 6186 4bbd
000001f0: 1e5e a23d b344 453d 569e 1abc 6802 383d

network_body._body_endoder.seq_layers.2.weight f4 [128, 128]
-0.0040525333 -0.07810211 -0.009013303 0.016539788 -0.05780098 0.06893549 -0.034801982 -0.0646436
-0.22355488 0.020575503 0.07623315 -0.15987845 -0.1347769 0.111760184 -0.101502605 0.045163028
-0.013952 0.2806543 0.18253393 -0.07446628 -0.10054107 0.121839836 0.13679887 0.04089162
-0.09514107 0.010548427 -0.19829108 -0.15143701 -0.068483226 0.013640028 0.057164147 -0.012445679
-0.10296988 -0.12744588 -0.32596993 -0.066149235 -0.12294616 -0.15247539 -0.109060735 -0.0048080496
0.015446163 0.17793782 0.15707314 -0.095904656 -0.13184911 -0.16171007 -0.033525214 -0.0008739959
0.08413028 -0.22625273 -0.094287544 -0.13780817 -0.14476812 -0.012326222 -0.12246437 0.03853201
-0.06530374 0.050003123 -0.06438656 -0.007193478 -0.13758303 -0.15569171 -0.08465207 -0.16262326
-0.08692891 -0.054101028 -0.0621004 -0.2176005 -0.061863665 -0.12884499 -0.109318316 -0.17952044
-0.0014521194 -0.05286953 -0.15840583 -0.01111961 -0.0059938626 0.00336999 -0.110217094 -0.0038655396
-0.03435712 0.18494998 0.04194536 -0.085021764 0.061190717 -0.0067821476 0.03654131 -0.1457217
0.041191522 0.20374672 -0.016808756 -0.017370882 -0.041682143 -0.29878336 -0.06757003 0.037572797
0.056286424 -0.13008623 0.14798515 0.029486787 0.047088526 0.057292264 -0.09536024 0.1176027
-0.12860277 -0.18068194 -0.036392387 -0.022031622 -0.011296275 -0.119289696 -0.052449208 -0.08281733
0.04312902 -0.07479155 -0.045405407 0.07247788 -0.16209784 -0.037236556 -0.063259885 -0.09247032
0.078466244 -0.14335686 -0.11617405 -0.032478407 -0.07771771 -0.021684676 -0.08677294 -0.0038391978
-0.13177541 0.01442651 0.045243975 0.15209763 0.15407118 -0.10741484 0.18547493 -0.14347126
0.12114458 0.06789113 0.059433077 -0.058481798 -0.0286692 0.21807882 0.05760674 -0.059309866
-0.10965474 0.009796417 -0.036191102 -0.18745345 0.07130481 0.13631578 -0.044785865 -0.0041680336
-0.08031264 0.06475289 -0.013453723 0.073299326 -0.14920586 0.10284601 -0.11493973 -0.21194825
-0.14400564 -0.1256968 0.071275234 -0.06277898 -0.22859886 -0.2556546 0.1914005 -0.1834621
-0.040787317 -0.06671983 0.0021074666 -0.0677429 -0.11714831 0.036871824 -0.03716394 -0.05376722
-0.12002011 -0.030905807 -0.103581 -0.017163303 0.0025101083 0.012142209 0.05177119 -0.008525983
0.08952459 0.0015678636 0.12886831 0.043140117 0.055066545 -0.103794046 0.0060620755 -0.026559941
-0.09586005 0.14544937 0.050561335 0.09323176 0.0679575 -0.022318577 0.08651864 -0.08338714
-0.012932847 -0.037639394 0.04640409 0.1445942 -0.029473515 -0.1737065 0.066321366 -0.022992743
0.0724826 -0.04854959 0.0106746 0.20489626 -0.13028295 -0.26493394 0.08228622 0.03240754
-0.07994415 0.13031478 -0.0050989706 0.06954587 0.09379236 0.054178577 0.10852999 -0.032234937
0.00240382 0.0075481404 -0.07006457 0.005684455 0.17489244 -0.14058459 0.13485333 -0.008364982
0.0010373446 -0.07288359 -0.10277853 -0.16416293 0.119192235 0.2172489 0.065366186 -0.18117267
-0.16596812 -0.08235433 -0.22190793 0.09859948 -0.09535928 -0.04490699 0.062302627 -0.16210389
-0.054059654 -0.014261679 0.06921124 -0.06804104 -0.08008164 -0.13328277 -0.07866657 -0.036404572
00000000: 1dcb 84bb 00f4 9fbd 88ac 13bc 737e 873c
00000010: b8c0 6cbd 0d2e 8d3d 868c 0ebd dd63 84bd
00000020: 92eb 64be f58d a83c 2020 9c3d 2db7 23be
00000030: f502 0abe 86e2 e43d 99e0 cfbd defc 383d
00000040: ee96 64bc ecb1 8f3e 2dea 3a3e c781 98bd
00000050: 7ae8 cdbd 2a87 f93d 0115 0c3e f97d 273d
00000060: 52d9 c2bd 4fd3 2c3c d10c 4bbe 4e12 1bbe
00000070: ef40 8cbd 6d7a 5f3c f424 6a3d f6e8 4bbc
00000080: dfe1 d2bd 2c81 02be 88e5 a6be 4079 87bd
00000090: 32cb fbbd 8222 1cbe 3c5b dfbd d88c 9dbb
000000a0: e711 7d3c 5535 363e c8d7 203e a969 c4bd
000000b0: 7403 07be 5397 25be bc51 09bd df1c 65ba
000000c0: 7f4c ac3d ccae 67be d419 c1bd 961d 0dbe
000000d0: 183e 14be ecf3 49bc 9ace fabd bed3 1d3d
000000e0: f8bd 85bd 13d0 4c3d 1add 83bd 44b7 ebbb
000000f0: 91e2 0cbe a66d 1fbe 115e adbd b686 26be
00000100: c907 b2bd 0a99 5dbd fd5c 7ebd aad2 5ebe
00000110: c164 7dbd f1ef 03be 48e2 dfbd 35d4 37be
00000120: 0b55 beba b88d 58bd 2335 22be 062f 36bc
00000130: 2a68 c4bb 0ddb 5c3b 80b9 e1bd fe54 7dbb
00000140: 0dba 0cbd 8763 3d3e e6ce 2b3d e41f aebd
00000150: 1ea3 7a3d c73c debb 57ac 153d 1238 15be
00000160: 71b8 283d fba2 503e 84b2 89bc 614d 8ebc
00000170: e5ba 2abd 22fa 98be 2862 8abd efe5 193d
00000180: 988c 663d 5335 05be 6b89 173e 468e f13c
00000190: e6df 403d 4bab 6a3d 3b4c c3bd afd9 f03d
000001a0: 72b0 03be b004 39be 2f10 15bd a97b b4bc
000001b0: 0314 39bc 284e f4bd fbd4 56bd 229c a9bd
000001c0: 0ea8 303d 502c 99bd 05fb 39bd 486f 943d
000001d0: fafc 25be 5c85 18bd 668e 81bd 1461 bdbd
000001e0: e9b2 a03d 24cc 12be a9ec edbd 1408 05bd
000001f0: 762a 9fbd 10a4 b1bc 03b6 b1bd 0d9b 7bbb
00000200: 22f0 06be 2b5d 6c3c bf51 393d 7bbf 1b3e
00000210: d6c4 1d3e 50fc dbbd 24ed 3d3e 21ea 12be
00000220: a61a f83d 810a 8b3d 1970 733d 9c8a 6fbd
00000230: acdb eabc 0e50 5f3e 0cf5 6b3d e7ee 72bd
00000240: aa92 e0bd 2781 203c 1f3d 14bd ccf3 3fbe
00000250: 4208 923d 5d96 0b3e 6271 37bd 0094 88bb
00000260: f47a a4bd 2a9d 843d 016d 5cbc f51d 963d
00000270: 6cc9 18be eea0 d23d 8565 ebbd f608 59be
00000280: 3776 13be a9b6 00be c0f8 913d 4492 80bd
00000290: d215 6abe 29e5 82be 7efe 433e 7ddd 3bbe
000002a0: 9a10 27bd 68a4 88bd 6c1d 0a3b cabc 8abd
000002b0: 74eb efbd e906 173d 3739 18bd 043b 5cbd
000002c0: 1acd f5bd 2d2e fdbc 4622 d4bd 0e9a 8cbc
000002d0: a180 243b 1ef0 463c 070e 543d 91b0 0bbc
000002e0: ab58 b73d c680 cd3a 0ef6 033e b1b3 303d
000002f0: 758d 613d f991 d4bd 60a4 c63b 3c94 d9bc
00000300: 4652 c4bd aef0 143e 6719 4f3d 4bf0 be3d
00000310: 4d2d 8b3d 73d5 b6bc af30 b13d e0c6 aabd
00000320: 4be4 53bc c42b 1abd 3712 3e3d 8110 143e
00000330: 7172 f1bc 1ee0 31be 7fd3 873d 475b bcbc
00000340: c271 943d efdb 46bd 84e4 2e3c 53d0 513e
00000350: e568 05be 6ca5 87be ad85 a83d c5bd 043d
00000360: c2b9 a3bd 3d71 053e 4415 a7bb 116e 8e3d
00000370: 3516 c03d 5bea 5d3d f944 de3d c808 04bd
00000380: 6889 1d3b 6456 f73b 037e 8fbd aa44 ba3b
00000390: 0117 333e 68f5 0fbe fe16 0a3e 470d 09bc
000003a0: 82f7 873a fe43 95bd 8d7d d2bd 541a 28be
000003b0: 0f1b f43d 7f76 5e3e b5de 853d 5485 39be
000003c0: 8cf3 29be 63a9 a8bd d53b 63be 86ee c93d
000003d0: ba4b c3bd 64f0 37bd 0a31 7f3d 90fe 25be
000003e0: a86d 5dbd d1a9 69bc 9fbe 8d3d 1a59 8bbd
000003f0: d801 a4bd 477b 08be f01b a1bd f61c 15bd

network_body._body_endoder.seq_layers.2.bias f4 [128]
-0.013546646 -0.019270932 0.07917951 0.032080945 -0.061265443 0.07386787 -0.027134275 -0.026316509
0.06384213 0.10091022 0.015860504 0.013785319 -0.05389615 0.10275226 -0.1060647 -0.08210073
0.05327289 0.0778584 -0.040560324 -0.0765815 -0.07471318 0.051505703 0.037971612 0.02808945
0.011099913 -0.09349372 -0.0017381501 0.049701232 -0.040766515 -0.005128262 0.032738063 -0.059928555
-0.0004018458 -0.058033515 0.006616614 0.05859445 -0.074124195 0.0114852665 -0.01356075 0.03270431
0.009175408 -0.014232733 0.03813898 0.047064062 -0.05201414 0.021567505 0.034444276 0.004157769
-0.069306545 0.06751503 0.011402337 0.0983356 -0.0016971915 -0.013911749 0.09793699 -0.020033201
0.054267563 0.0785924 0.09722763 0.009761234 0.014023375 -0.006702732 -0.04764915 0.014984774
0.04456752 -0.06576386 0.0030259907 0.028214974 0.09615844 0.10148961 -0.015130116 -0.0037192493
-0.013123672 -0.017971732 -0.0027596543 0.0010668465 -0.02203237 -0.05454319 -0.0018047097 -0.013908857
0.052610766 -0.060874205 0.03864704 -0.008669988 0.08768628 0.05951911 0.043599427 0.17329696
-0.03511923 0.0012574106 0.016503055 0.05801587 -0.011774063 -0.03972546 0.05037738 0.016040774
-0.0068870387 -0.028605413 -0.058803614 -0.011178515 0.07332732 0.054541875 0.025743179 0.03224079
0.0903443 -0.06538838 0.056467343 0.027285622 -0.020439332 0.05266942 -0.03900834 0.04051121
0.038316388 0.11413208 0.082763135 0.01997965 -0.044028305 -0.025029961 0.010243229 -0.04962541
0.06538297 0.010555706 0.08685162 0.007857364 0.009474535 0.0018634417 -0.09458304 0.065961026
00000000: c0f2 5dbc 13de 9dbc de28 a23d 4f67 033d
00000010: 79f1 7abd 0a48 973d b348 debc b895 d7bc
00000020: aabf 823d 04aa ce3d e3ed 813c d2db 613c
00000030: 36c2 5cbd c76f d23d 7338 d9bd 6d24 a8bd
00000040: ad34 5a3d 3a74 9f3d 9522 26bd c3d6 9cbd
00000050: 3903 99bd a5f7 523d 1f88 1b3d d91b e63c
00000060: 69dc 353c a379 bfbd a4d2 e3ba 8593 4b3d
00000070: cafa 26bd fb0a a8bb 5918 063d a577 75bd
00000080: d5ae d2b9 8db4 6dbd 2ed0 d83b bc00 703d
00000090: 6dce 97bd b32c 3c3c e82d 5ebc f4f4 053d
000000a0: 7354 163c 6930 69bc 9e37 1c3d 3fc6 403d
000000b0: c70c 55bd 56ae b03c 7115 0d3d e53d 883b
000000c0: 97f0 8dbd 5245 8a3d ded0 3a3c 2d64 c93d
000000d0: 4c74 deba 1bee 63bc 3093 c83d ab1c a4bc
000000e0: aa47 5e3d 0df5 a03d 481f c73d 95ed 1f3c
000000f0: 4cc2 653c 97a2 dbbb c12b 43bd b382 753c
00000100: 6f8c 363d 34af 86bd b34f 463b 1723 e73c
00000110: b7ee c43d c9d9 cf3d 4ee4 77bc a6be 73bb
00000120: ac04 57bc 7439 93bc 51db 34bb 6ed5 8b3a
00000130: 3b7d b4bc ae68 5fbd 028c ecba f9e1 63bc
00000140: 637e 573d 3b57 79bd 5c4c 1e3d 910c 0ebc
00000150: dd94 b33d 4fca 733d 5095 323d c274 313e
00000160: 2fd9 0fbd b3cf a43a 6a31 873c 0da2 6d3d
00000170: 00e8 40bc 2ab7 22bd 8358 4e3d f167 833c
00000180: abac e1bb e655 eabc 0fdc 70bd 1726 37bc
00000190: a22c 963d 4d67 5f3d 5ce3 d23c eb0e 043d
000001a0: 6f06 b93d 58ea 85bd 4d4a 673d 1986 df3c
000001b0: 6370 a7bc e4bb 573d 36c7 1fbd 15ef 253d
000001c0: a5f1 1c3d 14be e93d b87f a93d 5dac a33c
000001d0: 0657 34bd a20b cdbc 37d3 273c 0444 4bbd
000001e0: 82e7 853d d7f1 2c3c 43df b13d 2cbc 003c
000001f0: 143b 1b3c ba3e f43a c1b4 c1bd 9316 873d

action_model._discrete_distribution.branches.0.weight f4 [3, 128]
-0.067066744 -0.08171162 0.018787708 -0.010232813 -0.017617377 0.06452712 0.011300063 -0.016712012
0.07033786 0.07474131 -0.08352217 0.08365962 -0.079802714 0.088213675 -0.12625618 0.0030727885
0.004457337 0.093413725 -0.08826107 -0.024390306 -0.07507373 -0.07246879 -0.07036893 0.003598581
0.030519286 0.0047057914 -0.07906371 -0.12152325 -0.10301508 0.008106591 0.06379799 -0.106877595
-0.052878335 -0.06411619 -0.05862276 0.042436674 -0.10466052 0.061370965 -0.06593483 -0.111600175
-0.06337382 0.011212026 0.014854258 0.075688586 0.0024863838 -0.10458473 -0.17452726 -0.059733193
-0.0972278 0.09315161 0.038950957 -0.039806515 -0.0664164 0.0036399914 0.08884298 0.0894129
-0.069252044 0.05252041 -0.16490585 0.0772572 -0.06641102 -0.16406359 -0.095663786 0.007992756
0.10412378 -0.07320265 -0.02085168 -0.0454119 0.076731026 -0.105349295 -0.19876707 -0.2310033
0.063409284 0.07809512 -0.06541918 -0.06517303 0.054097526 -0.011721014 0.0029131048 -0.16060862
-0.13262406 -0.0852768 -0.0966366 -0.092135414 0.13301653 -0.018361086 0.068964936 0.13812873
-0.08582774 0.06431661 -0.19765422 0.05160575 0.058291066 -0.048289366 0.019680733 -0.02651544
-0.07620701 0.014970301 -0.14680867 -0.14524297 -0.018683154 0.022409337 0.008756898 0.044291727
0.03712001 -0.11845499 -0.078626834 0.0938512 -0.058147836 0.039902728 -0.07087774 0.024429575
0.044361968 0.10304102 0.03740777 0.009835645 0.0737317 0.00265353 0.007109879 4.191034e-05
-0.15398945 0.012801079 -0.13015093 0.031778432 0.009172062 0.08776459 -0.074581906 0.04175476
-0.040338222 0.0057584126 0.07137973 -0.093117945 -0.08971308 -0.056083344 -0.0803868 -0.13075636
-0.063820675 -0.011438323 -0.12994184 0.0315347 0.037371088 0.1639519 0.021764643 0.06596498
0.058771152 0.10898078 0.07590026 -0.023865988 -0.038308874 -0.047580585 0.12962703 -0.061808243
0.068333544 0.011476463 0.03826864 0.017336624 0.008737866 0.039699193 -0.17771637 -0.03801634
0.00604396 -0.04155333 -0.07143151 0.0045452937 -0.021779004 -0.0021634225 0.12934257 -0.09052326
-0.06393009 -0.14523184 0.054632295 0.014821373 -0.042740934 -0.035216104 0.028739056 -0.14630386
0.0063449834 -0.09675556 -0.087970905 0.11181913 -0.027945293 0.13052769 0.031102847 0.073673025
0.08707827 -0.019591177 -0.07834805 0.03093512 -0.059208192 -0.016626285 -0.0631992 -0.12681127
0.015461659 0.023668854 0.032415528 -0.038022645 -0.12169501 -0.08458958 -0.011831069 0.002228393
0.028881526 0.0434588 6.755169e-05 0.07276857 0.016704572 0.0032756394 -0.14666402 0.08553427
0.0075861476 -0.099624105 -0.03457496 -0.056529466 -0.016572881 0.18640354 0.04913186 0.024041608
-0.024855088 0.055896226 -0.029475376 -0.019216998 -0.06365644 0.007841184 0.09582319 -0.072842956
-0.05969224 0.09876878 0.06425128 -0.048708986 0.05661591 0.076842986 -0.02700223 0.15352672
-0.0690236 0.012807608 0.21837153 0.07317633 -0.08602646 0.13502213 0.10721441 -0.056007423
-0.036313646 -0.09126662 0.101213045 0.021692552 0.06824074 0.037731115 0.10510725 -0.07525633
0.028035158 0.087456726 -0.10581079 0.0744766 -0.025882537 0.0039645974 0.0025804904 -0.2214258
00000000: 4a5a 89bd 6c58 a7bd aee8 993c 87a7 27bc
00000010: 5152 90bc cb26 843d e623 393c a1e7 88bc
00000020: 4c0d 903d f911 993d ac0d abbd bc55 ab3d
00000030: 9b6f a3bd 5fa9 b43d 4d49 01be d660 493b
00000040: da0e 923b b24f bf3d 38c2 b4bd 2ece c7bc
00000050: 41c0 99bd 846a 94bd 961d 90bd 2cd6 6b3b
00000060: 9503 fa3c 0a33 9a3b 28ec a1bd 2fe1 f8bd
00000070: 92f9 d2bd 82d1 043c 85a8 823d a4e2 dabd
00000080: f496 58bd 594f 83bd 6b1e 70bd 14d2 2d3d
00000090: 4158 d6bd 1f60 7b3d d708 87bd a28e e4bd
000000a0: 22ca 81bd a5b2 373c 465f 733c 9e02 9b3d
000000b0: 99f2 223b 8530 d6bd 46b7 32be cbaa 74bd
000000c0: 5e1f c7bd 45c6 be3d 0a8b 1f3d 280c 23bd
000000d0: 5205 88bd ec8c 6e3b 4ff3 b53d 1c1e b73d
000000e0: 04d4 8dbd a41f 573d 14dd 28be 0639 9e3d
000000f0: 8002 88bd 4900 28be 60eb c3bd 0cf4 023c
00000100: d93e d53d 45eb 95bd 24d1 aabc d401 3abd
00000110: 2825 9d3d 5fc1 d7bd 9889 4bbe 218c 6cbe
00000120: badc 813d 56f0 9f3d 7efa 85bd 7079 85bd
00000130: 5e95 5d3d 7f09 40bc cae9 3e3b 9676 24be
00000140: 9ace 07be 9aa5 aebd 69e9 c5bd 7eb1 bcbd
00000150: 7c35 083e fd69 96bc 7d3d 8d3d 9e71 0d3e
00000160: 74c6 afbd 6db8 833d de65 4abe 8d60 533d
00000170: 9dc2 6e3d 12cb 45bd 7d39 a13c e836 d9bc
00000180: 6c12 9cbd fe45 753c 0355 16be 93ba 14be
00000190: 6a0d 99bc c993 b73c 1879 0f3c 3e6b 353d
000001a0: 270b 183d 8898 f2bd 1b07 a1bd 0f35 c03d
000001b0: 6d2c 6ebd 0b71 233d 5928 91bd 8820 c83c
000001c0: e5b4 353d 2c07 d33d e438 193d af25 213c
000001d0: a500 973d d9e6 2d3b fdf9 e83b e3c8 2f38
000001e0: 69af 1dbe 9ebb 513c 4946 05be 1a2a 023d
000001f0: 6b46 163c ecbd b33d 66be 98bd 0a07 2b3d
00000200: b139 25bd 11b1 bc3b 892f 923d 9fb4 bebd
00000210: 7ebb b7bd a6b7 65bd d6a1 a4bd ffe4 05be
00000220: 6ab4 82bd ce67 3bbc 790f 05be 882a 013d
00000230: 6d12 193d 02e3 273e c44b b23c a618 873d
00000240: 05ba 703d 5131 df3d 9871 9b3d 9b82 c3bc
00000250: c4e9 1cbd dce3 42bd f3bc 043e a42a 7dbd
00000260: 75f2 8b3d c607 3c3c 94bf 1c3d 8905 8e3c
00000270: 4429 0f3c 9f9b 223d 48fb 35be 06b7 1bbd
00000280: 690c c63b d333 2abd af4a 92bd b0f0 943b
00000290: e269 b2bc 35c8 0dbb 6172 043e 4264 b9bd
000002a0: c7ed 82bd a8b7 14be 1dc6 5f3d 58d5 723c
000002b0: 1e11 2fbd c33e 10bd 2b6e eb3c aed0 15be
000002c0: 94e9 cf3b c727 c6bd 172a b4bd 6e01 e53d
000002d0: 87ed e4bc 0da9 053e 66cb fe3c e2e1 963d
000002e0: 1856 b23d ad7d a0bc f174 a0bd a66b fd3c
000002f0: 4a84 72bd d933 88bc 956e 81bd d0da 01be
00000300: e652 7d3c 2fe5 c13c 25c6 043d a2bd 1bbd
00000310: 3c3b f9bd 4d3d adbd 1ad7 41bc 3b0a 123b
00000320: f398 ec3c db01 323d 8aaa 8d38 b007 953d
00000330: 07d8 883c 1cac 563b 182f 16be 972c af3d
00000340: 3895 f83b b907 ccbd 799e 0dbd 718b 67bd
00000350: dac3 87bc 92e0 3e3e 7d3e 493d e8f2 c43c
00000360: e69c cbbc 71f3 643d 5876 f1bc f76c 9dbc
00000370: 4f5e 82bd 4f78 003c f33e c43d b02e 95bd
00000380: da7f 74bd 4947 ca3d 2d96 833d 1383 47bd
00000390: 16e6 673d db5f 9d3d c833 ddbc 1c36 1d3e
000003a0: 3f5c 8dbd 00d7 513c c99c 5f3e 79dd 953d
000003b0: a42e b0bd 3e43 0a3e 3b93 db3d 0a68 65bd
000003c0: 9ebd 14bd fee9 babd c948 cf3d 94b4 b13c
000003d0: cdc1 8b3d f18b 1a3d 7842 d73d fe1f 9abd
000003e0: fda9 e53c 831c b33d 54b3 d8bd 3087 983d
000003f0: 9d07 d4bc 74e9 813b 721d 293b 72bd 62be

action_model._discrete_distribution.branches.0.bias f4 [3]
0.09748748 -0.009978692 -0.05992835
00000000: 84a7 c73d ab7d 23bc 6e77 75bd

action_model._discrete_distribution.branches.1.weight f4 [3, 128]
0.12755138 -0.048419923 0.027115943 0.09143715 -0.020279495 0.13005383 0.07681514 -0.002295945
0.03801312 -0.106954895 0.118887134 0.080380194 0.10844139 -0.032433156 0.02441008 0.06187436
-0.010744462 0.024879392 0.07924843 0.115921274 0.11614145 0.12340009 0.029601287 0.051183254
-0.022218 0.075990625 -0.0064852475 0.12720682 -0.09391628 0.028412245 0.044200595 0.112323776
0.04989869 0.04662589 -0.02043639 0.08181644 0.1033244 0.020562313 -0.03431905 0.1974608
-0.017363366 0.022080489 0.15299957 0.10277667 0.18481061 -0.1227249 0.112523474 0.06923305
0.050940495 0.10987472 0.087175116 -0.12585129 -0.034738965 -0.10639213 0.15353373 -0.069778115
-0.09080516 -0.010358075 0.09271653 0.011417934 0.11184983 0.056775488 0.13488428 0.05544862
0.11014883 0.027913393 -0.007537777 0.007851219 0.048655905 0.17206423 0.07636007 0.043858413
0.0779555 0.02171293 0.13979217 -0.02413391 0.11822456 0.10339621 0.07260559 0.010592579
-0.060526364 -0.06304197 0.08374159 -0.040390085 0.07499407 -0.1421044 0.06731902 0.08696976
0.10582702 0.08469697 0.09916401 0.10759388 0.10993491 0.063367814 0.016978828 0.0037123926
0.112996414 0.0012041366 0.021930186 0.07218196 0.1612924 0.06604844 -0.08232478 0.13988206
0.09761881 0.13994014 -0.10713389 0.08527042 -0.06739538 -0.08545805 -0.111478135 0.0660311
0.07656231 0.05960279 0.030908834 0.021269027 0.03158868 -0.031822093 0.062142663 0.012082767
-0.039742522 0.062219694 0.16399217 0.10712601 0.06635353 0.0034986676 -0.038725127 0.11089281
-0.03437462 0.045089807 0.06325185 -0.0339903 -0.060862716 -0.060058154 0.0033795964 -0.02649192
-0.032208875 0.041573163 -0.0738125 -0.117765985 -0.07012215 0.092862695 0.040919892 0.030468531
0.052088838 -0.0012443477 0.08322404 -0.026747312 -0.045418303 -0.07115697 0.097805746 -0.0038555146
0.04533245 -0.12875696 0.06742339 -0.08994829 -0.025965696 0.0881553 -0.042186446 -0.032890014
-0.11896068 0.06453601 -0.021500792 -0.011670423 -0.08422827 -0.05160994 0.016535008 -0.120285034
0.017556136 0.0018554796 -0.020327317 -0.036488473 -0.081086405 -0.050588124 -0.07894336 -0.08845962
0.046879925 -0.009127026 -0.050708406 0.04162291 -0.066250585 -0.024963135 -0.0077292654 -0.010520527
0.06697738 -0.0053384784 -0.05915064 -0.04820063 -0.016929563 -0.07667182 -0.018414946 -0.16167021
-0.06750176 0.002213898 -0.06570276 -0.071388565 -0.03342426 -0.076102614 -0.06431614 -0.08062631
-0.17312525 -0.031787645 -0.04535356 0.04219622 -0.13130379 0.04099686 0.013126919 0.02421315
0.029851498 -0.0072872536 -0.1646508 -0.07776614 -0.05380128 0.08500112 -0.084749706 -0.013843226
-0.016063282 -0.031045401 -0.07852487 -0.075216115 -0.09345712 -0.04063156 0.054106515 -0.11525689
0.008952905 -0.049908724 -0.01932 -0.052485812 -0.088486366 0.06808519 0.0062567038 -0.019267784
-0.06457881 -0.03768336 0.058215432 -0.043225497 -0.032039348 -0.037487935 -0.069596045 0.051241193
-0.078903414 -0.04696571 0.075886324 0.09399835 0.09928244 -0.08417268 0.086014904 0.076911956
-0.061750155 -0.040671892 -0.049729757 0.1192757 -0.018625842 -0.08683061 -0.07752411 -0.13503061
00000000: d49c 023e f853 46bd 4122 de3c 6743 bb3d
00000010: 2f21 a6bc d52c 053e 4251 9d3d 9177 16bb
00000020: a5b3 1b3d 2b0b dbbd 197b f33d 5f9e a43d
00000030: 8516 de3d a1d8 04bd a6f7 c73c f86f 7d3d
00000040: 8a09 30bc decf cb3c 004d a23d 2268 ed3d
00000050: 92db ed3d 30b9 fc3d 667e f23c 88a5 513d
00000060: 8602 b6bc f9a0 9b3d 3382 d4bb 8142 023e
00000070: 2e57 c0bd ccc0 e83c af0b 353d 020a e63d
00000080: 9262 4c3d cafa 3e3d 376a a7bc 618f a73d
00000090: be9b d33d 4c72 a83c 2292 0cbd 2a33 4a3e
000000a0: 9e3d 8ebc 24e2 b43c ebab 1c3e 937c d23d
000000b0: fe3e 3d3e 3157 fbbd b572 e63d 0fca 8d3d
000000c0: fba6 503d ff05 e13d de88 b23d 29df 00be
000000d0: 724a 0ebd 1ee4 d9bd f237 1d3e d4e7 8ebd
000000e0: 0ef8 b9bd eab4 29bc 2ae2 bd3d 4912 3b3c
000000f0: 8611 e53d 6a8d 683d 1b1f 0a3e 181e 633d
00000100: b695 e13d a1aa e43c 75ff f6bb 66a2 003c
00000110: 6a4b 473d 9b31 303e ab62 9c3d e1a4 333d
00000120: 22a7 9f3d 51df b13c ae25 0f3e 7ab4 c5bc
00000130: b81f f23d 64c1 d33d 3db2 943d 7f8c 2d3c
00000140: 7eea 77bd 261c 81bd b680 ab3d 1370 25bd
00000150: 7e96 993d d183 11be 8ede 893d 341d b23d
00000160: d6bb d83d 9b75 ad3d 8016 cb3d 2e5a dc3d
00000170: 8e25 e13d fcc6 813d 2f17 8b3c 9d4b 733b
00000180: aa6a e73d 1fd4 9d3a efa6 b33c 23d4 933d
00000190: d629 253e 6844 873d e599 a8bd 3e3d 0f3e
000001a0: 5fec c73d 784c 0f3e 0369 dbbd 42a2 ae3d
000001b0: 9706 8abd a104 afbd a64e e4bd 503b 873d
000001c0: b3cc 9c3d 0e22 743d 8634 fd3c 623c ae3c
000001d0: 2263 013d e257 02bd 4e89 7e3d ccf6 453c
000001e0: 0ec9 22bd 14da 7e3d 90ed 273e e264 db3d
000001f0: 5ce4 873d e749 653b 3d9e 1ebd c51b e33d
00000200: 67cc 0cbd 17b0 383d 308a 813d 6a39 0bbd
00000210: 2f4b 79bd 8aff 75bd 387c 5d3b 9505 d9bc
00000220: 74ed 03bd 9f48 2a3d 022b 97bd 4b2f f1bd
00000230: 349c 8fbd cc2e be3d 9e9b 273d 2499 f93c
00000240: 1b5b 553d 6119 a3ba 5e71 aa3d 2e1d dbbc
00000250: 8b08 3abd bfba 91bd 614e c83d cdac 7cbb
00000260: 85ae 393d ddd8 03be 4615 8a3d cf36 b8bd
00000270: 03b6 d4bc c48a b43d b2cb 2cbd aeb7 06bd
00000280: a8a1 f3bd 752b 843d 6e22 b0bc 4d35 3fbc
00000290: df7f acbd f264 53bd 6d74 873c 0058 f6bd
000002a0: e3d1 8f3c 9033 f33a 7985 a6bc f074 15bd
000002b0: a110 a6bd 7e35 4fbd 0ead a1bd 512a b5bd
000002c0: 2a05 403d 8689 15bc 9eb3 4fbd c97c 2a3d
000002d0: 63ae 87bd 7d7f ccbc c745 fdbb 4a5e 2cbc
000002e0: 702b 893d 67ee aebb f147 72bd 066e 45bd
000002f0: deaf 8abc 1d06 9dbd f1da 96bc e08c 25be
00000300: 5d3e 8abd 0c17 113b 2b8f 86bd 2b34 92bd
00000310: e0e7 08bd b0db 9bbd 2eb8 83bd 681f a5bd
00000320: bf47 31be c333 02bd a8c4 39bd f2d5 2c3d
00000330: 8074 06be 53ec 273d 4a12 573c a85a c63c
00000340: 218b f43c eac9 eebb 389a 28be db43 9fbd
00000350: bb5e 5cbd 1115 ae3d 4191 adbd b3ce 62bc
00000360: 2597 83bc ed52 febc a6d1 a0bd e80a 9abd
00000370: 7266 bfbd 476d 26bd cb9e 5d3d ce0b ecbd
00000380: 35af 123c 176d 4cbd fa44 9ebc 5dfb 56bd
00000390: 5738 b5bd 4070 8b3d 0905 cd3b 79d7 9dbc
000003a0: e541 84bd de59 1abd 4e73 6e3d 380d 31bd
000003b0: b13b 03bd f38c 19bd 5f88 8ebd 49e2 513d
000003c0: 1d98 a1bd 1e5f 40bd 4a6a 9b3d 3582 c03d
000003d0: 9854 cb3d ba62 acbd 9528 b03d 0484 9d3d
000003e0: bbed 7cbd 9297 26bd 6eb1 4bbd d146 f43d
000003f0: 3995 98bc 3fd4 b1bd f6c4 9ebd 7745 0abe

action_model._discrete_distribution.branches.1.bias f4 [3]
-0.0524466 0.06157723 0.02009394
00000000: 3fd2 56bd 6838 7c3d 0c9c a43c
