ml-agents-docker/home/src/learn/results/AgentBehavior/AgentBehavior-40448.pt (torch, 447506 bytes, 40 tensors)

discrete_act_size_vector f4 [1, 2]
0	0x40400000	3.0
1	0x40400000	3.0

network_body._body_endoder.seq_layers.0.weight f4 [128, 7]
0	0x3d99a1ed	0.07501588
1	0x3f0273d7	0.5095801
2	0x3e1d4e8e	0.15361997
3	0xbe409b6f	-0.18809293
4	0x3e0f6eab	0.1400706
5	0xbec8b833	-0.39203033
6	0xbf0f131b	-0.5588853
7	0xbe0ff18f	-0.14056991
8	0x3e909e2f	0.28245685
9	0xbcb4b379	-0.022058235
10	0x3ef3fe81	0.4765511
11	0x3f30ba18	0.69033957
12	0x3e9806f0	0.29692793
13	0xbf4a26c0	-0.7896538
14	0xbd02ffef	-0.03198236
15	0xbe3332fa	-0.17499915
16	0x3f025322	0.509081
17	0x3ecbdf52	0.39818817
18	0x3ed39672	0.41325718
19	0xbf1fbcc7	-0.62397426
20	0xbd81d6d9	-0.06339807
21	0x3aa01aba	0.0012214996
22	0xbe50d88a	-0.20395103
23	0xbec39f30	-0.38207388
24	0xbef7cbbe	-0.4839763
25	0xbe8861fb	-0.26637253
26	0xbef789fa	-0.48347455
27	0x3ef4dcbe	0.47824663
28	0x3f62122c	0.8830898
29	0xbe971ebd	-0.2951564
30	0xbcabe497	-0.020983024
31	0x3e846daf	0.25864932
32	0x3e56d45f	0.2097945
33	0x3e6fef30	0.23431087
34	0xbe07414c	-0.13208503
35	0xbf16e6e5	-0.5894607
36	0xbe404589	-0.18776526
37	0x3c2f1243	0.010685506
38	0xbdf3778a	-0.11888035
39	0xbe8a354f	-0.26993796
40	0xbf3a356d	-0.7273777
41	0x3de53981	0.111926086
42	0xbed9c55d	-0.4253339
43	0x3e82deb8	0.25560546
44	0x3ed3e820	0.41388035
45	0x3d941659	0.07230825
46	0xbdd028c0	-0.101640224
47	0x3e5141b9	0.20435227
48	0xbebab4fa	-0.364662
49	0xbe0bea01	-0.13663484
50	0x3e89d480	0.26919937
51	0xbe4759a0	-0.19467783
52	0xbecfaf23	-0.40563306
53	0xbecd3dd4	-0.40086234
54	0x3ea884ef	0.3291392
55	0x3f1a29ab	0.6021983
56	0x3eb3d7d4	0.351256
57	0xbf2bbe4e	-0.67087257
58	0xbe15be14	-0.1462329
59	0xbc2a991c	-0.010412481
60	0xbd301175	-0.0429854
61	0x3e756bd7	0.23966919
62	0x3d11ea20	0.03562367
63	0x3e3fcc70	0.1873033
64	0xbf19f1c7	-0.6013455
65	0x3e4ec9b1	0.20194127
66	0xbf138105	-0.57618743
67	0xbe034734	-0.1282013
68	0xbe532c38	-0.20622337
69	0x3eb8ee9d	0.36119547
70	0x3ca9c1db	0.02072232
71	0xbe242d3b	-0.16032879
72	0xbeed5417	-0.46353218
73	0x3e67e3ed	0.2264554
74	0x3de8883f	0.11354112
75	0xbde3faed	-0.11131845
76	0x3ee2db3c	0.44307888
77	0xbf25c6fc	-0.6475675
78	0xbe37c092	-0.17944553
79	0x3ef4a618	0.4778297
80	0x3db4da62	0.08830716
81	0x3eba5453	0.3639246
82	0xbf26f50c	-0.6521766
83	0xbe3971fd	-0.1810989
84	0xbd0e6e43	-0.034773123
85	0x3eb628e3	0.3557807
86	0x3ef194dc	0.47183883
87	0x3c17620d	0.009239686
88	0x3e24b16e	0.16083309
89	0x3ed5f831	0.41790918
90	0xbc965904	-0.018352993
91	0x3ed3e3c0	0.41384697
92	0xbef985e0	-0.4873495
93	0xbf2dd0ca	-0.6789671
94	0x3d9cf2c7	0.076634936
95	0xbf1d9744	-0.6155894
96	0xbd3994e6	-0.045308016
97	0xbe756000	-0.23962402
98	0x3cd1b6b7	0.02559982
99	0x3e010b0a	0.12601867
100	0x3b13de53	0.0022562935
101	0x3e3e0ef7	0.18560396
102	0x3c14b3dd	0.009076086
103	0x3e8a576a	0.27019817
104	0xbe2f2c40	-0.17106724
105	0x3efd48fe	0.4946975
106	0xbe529902	-0.2056618
107	0xbd9f7264	-0.0778549
108	0xbe2f60d2	-0.17126778
109	0x3dc3f8ec	0.095689625
110	0xbe9f7c99	-0.31149748
111	0x3f4e8c78	0.8068309
112	0xbefe251d	-0.4963769
113	0xbedbd03a	-0.42932302
114	0xbe9b1634	-0.30290377
115	0x3dbcbecd	0.0921608
116	0xbeba406c	-0.36377275
117	0x3eac4b30	0.33651114
118	0x3e9612e1	0.29311278
119	0xbdbde892	-0.09272875
120	0x3e9a03e2	0.30081087
121	0x3ead9b56	0.33907574
122	0xbe0bc73c	-0.1365022
123	0x3e88b753	0.26702365
124	0xbec9c319	-0.3940666
125	0xbe88db07	-0.26729605
126	0x3f78a733	0.97130126
127	0xbf025e57	-0.509252
128	0xbe8f3e97	-0.2797744
129	0x3e678696	0.22609934
130	0xbd0df131	-0.034653846
131	0x3eaac385	0.33352295
132	0xbf589d40	-0.84614944
133	0xbdc73342	-0.097265735
134	0xbe79b69b	-0.24386065
135	0xbd86c44b	-0.06580409
136	0x3cfd2f96	0.03090648
137	0xbe636166	-0.22205123
138	0xbed9e540	-0.42557716
139	0x3ebda78a	0.37041885
140	0xbe309b5c	-0.17246765
141	0xbe002268	-0.12513125
142	0x3d4e39c7	0.05034807
143	0xbef73cab	-0.48288473
144	0x3ecea2e4	0.4035865
145	0xbf0da6a0	-0.55332375
146	0xbecfbf56	-0.40575665
147	0xbe127c1f	-0.14305161
148	0xbe138f8f	-0.14410232
149	0xbe6efb67	-0.2333809
150	0xbebcde75	-0.3688847
151	0xbd75479c	-0.059882745
152	0x3ead10b0	0.33801794
153	0xbe42bc04	-0.19017035
154	0x3e17f127	0.14838086
155	0xbf21f17a	-0.6325909
156	0x3ed6cd20	0.41953373
157	0x3d43a03d	0.047760237
158	0x3decb7c6	0.115584895
159	0x3d6e8574	0.05823274
160	0xbd8e74b7	-0.06955855
161	0xbe626864	-0.22110134
162	0xbf1648fd	-0.5870512
163	0x3f0ae742	0.5425912
164	0xbe5c68a0	-0.21524286
165	0x3f16406e	0.5869206
166	0xbf04f0dc	-0.5193002
167	0xbf023d67	-0.5087494
168	0x3e4a9997	0.19785152
169	0xbe84b903	-0.25922403
170	0xbf4fb536	-0.8113588
171	0x3e23cc52	0.15995911
172	0xbf792f74	-0.9733803
173	0x3d3ec184	0.04657127
174	0xbbf55c32	-0.007487797
175	0x3ca31962	0.019909564
176	0x3ec844f4	0.39115107
177	0xbe8a3c07	-0.26998922
178	0xbecd9801	-0.40155032
179	0xbe81b716	-0.25334996
180	0xbf3f6e34	-0.7477753
181	0xbe084d05	-0.1331063
182	0xbe3cf821	-0.18454029
183	0xbeabac24	-0.3352977
184	0x3f0a96d5	0.541364
185	0xbd3b66e0	-0.045752406
186	0x3dd3b904	0.10338023
187	0xbe2709ae	-0.16312286
188	0x3ebff9db	0.37495312
189	0xbebfd517	-0.37467262
190	0xbdfd079d	-0.12354968
191	0x3ea4ded8	0.32201266
192	0x3e256c58	0.16154611
193	0x3ef1790d	0.47162667
194	0xbdc7c463	-0.09754255
195	0xbebeecae	-0.37289947
196	0xbcd3eb19	-0.02586894
197	0x3d2e33b0	0.04252976
198	0xbeee561c	-0.4655007
199	0x3ea2105c	0.31653106
200	0xbe9fb26b	-0.3119081
201	0xbe43bb66	-0.19114456
202	0x3e794958	0.24344385
203	0x3ca6db74	0.020368315
204	0xbf3f3f08	-0.74705553
205	0xbd8833c4	-0.066504985
206	0x3de0d43a	0.10977979
207	0x3e06c2d7	0.13160263
208	0xbee65f43	-0.44994554
209	0xbf078631	-0.52939135
210	0x3d87553f	0.06608056
211	0xbd334a8f	-0.043772276
212	0x3ecf39f6	0.40473908
213	0x3f511db0	0.81685925
214	0x3ef200ba	0.4726618
215	0xbdf5c974	-0.12001315
216	0xbe9cc2ef	-0.30617473
217	0x3c7f09d6	0.01556631
218	0x3e2a5684	0.16634566
219	0xbe8e4f78	-0.27795005
220	0x3bcf39af	0.006324015
221	0x3d262f63	0.040572535
222	0xbdfa1e12	-0.12212767
223	0x3ec1336e	0.3773455
224	0xbf2dce26	-0.6789268
225	0x3f12ab02	0.5729219
226	0x3e1a7fcc	0.15087813
227	0x3e542c21	0.20719959
228	0xbe3768e5	-0.17911108
229	0xbe099932	-0.13437346
230	0xbed895b8	-0.42301726
231	0xbcd2e02b	-0.025741657
232	0xbf41a28e	-0.75638664
233	0x3f006958	0.5016074
234	0x3e0d66be	0.13808724
235	0x3e5517f6	0.20809922
236	0xbc099715	-0.008397837
237	0xbeff85d6	-0.49906796
238	0x3f48c541	0.78425986
239	0xbf0b9a6f	-0.5453252
240	0x3e15007f	0.1455097
241	0x3dd20a92	0.102559224
242	0xbf5021cc	-0.8130157
243	0x3f370717	0.71495193
244	0xbea45163	-0.32093343
245	0x3eb2752b	0.34855017
246	0x3ef40e3f	0.4766712
247	0xbf2f655b	-0.6851403
248	0xbebfd6e2	-0.3746863
249	0xbbc58b90	-0.0060286
250	0xbea3d34e	-0.3199715
251	0xbe756f7b	-0.23968308
252	0x3de0663b	0.10956999
253	0xbde40685	-0.11134056
254	0x3ea6588d	0.32489434
255	0x3e277394	0.16352683

network_body._body_endoder.seq_layers.0.bias f4 [128]
0	0x3d666fa5	0.056258816
1	0x3da96e6b	0.08273014
2	0x3dbd81b5	0.09253255
3	0xbd0989a8	-0.033578545
4	0xbdb7adfa	-0.0896873
5	0x3cf23ff0	0.029571503
6	0xbd0b26a2	-0.03397239
7	0x3d03a1dc	0.032136783
8	0xba337f04	-0.0006847235
9	0x3d0c8d36	0.034314357
10	0xbd6698b1	-0.05629796
11	0x3d2feada	0.04294858
12	0xbdd9fb79	-0.10643668
13	0xbb5929fe	-0.0033136602
14	0xbc3670cf	-0.011135294
15	0xbcb2d678	-0.021830782
16	0x3bcd11d4	0.006258229
17	0x3da2275d	0.07917664
18	0x3d03ddfd	0.032194126
19	0xbd872791	-0.065993436
20	0xbcb24d46	-0.021765362
21	0x3cb3e184	0.02195812
22	0x3924af4e	0.00015705565
23	0x3d329584	0.04359962
24	0x3b8a8979	0.004227814
25	0xbd3da20b	-0.046297114
26	0x3c14367f	0.009046196
27	0x3cf8a7b0	0.030353397
28	0x3c1260ba	0.008934194
29	0xbcd798ac	-0.026317917
30	0x3c85a743	0.016315108
31	0x3c446d4c	0.011988949
32	0x3d8adf3d	0.067808606
33	0xbbdf0bb7	-0.0068068164
34	0xbc7d79aa	-0.0154709015
35	0xbc5eaf38	-0.01359158
36	0xbd316005	-0.043304462
37	0xbcc1e18e	-0.023667123
38	0x3c633fd3	0.013870197
39	0xbcd79823	-0.026317662
40	0x3bb9eafa	0.0056737633
41	0x3d2950da	0.04133687
42	0xbca18b74	-0.019719817
43	0x3d812770	0.0630635
44	0xbc951605	-0.018198976
45	0xbcafeb72	-0.021474574
46	0x3c519ee6	0.012794232
47	0x3bfa757a	0.007643399
48	0xbcb1a0da	-0.021683145
49	0xbd057333	-0.032580566
50	0xbd30c5d2	-0.043157406
51	0xbd0ce094	-0.034393862
52	0xbd1f00c5	-0.038819093
53	0xbcf5359e	-0.029932793
54	0xbcfb0c89	-0.030645626
55	0xbdafe07d	-0.085877396
56	0xbcb70c91	-0.02234486
57	0x3d649a7f	0.0558114
58	0xbd25c619	-0.040472124
59	0x3b9fda48	0.004878316
60	0x3ceab161	0.028649034
61	0xbb278539	-0.0025561585
62	0x3d56ffd8	0.052490085
63	0x3c28ded3	0.010307032
64	0xbd267131	-0.04063529
65	0xbc35a636	-0.011086991
66	0x3d37ea21	0.044901017
67	0x3d864f9a	0.065581515
68	0x3c3d1955	0.011541684
69	0xbcaf2222	-0.02137858
70	0xbc2f9613	-0.010716933
71	0x3ba4895d	0.005021258
72	0xbb7b4b5e	-0.0038344483
73	0x3d0210dc	0.03175436
74	0x3b858067	0.0040741446
75	0x3d8f50ab	0.06997808
76	0xbc080a65	-0.0083032595
77	0xbd010017	-0.031494226
78	0x3db23737	0.08701938
79	0x3d12ba34	0.03582211
80	0xbd296735	-0.04135819
81	0x3c6a19ed	0.014288408
82	0xbc4f6d0f	-0.012660279
83	0x3cf7c7cd	0.03024664
84	0x3d5941f9	0.053041432
85	0x3c0cad0c	0.008586179
86	0x3d3c4abd	0.045969713
87	0x3c1a26fe	0.0094087105
88	0xbd009802	-0.031394966
89	0xbbd71285	-0.006563487
90	0x3c77df87	0.015128977
91	0x3d85fce7	0.06542378
92	0xbcf4a9db	-0.02986615
93	0x3af0ca91	0.0018370916
94	0x3ceee30d	0.029161
95	0x3c1e49b0	0.009661123
96	0xbd3dc700	-0.04633236
97	0xbd08b63b	-0.033376914
98	0xbc74bfe8	-0.014938332
99	0x3d08d610	0.03340727
100	0xbd730151	-0.059327427
101	0x3cd1ab2e	0.02559432
102	0x3d82243f	0.0635457
103	0x3cda4936	0.026646238
104	0x3c00ad5a	0.00785383
105	0x3cc33288	0.023827806
106	0x3c9835d1	0.01858035
107	0x3d065b9e	0.032802217
108	0x3b13e05a	0.0022564144
109	0x3d7e8f0c	0.06214814
110	0x3c9f98b1	0.019481989
111	0xbc61f364	-0.013790939
112	0x3c49a16d	0.012306553
113	0xbc54348c	-0.012951981
114	0xbbe90ff8	-0.0071124993
115	0x3d0e93c0	0.034808874
116	0x3c37106b	0.011173348
117	0xbcde8c55	-0.027166525
118	0x3d2e6550	0.042577088
119	0xbccc96af	-0.024974195
120	0x3d420694	0.047369555
121	0x3d3171ff	0.043321606
122	0x3b47c6fa	0.003048359
123	0x3d28b8f8	0.041192025
124	0x3d68d4cc	0.056843564
125	0x3d6fe043	0.058563482
126	0x3c86a11c	0.016434245
127	0xbd71f9cf	-0.059076127

network_body._body_endoder.seq_layers.2.weight f4 [128, 128]
0	0x3c8a17d3	0.016857063
1	0x3b9bc1a5	0.004753309
2	0x3cda49d4	0.026646532
3	0xbd7baed3	-0.061446022
4	0xbba088be	-0.0048991134
5	0x3bc53cd3	0.0060192137
6	0x3dac442d	0.08411441
7	0xbd488c5c	-0.048961982
8	0x3c595e4a	0.013267109
9	0xbd5eb95e	-0.054376
10	0xbc7f7117	-0.015590928
11	0xbdea232b	-0.11432489
12	0xbd650b34	-0.055918887
13	0xbd045954	-0.032311752
14	0x3d0ad9a3	0.03389896
15	0xbceea4ed	-0.029131377
16	0x3c4210b4	0.011844803
17	0xbda37f4c	-0.07983264
18	0xbe575376	-0.21027932
19	0xbe1ac442	-0.15113929
20	0xbc74ece3	-0.014949056
21	0x3cfc0960	0.03076619
22	0x3e208ad3	0.15677957
23	0x3d9300e0	0.07177901
24	0xbd8689b4	-0.065692335
25	0x3d216b19	0.039408777
26	0x3e28a9ad	0.16470976
27	0x3dc198e8	0.09452993
28	0xbd6be83c	-0.057594523
29	0x3e53bb15	0.20676835
30	0xbe12056d	-0.14259882
31	0xbd830b73	-0.06398668
32	0xbd17c909	-0.037056956
33	0x3c0c6667	0.0085693365
34	0x3db98e98	0.09060401
35	0x3d13ae01	0.036054615
36	0xbc2af4d9	-0.010434353
37	0x3e07bf11	0.1325648
38	0xbdbf90b0	-0.09353769
39	0x3e072e20	0.13201189
40	0xbd8c2610	-0.06843197
41	0x3da8ffc1	0.08251906
42	0x3b168063	0.0022964708
43	0x3d22ff57	0.039794292
44	0xbd88724d	-0.06662426
45	0xbde87209	-0.113498755
46	0xbe05049b	-0.12990038
47	0xbd94da98	-0.07268256
48	0xbc51db5d	-0.012808648
49	0x3d599ac8	0.053126127
50	0xbd83c7f1	-0.0643462
51	0xbc9a90e1	-0.018867912
52	0x3ce4205b	0.02784746
53	0x3e3b4dd6	0.18291411
54	0xbe11691d	-0.14200254
55	0xbda1fd6b	-0.07909664
56	0x3dbbf641	0.091778286
57	0x3db5b1f7	0.08871835
58	0xbd9a06d8	-0.075208366
59	0xbd4f6c43	-0.050640356
60	0xbd3291e8	-0.04359618
61	0x3cd9a551	0.026568087
62	0x3e558ca5	0.20854433
63	0x3cc6fe08	0.024291053
64	0xbe2d6c30	-0.16935802
65	0xbcc5441d	-0.02408033
66	0x3dbcef18	0.09225291
67	0x3e1318ca	0.14364925
68	0xbd8d5cf9	-0.06902499
69	0x3c4c583d	0.0124722095
70	0x3e32398b	0.17404763
71	0x3dd2dcb6	0.102960035
72	0xbc8aab98	-0.016927525
73	0x3d9ef236	0.07761042
74	0xbd7c93e5	-0.06166448
75	0x3c96648d	0.018358493
76	0xbd2fc9a7	-0.04291692
77	0xbcf19944	-0.029492028
78	0x3d0804d4	0.03320773
79	0xbe8b0796	-0.27154225
80	0x3e31b14a	0.17352787
81	0x3e3c9cb3	0.18419151
82	0xbd597d3f	-0.05309796
83	0x3d98c247	0.074589305
84	0x3e2bf63c	0.1679315
85	0xbd667197	-0.05626067
86	0xbdc6c477	-0.097054414
87	0x3ddf8809	0.109146185
88	0xbda48583	-0.08033278
89	0xbd419041	-0.047256712
90	0x3d1f9757	0.03896269
91	0x3da31d59	0.07964582
92	0xbe78ead1	-0.24308325
93	0x3d62bf38	0.05535814
94	0xbe4c81e9	-0.19971432
95	0xbdc9b35d	-0.09848664
96	0x3ca93916	0.020657104
97	0xbd4a08d4	-0.049324825
98	0x3e52f524	0.20601326
99	0xbe1f03c9	-0.15528788
100	0xbc9d7220	-0.019219458
101	0x3de91f9c	0.11382982
102	0xbe173353	-0.14765672
103	0x3d88fabd	0.066884495
104	0x3d9d6720	0.07685685
105	0x3d88afae	0.06674133
106	0xbd836964	-0.06416586
107	0xbd99a53a	-0.075022176
108	0xbc920ae5	-0.01782746
109	0xbdb7f1b9	-0.08981652
110	0x3cf1f35f	0.029534994
111	0xbd8ef412	-0.069801465
112	0xbd75f622	-0.060049184
113	0xbdfbdf59	-0.122984596
114	0xbd0e9765	-0.03481235
115	0xbd06ddbd	-0.03292631
116	0xbcee084f	-0.029056696
117	0xbcf556d8	-0.029948637
118	0x3d22e05e	0.039764754
119	0xbd2ff0a8	-0.042954117
120	0xbcb59f79	-0.022170769
121	0xbd9601d8	-0.073245704
122	0x3d2e261b	0.04251681
123	0x3ba8c78d	0.0051507414
124	0xbe8f4e82	-0.27989584
125	0xbdd70e40	-0.10500765
126	0x3d4d539b	0.05012856
127	0xbbbd8d25	-0.005784648
128	0x3d96f36d	0.073706485
129	0xbd947f51	-0.07250846
130	0x3d8bb624	0.0682185
131	0xbdc7a498	-0.09748191
132	0xbdddbf82	-0.10827543
133	0x3d18e9b5	0.037332255
134	0xbdd01043	-0.10159352
135	0xbd10193d	-0.03518032
136	0xbcaa8309	-0.020814436
137	0x3db3ca72	0.08778848
138	0xbcb56060	-0.022140682
139	0x3e2e2b1d	0.17008634
140	0xbcf45ddb	-0.02982991
141	0xbd757086	-0.059921764
142	0xbdadc0ac	-0.08484015
143	0x3d3c41be	0.045961134
144	0xbbed82e9	-0.0072482717
145	0x3e3eb8dd	0.18625207
146	0x3df5259c	0.11970064
147	0x3c6fffc8	0.014648385
148	0xbca41f43	-0.020034438
149	0x3d242a58	0.040079445
150	0xbc627c35	-0.013823559
151	0x3d4ed3da	0.050495006
152	0xbe1ce046	-0.15319929
153	0xbdc58abc	-0.09645602
154	0x3e105266	0.14093933
155	0xbb576c27	-0.003287086
156	0x3b3a9674	0.0028471025
157	0xbd375832	-0.044761844
158	0xbd4546a8	-0.048163086
159	0x3ddd547f	0.10807132
160	0x3dce9e01	0.100887306
161	0xbd9cf05a	-0.07663031
162	0x3db9a5e2	0.09064843
163	0x3ce3130f	0.027719049
164	0x3d959f2c	0.0730575
165	0x3dfc63d0	0.12323725
166	0x3d3bf685	0.045889396
167	0x3b8df697	0.0043323743
168	0x3e331cde	0.1749148
169	0xbc7b9be1	-0.015356989
170	0x3dafe43b	0.085884534
171	0x3e240365	0.1601692
172	0xbd6e58fb	-0.058190327
173	0xbdd16080	-0.10223484
174	0x3d03948b	0.032124083
175	0x3d02454a	0.03180436
176	0x3dd4e808	0.10395819
177	0xbe4b455a	-0.19850674
178	0x3d79acf3	0.060955953
179	0xbb289f84	-0.0025729844
180	0xbdb41bda	-0.08794375
181	0xbd98f935	-0.074694075
182	0xbe23cf90	-0.15997148
183	0xbcf0d534	-0.029398538
184	0xbc65c7b4	-0.014024664
185	0xbd06dcfc	-0.03292559
186	0xbd8ddfa0	-0.06927419
187	0x3d83b84a	0.06431635
188	0xbd2cf0f1	-0.042221967
189	0x3e3fa972	0.18716982
190	0xbcd7ea2c	-0.026356779
191	0xbd13b0ff	-0.03605747
192	0x3e359f7d	0.17736621
193	0x3b2f3448	0.0026734043
194	0xbe81ccb5	-0.25351492
195	0x3e134ae4	0.14384037
196	0x3e5815e1	0.21102096
197	0x3cdc90f7	0.026924593
198	0xbdf3e703	-0.11909296
199	0xbd4e0d35	-0.050305564
200	0x3dc5d5d3	0.09659924
201	0xbd978487	-0.073983245
202	0xbdaa636b	-0.08319744
203	0x3cbaeb74	0.02281735
204	0x3be57c44	0.007003339
205	0x3da8ed05	0.08248333
206	0x3e28142c	0.16413945
207	0x3cca07e3	0.024661964
208	0xbd689c55	-0.056789715
209	0xbde6acd3	-0.11263432
210	0x3aa88110	0.0012855846
211	0xbcc4fd66	-0.024046611
212	0xbe0b4727	-0.13601361
213	0xbccdb0e8	-0.02510877
214	0xbdc9eef6	-0.09860031
215	0xbaafae95	-0.001340347
216	0xbdd30bb2	-0.10304965
217	0x3d9484ef	0.072519176
218	0x3da20971	0.07911957
219	0x3e0a7ac6	0.13523397
220	0x3d5b6fec	0.053573534
221	0xbe65d275	-0.22443564
222	0x3c3f19ea	0.011663893
223	0xbe3d0cbe	-0.18461892
224	0x3e496969	0.19669117
225	0xbdf76bdd	-0.1208112
226	0x3d4426b1	0.04788846
227	0xbac90cf9	-0.0015338949
228	0xbd4a5d43	-0.049405348
229	0x3e8b846c	0.27249467
230	0x3bfa924a	0.0076468335
231	0xbe08072a	-0.13283983
232	0xbd43a985	-0.04776909
233	0xbdf3d37b	-0.11905571
234	0xbc185879	-0.009298437
235	0x3c917dc1	0.01776016
236	0x3c84b89d	0.016201312
237	0xbcf3bb09	-0.029752271
238	0xbc2c6ea0	-0.010524422
239	0x3dd5ce08	0.10439688
240	0x3d3cef3b	0.046126585
241	0xbea309b2	-0.31843334
242	0x3d41a2e8	0.0472745
243	0xbe12db7d	-0.1434154
244	0xbe080067	-0.13281403
245	0x3e248660	0.16066885
246	0xbc9d6d88	-0.019217268
247	0x3dddc7bd	0.10829113
248	0xbdb9dac4	-0.09074929
249	0xbd60dc11	-0.05489737
250	0xbd2ce0c6	-0.04220655
251	0xbe7dc11a	-0.24780694
252	0xbdd2d66e	-0.102948055
253	0x3e04c6f3	0.12966518
254	0xbd81b1a7	-0.063327126
255	0x3cb38cf2	0.021917794

network_body._body_endoder.seq_layers.2.bias f4 [128]
0	0xbd4d16e2	-0.05007065
1	0x3c616998	0.013758086
2	0xbc7af4c8	-0.015317149
3	0x3b339901	0.002740443
4	0x3c888805	0.016666422
5	0xbb34e484	-0.0027602026
6	0xbd02c0c6	-0.031922124
7	0x3cadef23	0.021232193
8	0x3cb69c89	0.022291439
9	0x3da36091	0.07977403
10	0x3d40eb6e	0.047099523
11	0xbc11192a	-0.008856097
12	0xbd1f3ca2	-0.038876183
13	0x3b89bee8	0.004203666
14	0x3d32e79e	0.04367792
15	0x3d12c8f7	0.035836186
16	0xbd6f1855	-0.058372814
17	0xbcc9c5b6	-0.024630409
18	0x3ce7a965	0.028279016
19	0x3c197ec8	0.009368606
20	0x3ce3eac4	0.027821906
21	0x3c982aa6	0.018575024
22	0x3d75bf7f	0.059997078
23	0x3b965d14	0.0045887325
24	0x3d1be3e7	0.03805914
25	0x3cf6951b	0.030100396
26	0xbc72f860	-0.014829725
27	0xbd503db2	-0.050840087
28	0x3c8685eb	0.016421279
29	0x3c7ccc59	0.01542958
30	0x3cde88de	0.027164873
31	0x3b276689	0.0025543293
32	0x3cb4e548	0.022081986
33	0x3c40754c	0.011746716
34	0x3d810a72	0.063008204
35	0xbd5741d3	-0.05255301
36	0x3c8969dd	0.016774112
37	0x3cbdcb6e	0.023168292
38	0x3d028f5d	0.031875003
39	0x3d2e72a2	0.04258979
40	0xbc77caac	-0.015124004
41	0xbc8e0953	-0.01733843
42	0x3d4dc89b	0.05024014
43	0x3c19a596	0.009377858
44	0x3cb05cd6	0.021528643
45	0x3c3e4cdd	0.011615005
46	0xbd1271d0	-0.03575307
47	0x3d22c3db	0.039737564
48	0x3d67f503	0.056630146
49	0xbd07a6bb	-0.03311799
50	0xbd08aad7	-0.03336605
51	0x3d12ccc2	0.035839804
52	0xbcd61ce1	-0.026136817
53	0xbced22b6	-0.028947216
54	0x3d977c53	0.0739676
55	0xbc8828b3	-0.01662097
56	0x3d4cbdd4	0.04998572
57	0xbc06f3c9	-0.008236834
58	0x3d85b207	0.06528097
59	0x3d1280cb	0.035767358
60	0x3bbaa70f	0.0056961845
61	0x3c627d2b	0.013823788
62	0x3d708ae9	0.058726225
63	0x3b240c58	0.0025031772
64	0x3c642c7e	0.013926623
65	0x3d927c75	0.071526445
66	0xbb345e49	-0.0027522019
67	0x3d33d0e2	0.043900378
68	0x3c968132	0.018372152
69	0x3d005eb9	0.031340335
70	0x3cd6d910	0.02622655
71	0xbd6d5161	-0.057938937
72	0x3cea1ca1	0.028578104
73	0x3c8e295e	0.01735371
74	0x3cd145df	0.025546012
75	0x3cbce86f	0.023060052
76	0xbd160a65	-0.036631007
77	0xbd6242cf	-0.055239495
78	0x3cd07bb0	0.025449604
79	0x3bd7d467	0.0065865996
80	0xbd15a593	-0.036534857
81	0x3d25768f	0.04039627
82	0x3d089a91	0.03335053
83	0xbce73e34	-0.028227903
84	0x3c7dbc46	0.015486782
85	0x3c3d671f	0.0115602305
86	0xbc3a7c60	-0.011382192
87	0x3d09d71a	0.033652402
88	0x3c89d564	0.016825385
89	0x3d868884	0.06569007
90	0x3d74f4ba	0.059803702
91	0x3b8cbbd5	0.0042948523
92	0xbc1fb8d5	-0.009748657
93	0x3b93c1d7	0.0045091915
94	0x3a064fc0	0.0005123578
95	0xbcf038e8	-0.02932401
96	0x3c14ec3f	0.009089529
97	0xbda3c754	-0.07997003
98	0x3d70b79b	0.05876885
99	0xbc2875d5	-0.010282
100	0x3c093288	0.008373864
101	0xbc01d310	-0.007923856
102	0x3c422466	0.011849498
103	0xbd50351d	-0.050831903
104	0xbc74ffba	-0.014953548
105	0x3d304d22	0.04304231
106	0xbc9424e1	-0.018083991
107	0xbd1afb5a	-0.037837364
108	0x3d07cdfd	0.03315543
109	0x3b4438fb	0.002994119
110	0x3d5eb51f	0.05437195
111	0x3cb2618f	0.021775035
112	0x3b1a64e1	0.0023558664
113	0x3d2c0396	0.041995607
114	0xbb2e0f2e	-0.002655934
115	0x3c840dc0	0.016119838
116	0x3c648335	0.013947298
117	0x3be01caa	0.0068393545
118	0xbba3b82c	-0.00499632
119	0x3d036fea	0.03208915
120	0x3d8f132b	0.06986078
121	0x3d09759c	0.033559427
122	0x3d037142	0.032090433
123	0x3ce61d8f	0.028090267
124	0x3d3fdaee	0.046839647
125	0x3ba6ea5d	0.0050938562
126	0x3cb0eb9d	0.021596724
127	0xbc8c7e3c	-0.017150037

action_model._discrete_distribution.branches.0.weight f4 [3, 128]
0	0x3ce18971	0.027531357
1	0xbd6230aa	-0.05522219
2	0xbcfcde82	-0.030867819
3	0x3c6d54a6	0.014485514
4	0x3b847468	0.004042197
5	0x3dad2098	0.084534824
6	0x3cc1b58d	0.02364614
7	0xbc202581	-0.009774567
8	0xbc61138c	-0.0137375705
9	0xbdb0e25a	-0.08636923
10	0x3d41b76e	0.047294073
11	0x3c1e1e1e	0.009650735
12	0x3d8a9912	0.06767477
13	0x3d1b5bc8	0.037929326
14	0x3d569ef2	0.052397676
15	0x3cc4f20b	0.024041196
16	0x3d965f2c	0.07342371
17	0xbc17fb62	-0.009276243
18	0xbc98fd6e	-0.018675532
19	0xbd5baa8e	-0.05362945
20	0x3d00bb63	0.031428706
21	0x3c662f09	0.0140493
22	0xbd7aff79	-0.061278794
23	0xbd72fd47	-0.059323575
24	0x3cf030ba	0.02932011
25	0x3dc3320a	0.095310286
26	0x3d5e7fdc	0.054321155
27	0x3d3636eb	0.044485968
28	0xbc86e438	-0.016466245
29	0xbcd96824	-0.026538916
30	0xbc0a79f7	-0.00845193
31	0xbc6640fc	-0.014053579
32	0xbc698a09	-0.014254102
33	0x3c902b2d	0.017598713
34	0xbde0ea04	-0.10982135
35	0x3d425a8a	0.047449626
36	0x3ce86245	0.028367171
37	0x3d729862	0.059227355
38	0xbd2859da	-0.041101314
39	0xbdbf8879	-0.09352202
40	0x3c3a3667	0.01136551
41	0x3cb24b32	0.021764372
42	0xbd4f2c03	-0.050579082
43	0x3d9b2e9f	0.07577252
44	0xbcb0993c	-0.021557443
45	0xbd32f656	-0.043691956
46	0x3ba3f0a9	0.005003054
47	0xbd97671e	-0.07392715
48	0xbd11a866	-0.035560988
49	0x3d1c0e6d	0.038099695
50	0xbc338a09	-0.010958203
51	0x3a3842c3	0.0007028991
52	0x3d760308	0.060061485
53	0x3d3a05db	0.04541574
54	0xbcdd889c	-0.02704268
55	0x3d517330	0.051135242
56	0xbdaa9103	-0.0832844
57	0xbd06f569	-0.032948885
58	0xbdc4d71a	-0.0961134
59	0xbcc77fb7	-0.024352891
60	0xbcb81259	-0.022469686
61	0x3c856ed8	0.016288206
62	0xbd3ebd05	-0.04656698
63	0xbccd647e	-0.025072332
64	0xbd09ffc2	-0.033691175
65	0xbd486fb6	-0.04893466
66	0x3d8acd8c	0.06777486
67	0xbcc7a095	-0.024368564
68	0xbd1ad4a2	-0.03780044
69	0xbcafcb7b	-0.021459332
70	0x3c0fa0aa	0.008766333
71	0x3cd4143b	0.025888553
72	0xbd37184c	-0.044700906
73	0x3c0675e8	0.008206822
74	0x3ccd510a	0.025063056
75	0x3d0be4a1	0.034153584
76	0x3d498c5d	0.049206126
77	0x3d07bafe	0.033137314
78	0xbd867a80	-0.06566334
79	0xbcca3d23	-0.024687355
80	0x3d3321d7	0.043733444
81	0xbc0be563	-0.008538577
82	0x3c849919	0.016186284
83	0x3da3c217	0.07996004
84	0x3cdcf8de	0.026974138
85	0xbd0eddaf	-0.034879383
86	0x3c2a1a07	0.010382182
87	0xbdacdf04	-0.08440974
88	0x3d0fa9b0	0.035073936
89	0xbdc75b1e	-0.09734176
90	0x3c1e5686	0.0096641835
91	0x3cdfe1f3	0.02732942
92	0xbcda9504	-0.026682384
93	0x3d246fd8	0.040145725
94	0x3cfea595	0.031084815
95	0xbbb6fdce	-0.005584455
96	0x3d0ae7ca	0.033912458
97	0x3d8da3fd	0.06916044
98	0xbc76f5d5	-0.015073259
99	0x3d9cc4b2	0.07654704
100	0xbd4d81ac	-0.050172493
101	0xbb3679b4	-0.0027843537
102	0xbd973734	-0.07383576
103	0x3d66c705	0.056342144
104	0x3cf97a45	0.03045381
105	0x3d86b77d	0.06577966
106	0xbc4ca725	-0.012491022
107	0xbbb91af6	-0.005648966
108	0xbd18eb3c	-0.037333712
109	0x3ccfa7b7	0.025348527
110	0xbd8f3766	-0.06992988
111	0x3d866a33	0.06563225
112	0x3c613eb2	0.013747858
113	0xbc9dda7d	-0.019269222
114	0x3dd4ced0	0.10391009
115	0x3997ffff	0.00028991696
116	0x3cd61cf6	0.026136857
117	0xbca2a6ed	-0.019854987
118	0xbc83bae7	-0.016080333
119	0x3cf44d96	0.029822152
120	0xbd8179db	-0.0632207
121	0x3c99278d	0.018695617
122	0xbd04faf6	-0.032465898
123	0xbd1dd487	-0.03853276
124	0xbca2086c	-0.019779406
125	0x3d06e431	0.032932464
126	0xbd7eac9a	-0.062176324
127	0x3ceed28a	0.029153127
128	0x3bb1c9b8	0.005425658
129	0x3d59636f	0.053073343
130	0xbb28b932	-0.002574515
131	0xbd590de9	-0.05299178
132	0x3db83293	0.08994021
133	0xbcf2659c	-0.029589467
134	0xbc219724	-0.009862695
135	0x3c849074	0.016182162
136	0x3c74aa5e	0.014933197
137	0x3d222637	0.039587226
138	0xbc729647	-0.014806337
139	0xbb50a5eb	-0.0031837176
140	0x3b371fa8	0.0027942453
141	0x3d51d8b4	0.051232055
142	0x3d3aaa5e	0.04557263
143	0xbd8c9539	-0.068643995
144	0xbd6433ce	-0.055713467
145	0x3d42fa78	0.047602147
146	0xbca67d80	-0.020323515
147	0x3a8f1ab1	0.0010917989
148	0x3b7c860f	0.0038532054
149	0xbd00630d	-0.031344462
150	0x3da45d6d	0.08025632
151	0x3ca0a669	0.0196106
152	0xbd3e4ddb	-0.046460968
153	0xbd1ea078	-0.038727254
154	0xbcab20f9	-0.020889746
155	0x3b2c8683	0.0026325292
156	0x3c528d16	0.01285102
157	0x3d316191	0.043305937
158	0xbbe86b66	-0.007092881
159	0xbc605e23	-0.013694319
160	0x3d9e5ce9	0.07732565
161	0x3caa85b6	0.020815711
162	0xbcfdcc09	-0.03098108
163	0xbc82019f	-0.015869914
164	0xbd35da4c	-0.044397637
165	0xbd9445b2	-0.07239856
166	0xbc56a265	-0.013100241
167	0x3cad62be	0.021165248
168	0xbb9add48	-0.004726086
169	0xbb79e6ce	-0.0038131955
170	0x3db35a43	0.087574504
171	0xbd159061	-0.036514644
172	0x3b8780a0	0.0041352063
173	0xbc3ce38d	-0.011528862
174	0xbb3766a2	-0.0027984758
175	0xbc3fdcca	-0.011710355
176	0x3d0d2907	0.034462955
177	0x3c5920f1	0.013252483
178	0xbb545a75	-0.003240255
179	0x3d0d7dea	0.03454391
180	0xbd8e1a7d	-0.06938646
181	0xbc24b247	-0.01005227
182	0x37065450	8.006653e-06
183	0xbd044b37	-0.032298293
184	0xbcd0d5ef	-0.025492636
185	0x3c4091c3	0.011753502
186	0x3cc3043c	0.02380573
187	0xbd13605f	-0.03598058
188	0xbbaa91be	-0.005205362
189	0x3ca8f8d2	0.02062646
190	0x3d66a677	0.056311097
191	0x3cbb5535	0.022867778
192	0x3c372824	0.011179004
193	0xbdb0efd4	-0.086394936
194	0xbc4b0cf0	-0.012393221
195	0xb9439548	-0.00018652261
196	0x3d013a80	0.03154993
197	0x3d1a250b	0.037632983
198	0x3d632bb1	0.05546159
199	0xbc633a3a	-0.013868863
200	0x3d25d9c4	0.04049088
201	0xbc779b71	-0.015112744
202	0xbd9e4283	-0.0772753
203	0x3cadfe29	0.021239357
204	0xbc95582c	-0.01823052
205	0xbcc37d72	-0.023863528
206	0x3d3d7223	0.046251427
207	0xbbc8ea95	-0.00613148
208	0xbcbdb09e	-0.023155507
209	0xbd09fed4	-0.03369029
210	0x3caf2a30	0.021382421
211	0xbd08d98b	-0.03341059
212	0xbc63df8d	-0.013908279
213	0x378252b8	1.5535727e-05
214	0x3cf10b6f	0.029424397
215	0x3c6a9179	0.01431691
216	0x3cf13520	0.029444277
217	0xbd5ecbf8	-0.05439374
218	0x3cccf6e6	0.025020074
219	0xbc51c75c	-0.012803879
220	0x3c886ad9	0.016652511
221	0x3cf7409d	0.030182177
222	0x3c608055	0.013702472
223	0xba6b26c6	-0.0008970316
224	0xbd5f4e67	-0.05451813
225	0x3c1ef40f	0.009701743
226	0xbc42d373	-0.011891234
227	0x3c7091bf	0.014683186
228	0x3c4db929	0.012556353
229	0x3c8eaa48	0.01741518
230	0x3c117eea	0.008880356
231	0xbce3e472	-0.027818892
232	0x3bcd4397	0.006264161
233	0xbcf3954a	-0.029734273
234	0xbbfaae53	-0.0076501756
235	0x3d1d7aad	0.03844707
236	0x3c39d5a2	0.011342438
237	0x3cb31c5e	0.021864112
238	0x3dcb06cb	0.09913405
239	0xbd50694a	-0.05088166
240	0xbbfb2c74	-0.0076652113
241	0x3dfe30b1	0.12411631
242	0xbd233a29	-0.039850388
243	0x3c8a940f	0.016916303
244	0xbd031a8d	-0.032007743
245	0xbcfa54ff	-0.030558107
246	0xbc98f74f	-0.018672613
247	0x3bd66f92	0.006544062
248	0xbd8c93e5	-0.06864146
249	0x3b518f15	0.0031976153
250	0xbd1d1a60	-0.03835523
251	0x3c1b31e6	0.009472346
252	0xbb8b0754	-0.004242817
253	0x3c778815	0.015108128
254	0x3cf318ae	0.029674854
255	0xbc69390c	-0.014234792

action_model._discrete_distribution.branches.0.bias f4 [3]
0	0xbdc683c1	-0.09693099
1	0x3d0db71e	0.034598462
2	0x3d2bd888	0.041954547

action_model._discrete_distribution.branches.1.weight f4 [3, 128]
0	0x3c87b1cf	0.016564278
1	0xbc478839	-0.012178474
2	0xbbdc06fd	-0.0067147003
3	0x3d158ca2	0.03651107
4	0xbcc68965	-0.024235437
5	0x3c605777	0.013692728
6	0x3b6e4207	0.0036355273
7	0x3cc76ca5	0.024343798
8	0x3cbc3a45	0.022977004
9	0x3bae4aca	0.005318974
10	0xbd8e6afb	-0.06953999
11	0x3d231c52	0.03982193
12	0x3ca1088b	0.019657394
13	0x3c6163a0	0.013756663
14	0xbd8ceb04	-0.06880763
15	0xbbd1f178	-0.006406959
16	0x3a541208	0.0008089845
17	0x3c057e5a	0.0081478
18	0x3bdd5a11	0.0067551215
19	0xba4e76f5	-0.00078760023
20	0x3d57f657	0.052725162
21	0x3c39109d	0.011295465
22	0xbc9526fb	-0.018207064
23	0x3ccf7b77	0.025327427
24	0xbdacd938	-0.08439869
25	0xbcea35ba	-0.028590072
26	0xba2ac027	-0.0006513618
27	0x3d09827b	0.0335717
28	0x3c151963	0.009100291
29	0xbcb7628d	-0.02238586
30	0xbcd470a6	-0.025932621
31	0x3c541636	0.012944749
32	0xbd13d606	-0.03609278
33	0x3cba8553	0.022768652
34	0x3cebfd17	0.028807206
35	0x3c6af56b	0.014340739
36	0x3cb00c93	0.02149037
37	0xbcd8ca1c	-0.02646356
38	0x3cff8750	0.031192452
39	0x3cf0d0bc	0.029396407
40	0x3d0cedbb	0.034406405
41	0xbd2610ef	-0.040543493
42	0x3c007f4a	0.007842848
43	0xbd91463a	-0.07093473
44	0x3c45b1fc	0.012066361
45	0x3c64d2df	0.013966291
46	0x3badb97c	0.0053016525
47	0x3c598efb	0.013278718
48	0x3be713d2	0.0070519233
49	0x3cc7906a	0.024360854
50	0xbd036476	-0.03207823
51	0xbd4da3a5	-0.05020489
52	0xbbe5c59b	-0.007012082
53	0xbb801a22	-0.0039093653
54	0x3d3c4f21	0.0459739
55	0xba7b74b9	-0.0009592283
56	0x3cb6131f	0.022225915
57	0xbd022cef	-0.031781133
58	0xbb063a1d	-0.0020481416
59	0x3cce3968	0.025173858
60	0xbc914e26	-0.01773746
61	0xbd1d2660	-0.038366675
62	0xbcf8679c	-0.030322842
63	0x3b86fac5	0.0041192495
64	0xbca6e1ec	-0.0203714
65	0x3c8d7ac9	0.017270463
66	0xbd5ab031	-0.053390685
67	0x3ca16ead	0.019706095
68	0xbc3ca165	-0.011513089
69	0x3d1a337d	0.03764676
70	0xbc2a1df8	-0.010383122
71	0xbc8b26c5	-0.01698626
72	0x3cf183e8	0.029481843
73	0x3b117a86	0.0022198274
74	0x3cd22ad2	0.025655184
75	0xbcdf7e4e	-0.027281906
76	0x3d1171af	0.035508808
77	0x3d0076f2	0.031363435
78	0x3cf05730	0.02933845
79	0x3c8272e0	0.015923917
80	0xbc1b0804	-0.00946236
81	0xbc2b83df	-0.010468452
82	0xbd80ac9c	-0.062829226
83	0x3b812b16	0.003941904
84	0x3cf2fd0d	0.02966168
85	0x3c2d1821	0.010564835
86	0x3cbb83ee	0.022890057
87	0x3cd1cffd	0.025611872
88	0xbc9af425	-0.018915245
89	0x3ccc35e5	0.024928043
90	0xbd164669	-0.036688242
91	0xbd5e1a00	-0.054224014
92	0xbd4b822d	-0.049684692
93	0xbc1dc360	-0.009629101
94	0xbc9efe2a	-0.019408304
95	0x3c80cdad	0.015723074
96	0xbc386637	-0.011254839
97	0x3cd09efc	0.025466435
98	0x3cb8585b	0.022503069
99	0x3c6105bb	0.013734276
100	0x39015b66	0.00012336447
101	0x3d117015	0.03550728
102	0xbbb337be	-0.0054692915
103	0xbbbc8fe8	-0.0057544596
104	0xbd1a18f1	-0.037621442
105	0xbdbf75ba	-0.093486264
106	0xbd3edc21	-0.04659665
107	0x3c9384cf	0.018007664
108	0xbc203b90	-0.009779826
109	0xbd3463fe	-0.044040672
110	0x3c201962	0.009771677
111	0xbd251427	-0.040302422
112	0xbc84ae03	-0.016196257
113	0xbd0f02be	-0.034914725
114	0x3b08dfb2	0.0020885286
115	0xbdb0ee63	-0.08639219
116	0xbda33dc2	-0.07970764
117	0x3d1f4d51	0.038892094
118	0xbd732588	-0.059361964
119	0xbdbdb485	-0.09262947
120	0xbcbada49	-0.022809165
121	0xbc90bad5	-0.017667213
122	0xbd01e97e	-0.031716816
123	0xbc23e22e	-0.010002656
124	0x3c309ccd	0.010779572
125	0xbd6952b0	-0.056963623
126	0x3af21eed	0.0018472351
127	0xbc0fce38	-0.008777194
128	0xbca52989	-0.020161407
129	0x3ce6b857	0.028164072
130	0x3d395568	0.045247465
131	0xbd57a0e2	-0.052643664
132	0x3d0fceba	0.03510926
133	0x3c94a643	0.018145686
134	0x3c6c6afc	0.014429804
135	0xbdb5739b	-0.088599406
136	0xbc8db6eb	-0.017299136
137	0x3c988a27	0.018620564
138	0x3cc84600	0.024447441
139	0xbc9aa1bd	-0.018875951
140	0xb9380ad0	-0.00017551635
141	0x3d42d8fb	0.04757021
142	0x3d9d0457	0.076668434
143	0xbd94f289	-0.072728224
144	0xbcd94301	-0.026521208
145	0xbbcc39ec	-0.0062324908
146	0xbd4b31ce	-0.049608044
147	0x3c85fe1b	0.016356518
148	0xbdd60622	-0.104503885
149	0xbd56c575	-0.052434403
150	0x3d046777	0.032325234
151	0x3c866b10	0.016408473
152	0x3d5dedd2	0.05418188
153	0xbda4580a	-0.080246046
154	0xbbadfeb4	-0.005309904
155	0xbcb677b0	-0.022273868
156	0xbcd884be	-0.026430484
157	0x3d1ca3d3	0.038242172
158	0x3c9f7725	0.019465992
159	0x3d2d52c8	0.042315274
160	0xbc0159b8	-0.007894926
161	0xbdaa03e0	-0.0830152
162	0x3c20b0d6	0.009807786
163	0x3b047b82	0.0020215218
164	0xbc373481	-0.0111819515
165	0xba1146e7	-0.00055418763
166	0x3d482c34	0.04887028
167	0x3d5c303c	0.053756937
168	0x3c40c956	0.011766752
169	0x3c7851bb	0.015156205
170	0x3ce21175	0.027596215
171	0x3cccf73a	0.02502023
172	0xbd5cd231	-0.05391139
173	0xbbd7a948	-0.006581459
174	0x3d36c7d6	0.044624172
175	0x3c8f8cb4	0.017523147
176	0xbda317c5	-0.07963518
177	0xbd385c61	-0.045009974
178	0x3ca9fcce	0.02075043
179	0x3cd6407a	0.026153792
180	0x3c5591d6	0.013035258
181	0x3c4af2e7	0.012387014
182	0x3d537fac	0.05163543
183	0x3bf15437	0.0073647755
184	0x3cab5470	0.020914286
185	0x3d69c247	0.057070043
186	0x3cd36e14	0.025809325
187	0x3b43bf6f	0.0029868742
188	0x3c1977be	0.009366928
189	0xbcc192a2	-0.02362949
190	0x3a9fd487	0.0012194075
191	0xbb2579bd	-0.0025249564
192	0x3c5f84ac	0.013642471
193	0x3ad5da8a	0.001631574
194	0x3c3bc7e0	0.011461228
195	0xbd62a615	-0.05533417
196	0xbbab161d	-0.005221142
197	0xbd747900	-0.059685707
198	0xbd2190ae	-0.039444618
199	0x3bccf6c1	0.0062550013
200	0xbce7875a	-0.028262783
201	0xbc445249	-0.011982509
202	0xbdbe01c3	-0.0927768
203	0xbb8c8c2d	-0.004289171
204	0x3c842ed3	0.016135609
205	0xbc987df3	-0.018614745
206	0x3cb997ef	0.022655455
207	0x3a8bb7b8	0.0010659611
208	0x3cdef45e	0.027216133
209	0x3d02fae9	0.031977568
210	0xbcd801b5	-0.026368001
211	0x3b0effeb	0.002182002
212	0x3bd9f4e2	0.0066515068
213	0x3cda0914	0.026615657
214	0xbd4eabe2	-0.05045689
215	0x3cf7e92e	0.030262556
216	0xbd2b238e	-0.041781954
217	0x3cf76391	0.030198844
218	0xbd829001	-0.06375123
219	0x3c9462a0	0.018113434
220	0x3d0fa66e	0.03507083
221	0xbcf93699	-0.030421542
222	0x3d8712be	0.06595372
223	0xbc0b93f9	-0.008519166
224	0x3cde6f6d	0.027152741
225	0xbc04ac68	-0.0080977455
226	0xbdd3afde	-0.103362784
227	0xbda38793	-0.07984843
228	0x3c68755f	0.01418814
229	0x3c1dd357	0.009632907
230	0x3d4915b2	0.049092956
231	0x3bcdec08	0.0062842406
232	0x3d076cb1	0.03306264
233	0x3da1a924	0.07893589
234	0x3c88e2b6	0.016709667
235	0x3d1a3ac8	0.037653714
236	0xbd0a42a0	-0.033754945
237	0x3d3185fe	0.043340676
238	0x3ce26a70	0.027638644
239	0x3c803c64	0.015653796
240	0x3c455842	0.012044968
241	0x3cd24ee7	0.02567239
242	0xbcf40c37	-0.02979098
243	0x3d3651d4	0.04451163
244	0x3d256a06	0.040384315
245	0xbc9c718f	-0.019097118
246	0x3ce522b7	0.027970655
247	0x3ccd4256	0.025056046
248	0x3d9fc237	0.078007154
249	0xbcf96fac	-0.030448757
250	0xbd20f02e	-0.039291553
251	0xbb53b4a6	-0.003230372
252	0xbd4c82c0	-0.04992938
253	0x3c74769c	0.014920857
254	0x3be075d1	0.0068499823
255	0xbcb95a37	-0.022626026

action_model._discrete_distribution.branches.1.bias f4 [3]
0	0xbc72872f	-0.014802738
1	0x3c1a44a1	0.0094157765
2	0x3b875722	0.00413026

exp_avg f4 [128, 7]
0	0xb9f8caab	-0.00047453245
1	0xb8c582a2	-9.418024e-05
2	0x3a96e190	0.0011511315
3	0xba3ee727	-0.0007282369
4	0xb8f74865	-0.00011791362
5	0x3abad833	0.0014255106
6	0xb9696b5e	-0.00022260609
7	0x3a9cb829	0.001195674
8	0x3866d861	5.503779e-05
9	0x391ce78f	0.00014963582
10	0x3a477482	0.00076086086
11	0x38908256	6.890732e-05
12	0xb9450c52	-0.00018791974
13	0x3a6dfa31	0.0009078114
14	0xbb3105f4	-0.0027011605
15	0xb9beee31	-0.0003641709
16	0xbac72008	-0.0015192041
17	0xba4ed953	-0.000789066
18	0xb9ef0b7f	-0.00045594198
19	0x3b2cc1e0	0.0026360676
20	0xbb8fccec	-0.0043884423
21	0xbb40e507	-0.0029433386
22	0x38ccc595	9.7642805e-05
23	0xba40a7ce	-0.00073492236
24	0xbb4b933f	-0.0031063107
25	0x39002fe9	0.00012224879
26	0xbac75d85	-0.0015210366
27	0x3a930ebe	0.0011219603
28	0xb9c34b7a	-0.00037249533
29	0xb7bf0bb2	-2.277442e-05
30	0x3aa55d3b	0.0012616286
31	0xb8d57cbe	-0.000101798665
32	0xb7ef3068	-2.8513561e-05
33	0x3a9f9a64	0.0012176749
34	0xb9859e5b	-0.0002548572
35	0x3a77f66c	0.0009459022
36	0xb45dcc1b	-2.0656482e-07
37	0x3acc16c8	0.0015570754
38	0x3a5b037c	0.0008354706
39	0xb48ad904	-2.5862403e-07
40	0x3ae65c53	0.0017575122
41	0xba63496c	-0.00086703035
42	0xbb38d8ab	-0.0028205316
43	0x39e10f59	0.0004292678
44	0x3bb7c092	0.005607673
45	0xbaa53b8c	-0.0012606247
46	0x3a0ce334	0.0005374432
47	0x3b66c6ff	0.0035213826
48	0x3b642883	0.0034814186
49	0xb8f9d4c3	-0.00011912875
50	0x394faaf7	0.00019804748
51	0xbbb7ad27	-0.005605358
52	0xbb0fbd5b	-0.0021932933
53	0x39820008	0.00024795556
54	0xbbcd080f	-0.006257064
55	0x3ab4ca99	0.0013793289
56	0x39ea8606	0.00044731813
57	0xb857ee59	-5.1481973e-05
58	0x3ac1ba27	0.0014780209
59	0xb8718385	-5.7581365e-05
60	0xb8872c3d	-6.445542e-05
61	0x3a2f8259	0.00066951435
62	0xb9d24fcd	-0.00040113778
63	0x3ad5322a	0.001626556
64	0xb935f0e0	-0.00017351238
65	0xbba044a0	-0.0048909932
66	0xba628c10	-0.0008642087
67	0xb963ca35	-0.00021723735
68	0xbb9675d4	-0.004591683
69	0xba87b9d3	-0.0010355063
70	0x3b330895	0.0027318348
71	0x3986f045	0.00025737486
72	0xba27bf19	-0.000639902
73	0x3b1643cc	0.0022928594
74	0x39a8f16d	0.00032223333
75	0xbac57204	-0.0015063887
76	0x3b089e0b	0.0020846154
77	0xbaa772b0	-0.0012775268
78	0x394bc99b	0.00019434693
79	0x3c2b7280	0.010464311
80	0x3a9ca1b5	0.0011950048
81	0x397f244f	0.00024332221
82	0x3c192b7f	0.009348749
83	0x3a893a1f	0.0010469592
84	0x3a238512	0.00062377856
85	0xb87c1038	-6.0096587e-05
86	0xba9342fa	-0.001123517
87	0x39b8a7a6	0.00035220123
88	0xb89dcaa9	-7.524092e-05
89	0xba652a9f	-0.0008742008
90	0xb926e5b0	-0.00015916559
91	0xb994ade9	-0.00028358333
92	0xb88336c5	-6.2567684e-05
93	0x3aa13462	0.0012298936
94	0xba17a98a	-0.0005785456
95	0xb8a447a4	-7.8334735e-05
96	0x3ab9237b	0.0014124954
97	0xb7cb09d7	-2.4204068e-05
98	0x3a19ac77	0.0005862186
99	0x391266f9	0.00013962005
100	0x3a8e5002	0.0010857584
101	0x3a0bab74	0.00053279777
102	0x39374bab	0.00017480429
103	0x3a429d2d	0.0007423934
104	0x3a89c5c0	0.0010511205
105	0xbacbfd3c	-0.0015563141
106	0xb9667162	-0.00021976748
107	0xb97f7c89	-0.00024365088
108	0xbae67668	-0.0017582895
109	0xb99041dc	-0.0002751489
110	0xba39f5d3	-0.00070938206
111	0xba6746f3	-0.0008822523
112	0xbb2a7821	-0.0026011544
113	0x39757d14	0.00023411616
114	0x3af54012	0.0018711111
115	0xbaf68199	-0.0018806934
116	0x3999ad05	0.00029311344
117	0x3a33d47d	0.00068599713
118	0x3b08d2a6	0.002087751
119	0x3aa5d8e3	0.0012653138
120	0xb9b04c73	-0.00033626295
121	0x3b2b20c8	0.0026112068
122	0x3ab4cdb0	0.001379421
123	0xb9dcb9d1	-0.00042100114
124	0x3b8a6854	0.0042238627
125	0xbb647635	-0.0034860496
126	0x3b00db99	0.001966214
127	0x38c579ff	9.4164156e-05
128	0x3afc49e2	0.0019248093
129	0x3af2b896	0.0018518146
130	0x38f73d99	0.00011789351
131	0x3aebe129	0.001799618
132	0x39c982aa	0.0003843506
133	0x3ac5b344	0.0015083333
134	0xb9313cbf	-0.00016902665
135	0xb82b5043	-4.0844327e-05
136	0x3ac7b609	0.0015236746
137	0xb95de6ae	-0.00021162137
138	0x38f45707	0.00011651037
139	0xbae1c573	-0.0017224982
140	0x3a166e45	0.00057384773
141	0xb733c192	-1.07143005e-05
142	0x3aa2e4aa	0.0012427766
143	0x39b9d62c	0.0003544552
144	0xb7610e1e	-1.3414332e-05
145	0x3a995a91	0.0011699965
146	0xb998c607	-0.0002913924
147	0xbb124654	-0.002231975
148	0x38b191ed	8.4671985e-05
149	0xbb9eb084	-0.0048428196
150	0xbb04a20a	-0.0020238184
151	0x38de5153	0.00010600933
152	0xbb44339f	-0.0029937995
153	0xb9cff2f7	-0.0003966314
154	0x3a14853f	0.0005665607
155	0xba005dc3	-0.0004896784
156	0xbba3f239	-0.0050032404
157	0xb910fb66	-0.00013826563
158	0xba20b6ee	-0.0006130774
159	0xbb22ce4a	-0.0024842196
160	0xbb6df0e3	-0.003630691
161	0x3b4ba688	0.0031074602
162	0xb964c2ab	-0.00021816294
163	0x3b56a0d9	0.0032749681
164	0x3b076cc6	0.00206642
165	0xb98f3439	-0.00027313994
166	0x3b2f338e	0.002673361
167	0xbae5621f	-0.0017500556
168	0xb9da75be	-0.00041667925
169	0x3931f7ed	0.00016972395
170	0x39c9df74	0.00038504193
171	0xbad14b1d	-0.001596782
172	0x395ed104	0.00021249434
173	0xb9c14297	-0.00036861442
174	0x3afa2acc	0.0019086241
175	0xb8ac6e2b	-8.2221195e-05
176	0xb924f74f	-0.00015732388
177	0x3ad9e246	0.0016623221
178	0xb9b120f1	-0.00033784614
179	0xb94e899a	-0.00019696951
180	0x3aec89c7	0.0018046432
181	0xba985611	-0.001162233
182	0xbafa3b0d	-0.0019091085
183	0x38debad6	0.00010620586
184	0x3b510ac5	0.0031897288
185	0xba2dd9d3	-0.00066318846
186	0x390b6dc8	0.0001329697
187	0x3b73c2b0	0.00371949
188	0xb99763b2	-0.00028875243
189	0xbabe7f05	-0.0014533704
190	0x399347a4	0.000280914
191	0x3bfcf597	0.0077197063
192	0xba76efef	-0.0009419908
193	0x39b864f4	0.0003517043
194	0x3b984023	0.0046463176
195	0x3b4212b8	0.0029613208
196	0x3abb2a6e	0.0014279613
197	0x387fe62b	6.10111e-05
198	0x3a128a55	0.0005590071
199	0x3a91c029	0.001111989
200	0x38a03160	7.638591e-05
201	0x38d1df47	0.00010007485
202	0x3a29332f	0.00064544653
203	0xbab59940	-0.0013854876
204	0xb91e7d7c	-0.00015114801
205	0x3b0e4a9d	0.0021711953
206	0xbab2a9c6	-0.0013630919
207	0xb9466e01	-0.00018923731
208	0x3b1fd574	0.0024388703
209	0xb9d1c7e7	-0.00040012525
210	0xbb3c1aca	-0.002870249
211	0xb81b04c0	-3.6959304e-05
212	0xb9fbf9fd	-0.00048060706
213	0xbb146aae	-0.0022646594
214	0xb842157e	-4.627322e-05
215	0x3a5b945a	0.0008376293
216	0xb96bdb77	-0.00022493103
217	0x39f2244c	0.0004618488
218	0x391bbd0b	0.00014852376
219	0xbb0d9bcd	-0.0021607757
220	0xb94ec62c	-0.00019719516
221	0x3942fc0b	0.00018595175
222	0xbb67b9e8	-0.0035358611
223	0x3aa16684	0.0012313877
224	0xbb5d4602	-0.0033763652
225	0x39f52145	0.0004675483
226	0x3c2112e6	0.009831166
227	0xbb030cab	-0.0019996564
228	0x3a197389	0.0005853703
229	0x3bbccae0	0.0057614893
230	0x3ba164fc	0.0049253684
231	0xb913560d	-0.00014051069
232	0xb8c7bac9	-9.523851e-05
233	0xba92615d	-0.0011167933
234	0xb925febc	-0.00015830522
235	0xb8fa0fc1	-0.00011923863
236	0xba5bff7f	-0.0008392259
237	0x3774921b	1.4577551e-05
238	0x3a0b7149	0.000531931
239	0x3820edc6	3.8368416e-05
240	0xb98695dd	-0.00025670129
241	0x3a22a424	0.00062042684
242	0x38497b9a	4.8037247e-05
243	0xb96b8205	-0.00022459782
244	0x39cdf982	0.00039286545
245	0xbac22c89	-0.0014814298
246	0xb7765c69	-1.46842585e-05
247	0x3aa0b00e	0.00122595
248	0xbad3e596	-0.0016166444
249	0xb79a38a4	-1.8384606e-05
250	0x374bc453	1.2145453e-05
251	0x3a0c9de7	0.00053641055
252	0x3b437023	0.0029821477
253	0xb8f00ec7	-0.00011446844
254	0xbb15f69a	-0.0022882582
255	0x3ad3eb8f	0.0016168224

exp_avg_sq f4 [128, 7]
0	0x38c3f6ff	9.344331e-05
1	0x358c20ac	1.0440322e-06
2	0x39067ef7	0.00012826534
3	0x38b85088	8.788804e-05
4	0x35dba687	1.6365237e-06
5	0x392b87d3	0.0001635843
6	0x37cb397c	2.4226254e-05
7	0x381996b1	3.6618385e-05
8	0x35256121	6.160863e-07
9	0x381fb33a	3.8075472e-05
10	0x3828abe5	4.021441e-05
11	0x35819dd6	9.657185e-07
12	0x380d9389	3.3754422e-05
13	0x374c2b6c	1.21694575e-05
14	0x396acb80	0.00022391789
15	0x3678f3a2	3.7096693e-06
16	0x399c60d1	0.00029826773
17	0x39519631	0.00019987744
18	0x36c31dac	5.814907e-06
19	0x39ba71bd	0.00035561426
20	0x39755573	0.00023396853
21	0x39956855	0.00028497228
22	0x3632be4e	2.6634839e-06
23	0x394f2708	0.00019755599
24	0x39858e50	0.00025473768
25	0x368c1730	4.1750245e-06
26	0x39733d86	0.00023197205
27	0x39195fab	0.00014626856
28	0x37597f64	1.2963868e-05
29	0x34628789	2.1097198e-07
30	0x3770d69c	1.4355082e-05
31	0x378270ac	1.5549675e-05
32	0x34b18afc	3.3069944e-07
33	0x37bbdba6	2.2394419e-05
34	0x37409103	1.1477855e-05
35	0x38f69b7d	0.00011759156
36	0x35925726	1.0903211e-06
37	0x389ac3e7	7.379782e-05
38	0x38d5c40f	0.0001019315
39	0x35e563bd	1.7090857e-06
40	0x389acf19	7.381867e-05
41	0x384112ea	4.60324e-05
42	0x392de8e5	0.00016585326
43	0x35d5dc17	1.5933791e-06
44	0x3904e4ed	0.00012673782
45	0x3901af4e	0.00012367705
46	0x36279cf0	2.4976289e-06
47	0x38aba1bb	8.18404e-05
48	0x386ea63d	5.6898443e-05
49	0x3a09fd61	0.00052638917
50	0x36bc3e79	5.6101094e-06
51	0x39df08b8	0.0004254037
52	0x39f44d61	0.00046596958
53	0x3713895f	8.793867e-06
54	0x39b6e764	0.00034886145
55	0x39aeea43	0.00033362405
56	0x380d92fb	3.3753906e-05
57	0x34d71069	4.005881e-07
58	0x37f4a103	2.9162044e-05
59	0x37e476ec	2.7235095e-05
60	0x35288e82	6.2792253e-07
61	0x37ff4515	3.0430538e-05
62	0x3806c319	3.212979e-05
63	0x39f57269	0.00046815284
64	0x369ad192	4.613955e-06
65	0x39c7b565	0.00038091387
66	0x39e5d56a	0.0004383729
67	0x36f2adc9	7.2323933e-06
68	0x39da3052	0.00041616202
69	0x39870f31	0.00025760525
70	0x397745e6	0.00023581795
71	0x364ac838	3.0216888e-06
72	0x39709476	0.0002294349
73	0x39516484	0.00019969238
74	0x369eee4d	4.736509e-06
75	0x39aae64f	0.0003259652
76	0x394ffc91	0.00019835147
77	0x3a6ff98b	0.0009154311
78	0x3702ba5a	7.791992e-06
79	0x3a1f16a6	0.00060687435
80	0x3a3b6a17	0.00071492925
81	0x374ceaa4	1.2213979e-05
82	0x39fc43b9	0.00048115643
83	0x399ef42b	0.00030318028
84	0x37d9d05c	2.596544e-05
85	0x34ea4a37	4.3639895e-07
86	0x38499381	4.8059508e-05
87	0x37b4de29	2.1561124e-05
88	0x3537a010	6.8405734e-07
89	0x38099785	3.280446e-05
90	0x378933f2	1.6355862e-05
91	0x3797ce0f	1.8096556e-05
92	0x348e0340	2.6451926e-07
93	0x37d87466	2.5803409e-05
94	0x37938751	1.7586777e-05
95	0x34de9af2	4.146346e-07
96	0x381dee8b	3.7653877e-05
97	0x37613f15	1.34257325e-05
98	0x37c41671	2.337547e-05
99	0x34c0c821	3.59084e-07
100	0x37f6f446	2.9439234e-05
101	0x37a5c681	1.9761968e-05
102	0x351717ce	5.6286524e-07
103	0x37c0d371	2.2986644e-05
104	0x377de339	1.51328795e-05
105	0x391ee825	0.00015154535
106	0x360daa74	2.1109854e-06
107	0x395ffc25	0.00021360868
108	0x39106fbe	0.00013774537
109	0x365e0fe7	3.3089834e-06
110	0x39821fcb	0.0002481922
111	0x390ba439	0.0001331725
112	0x394e1c62	0.00019656264
113	0x35e40144	1.6987692e-06
114	0x391b3253	0.00014800699
115	0x39249973	0.00015697423
116	0x3632b310	2.6628295e-06
117	0x39046ae1	0.00012628316
118	0x38f097d8	0.00011472375
119	0x3a2cb81e	0.0006588715
120	0x36d69e18	6.3961015e-06
121	0x3a1b1e75	0.0005917319
122	0x3a1bcf82	0.0005943702
123	0x372834f4	1.0025909e-05
124	0x3a17436c	0.00057702395
125	0x3977afce	0.00023621248
126	0x392ddaa4	0.00016580016
127	0x35e263a4	1.6867311e-06
128	0x38d1f004	0.00010010603
129	0x39093fa1	0.00013089042
130	0x36316eda	2.643958e-06
131	0x38ec0975	0.000112551184
132	0x386d2bf2	5.654613e-05
133	0x38ed5aa9	0.000113179274
134	0x35a6cbb2	1.2427247e-06
135	0x3909f7c3	0.00013157637
136	0x38ca2a9e	9.640049e-05
137	0x3602ba07	1.9479792e-06
138	0x390cd6a6	0.00013431403
139	0x38a4c661	7.85708e-05
140	0x3915e7ac	0.00014296052
141	0x35d4e1b4	1.5860919e-06
142	0x3935c02b	0.00017333093
143	0x390e9d31	0.00013600734
144	0x3626d8ab	2.4862045e-06
145	0x3952e122	0.00020111029
146	0x38733337	5.7983412e-05
147	0x39cddbb7	0.00039264347
148	0x364a5b1b	3.0153376e-06
149	0x395daa97	0.00021139752
150	0x39b881da	0.00035191962
151	0x369e98cb	4.7265544e-06
152	0x392c5b13	0.00016437126
153	0x38d209ee	0.0001001543
154	0x38d755cf	0.00010267982
155	0x36082956	2.028964e-06
156	0x3946c148	0.00018954754
157	0x38cb54a2	9.6955584e-05
158	0x36556eed	3.180404e-06
159	0x38fef608	0.00012157491
160	0x38c10848	9.2045e-05
161	0x3a256a59	0.00063100975
162	0x369493e2	4.4279595e-06
163	0x39b02c13	0.00033602174
164	0x3a167952	0.0005740124
165	0x36e8e558	6.940838e-06
166	0x398be5b4	0.00026683288
167	0x38f59ce7	0.00011711736
168	0x38e669a6	0.00010986933
169	0x35e500c2	1.706205e-06
170	0x396688c0	0.00021985453
171	0x38d81592	0.000103037004
172	0x36337b3c	2.674481e-06
173	0x397c11b4	0.00024039188
174	0x3891c591	6.9509384e-05
175	0x38c74f28	9.5038034e-05
176	0x3591d6c7	1.086585e-06
177	0x38c6cb0c	9.479196e-05
178	0x38b50292	8.631231e-05
179	0x35e49a63	1.7032256e-06
180	0x38ec6005	0.00011271242
181	0x3850b35e	4.9758113e-05
182	0x394a43d5	0.0001928949
183	0x3614fc84	2.2200702e-06
184	0x391d3c1f	0.00014995084
185	0x39277ccc	0.00015972852
186	0x36698978	3.4799723e-06
187	0x38ff620a	0.00012177609
188	0x39156ade	0.00014249558
189	0x3a2e6275	0.00066522445
190	0x36b68b3f	5.440233e-06
191	0x39d43ab1	0.0004047952
192	0x3a017f9e	0.0004939976
193	0x370f11af	8.5275815e-06
194	0x3985e15f	0.0002553565
195	0x393dcfe2	0.00018101887
196	0x388e46a3	6.784245e-05
197	0x35698cbe	8.700407e-07
198	0x387bd5b2	6.0042083e-05
199	0x38761fa7	5.868045e-05
200	0x35b70b90	1.3637928e-06
201	0x38a0b442	7.66297e-05
202	0x385bf4f2	5.2441792e-05
203	0x383d3216	4.5107758e-05
204	0x355dfb41	8.269454e-07
205	0x38ead12b	0.0001119695
206	0x38431a98	4.651639e-05
207	0x35adfa7c	1.2962405e-06
208	0x392187b9	0.00015404717
209	0x37bff311	2.2882161e-05
210	0x38ec1fdd	0.00011259292
211	0x35ef9749	1.7850917e-06
212	0x38e4d66c	0.000109118264
213	0x38f13c35	0.0001150299
214	0x363bc7a8	2.7981387e-06
215	0x38ee4c77	0.00011362967
216	0x38af53ca	8.360257e-05
217	0x390010a7	0.00012213235
218	0x35d0b8f8	1.5551041e-06
219	0x3920af0b	0.00015323998
220	0x38e5e225	0.000109616936
221	0x36239628	2.4376295e-06
222	0x394ebc61	0.00019715868
223	0x389e24ec	7.540904e-05
224	0x3a51aea4	0.0007998741
225	0x36cb32a6	6.0557677e-06
226	0x39c9a7ad	0.00038462636
227	0x3a21ad2e	0.00061674684
228	0x371f41ba	9.492442e-06
229	0x39915eec	0.00027727277
230	0x3958a536	0.00020660911
231	0x3821d839	3.8586764e-05
232	0x3530481c	6.567004e-07
233	0x38af56c4	8.3608116e-05
234	0x37e8cc91	2.7751814e-05
235	0x358a2946	1.0293813e-06
236	0x3863de43	5.4328015e-05
237	0x379b6f85	1.852937e-05
238	0x37bae2ee	2.22786e-05
239	0x34f16efb	4.4970497e-07
240	0x381fda75	3.8112008e-05
241	0x37ca22c2	2.4096462e-05
242	0x353d394d	7.049137e-07
243	0x380e3569	3.390518e-05
244	0x3781f823	1.5493546e-05
245	0x38a1775a	7.699309e-05
246	0x358256a5	9.710972e-07
247	0x39046b01	0.00012628363
248	0x3891b343	6.947529e-05
249	0x35cc4e45	1.5221964e-06
250	0x3919377d	0.00014611888
251	0x3820642e	3.8240272e-05
252	0x38b5513d	8.6458844e-05
253	0x359e118d	1.1777025e-06
254	0x38e3e1d3	0.000108662665
255	0x388aede6	6.624665e-05
