ml-agents-docker/home/src/learn/results/AgentBehavior/AgentBehavior-26112.pt (torch, 447506 bytes, 40 tensors)

discrete_act_size_vector f4 [1, 2]
00000000: 0000 4040 0000 4040
3.0 3.0

network_body._body_endoder.seq_layers.0.weight f4 [128, 7]
00000000: ed70 d2bb d027 babe 5b44 203f eca1 e3be
00000010: 555a 10bf 7e4e 503e a90b ddbe d315 b83d
00000020: ccc9 dc3e 6dbf 1f3e 7e6a b2be f556 c63e
00000030: 114c bdbe 3210 99be ec82 053f 6aba f5bd
00000040: 8c3c c33e 86ca 7f3e f253 3d3f 9f2e 03be
00000050: 8470 bebe 1188 0fbe 6c29 c63b 80e3 453c
00000060: 98ec b83d d595 dabe 9dff c9be efd6 d9bd
00000070: e219 113f c257 febe e938 8cbd f98a 6b3e
00000080: d1df b0be e147 bc3d ac64 5f3e 1647 9a3e
00000090: 36a8 7b3e fb17 1d3f a239 a4bd a884 f93d
000000a0: 2cc2 8ebe 26b7 4d3f d8d9 9e3b ab89 37bb
000000b0: 07b9 a7be 20c5 40be 7bd4 ab3e a7c4 47bd
000000c0: f664 8cbe 873a 99be 1453 38be b0ed 40bf
000000d0: 2e88 6dbe 4d71 88bc a0d2 dd3e 5ce0 f9be
000000e0: ebc0 b7be 69e5 9abe 9436 f8be 3569 813e
000000f0: b2aa 6bbe e603 88be f585 9cbd 3f30 72be
00000100: 7a41 273e dcd6 87be 136f f43e 1d31 47bd
00000110: c3e8 1a3e 2beb db3d 3f65 d4be eb0e 143f
00000120: 1905 ac3e 4973 cabe 00ff d2bc 02cf 88bd
00000130: 3174 e8bd dfd5 bebe e14b 02be 26fe 05be
00000140: d8ba d5bd 030b d13e cb74 02bf 691a 7bbe
00000150: f596 f03d fbf1 2bbe 011d 58bd 22a2 5cbd
00000160: 9c17 083f 4287 d9be 1346 5e3e fb69 b13e
00000170: c603 d03e de50 583e 6243 50be 8f6d cfbe
00000180: 3a27 23be ac12 0b3e 6983 1e3f e01d cc3e
00000190: e5e5 0ebf 60ef 68bd 538b 1abd 1dd6 973e
000001a0: d59b 0cbf a0a5 803d 9a80 9f3e 5313 203f
000001b0: 1060 9a3d 2d88 15be 2dff 2e3f eb67 0dbd
000001c0: 1afd cdbe 4632 4d3c 6db1 8d3e 46b3 b3be
000001d0: 6359 9a3e 60e2 3bbe 47e2 0e3f 5a62 95be
000001e0: 26af 823d f197 db3e 5de9 513e c5c5 313f
000001f0: 0ecd abbe 42e3 f13e da82 e43d 9653 cc3e
00000200: c8db 543e a67b 48bf a952 2e3f 9dc9 5dbf
00000210: dc37 94bd 2706 8a3f 99bd cdbe 1985 213f
00000220: b9e7 88be 1186 49bc 2ff7 f0bd f84f c53e
00000230: e3ec 15bf bdca 44bd 7036 eebd 41cc 15be
00000240: 5444 073f 3c55 d7be 99da 82bf ae39 213f
00000250: 1d6d 983e fc69 ee3e 4a6a 12bd 7af3 7cbe
00000260: 0f1c 453c 9585 3abf 10a1 d53d ce90 05bd
00000270: 37a0 aa3e 323f 3ebe f33b a1be 5c30 fd3e
00000280: cffe 5cbd a704 00bf e137 143f 8578 81be
00000290: 8728 3fbe 1255 643e 03ae 393e 4e3b 11be
000002a0: b899 ed3e 03ae 01bf 65fb 3d3f 5972 0e3e
000002b0: d8e9 28bf 86bf 363f 8994 44be d0ef ca3e
000002c0: 962c 063e b3a9 cebc 0db6 223e 17b6 f5be
000002d0: aec5 d2be b939 483e 5cb6 e5bd 4640 72bf
000002e0: 9dd6 02bf 0e81 77bc 6904 07be 1605 903e
000002f0: 7427 a73e f316 cebd 22dc bf3e 187c 0abe
00000300: 24a9 04bf da5c 763c b222 c53e 2746 873c
00000310: bcde cfbe dd7b b3be 228a b93e 0805 ed3e
00000320: 29c6 84be 04a0 053f f13d eb3d 6387 5cbe
00000330: d9fe bc3e 970d 733e 4354 553f 4e2a 87be
00000340: c8c3 3ebf 87e7 4a3e d9ff 4f3c ee61 a2be
00000350: 1564 fbbe f1b0 68be 65b0 81be 87d2 52bf
00000360: 5a37 ce3d 085f e5bd 86f6 893e 99e4 873d
00000370: ec2c 363d 4b94 e5be f91d e6be 9f3b 9c3e
00000380: 0076 093f b5b1 1d3e f899 383e d3b8 82bd
00000390: 55ec e1be cff2 6e3d 6e1b 0cbe 3fd3 333e
000003a0: cb36 2e3e 4856 91bc e9d1 40be 259b 9c3d
000003b0: b8bb 16bf cbd8 913e c9d3 d8be ccf4 153f
000003c0: 7a76 303e 35cd 8b3e 62c8 a23e 6756 8bbe
000003d0: c642 b13e 9274 38be 1d6c 91be 07b3 493e
000003e0: 15fd c7be 4838 a3be 3e43 bebe 408b 1f3f
000003f0: 311d 01be 61be 3f3e c9cc c7be 691a 483d
-0.006422153 -0.363585 0.626043 -0.44459474 -0.56387836 0.20342442 -0.43172958 0.08988538
0.4312271 0.15600367 -0.34846872 0.38738218 -0.36972097 -0.2989517 0.52152896 -0.11998446
0.3813213 0.249796 0.73956215 -0.12810753 -0.37195218 -0.14016749 0.0060474183 0.012078166
0.09029502 -0.42692438 -0.3945283 -0.106366985 0.5668012 -0.4967633 -0.06846792 0.23002233
-0.34545758 0.09193397 0.21815747 0.3013236 0.24575886 0.61364716 -0.08018805 0.12183505
-0.27882516 0.8035759 0.0048477463 -0.002800564 -0.32758352 -0.18825197 0.33560547 -0.048771527
-0.27420777 -0.29927465 -0.18000442 -0.7536268 -0.2319648 -0.016655589 0.43324757 -0.48803985
-0.35889372 -0.3025315 -0.4847914 0.2527558 -0.23014334 -0.26565474 -0.07642738 -0.23651217
0.16333571 -0.26531112 0.47740993 -0.048630822 0.15127854 0.10738214 -0.41483495 0.57835263
0.3359764 -0.3954108 -0.02575636 -0.066801086 -0.11350287 -0.37272546 -0.12724258 -0.13085231
-0.10436028 0.40828714 -0.5095946 -0.24521793 0.11747543 -0.16791527 -0.052762035 -0.05386556
0.53161025 -0.42486006 0.21706419 0.3465117 0.4062788 0.21124598 -0.20338205 -0.40513274
-0.15932932 0.13581342 0.61919266 0.39866543 -0.5581954 -0.05686891 -0.037730526 0.29655543
-0.5492528 0.062815905 0.31152803 0.62529486 0.07537854 -0.14602728 0.6835812 -0.034522932
-0.40232164 0.012524193 0.27674428 -0.35097712 0.30146322 -0.18348074 0.5581402 -0.291766
0.06381063 0.4288936 0.20499177 0.694424 -0.33554882 0.47243696 0.111577705 0.3990752
0.20786965 -0.7831367 0.6809488 -0.8663576 -0.07237217 1.0783128 -0.40183714 0.63093716
-0.2673929 -0.01230003 -0.117658965 0.38537574 -0.58564585 -0.04804491 -0.11631477 -0.14628698
0.52838635 -0.42057216 -1.0222961 0.6297864 0.29770747 0.46565235 -0.035745896 -0.24702254
0.0120306155 -0.7286008 0.10431111 -0.0326088 0.3332536 -0.18578795 -0.3149105 0.49450958
-0.053953942 -0.500071 0.57897764 -0.25287262 -0.18667804 0.22298077 0.18132786 -0.14182779
0.4640634 -0.50656146 0.7421172 0.13910808 -0.6598182 0.7138599 -0.19197287 0.39636087
0.13102946 -0.025227403 0.1588976 -0.47990486 -0.41166443 0.1955327 -0.11216423 -0.94629323
-0.51108724 -0.015106453 -0.13185276 0.2812888 0.32647288 -0.10062971 0.37472636 -0.135239
-0.5182059 0.015036786 0.38503033 0.016512943 -0.4059962 -0.35055438 0.362382 0.462929
-0.25932434 0.5219729 0.11486424 -0.21536021 0.36913183 0.23735653 0.833317 -0.26399463
-0.7451749 0.19814883 0.012695276 -0.3171534 -0.49099794 -0.22723748 -0.2532989 -0.8235249
0.10069151 -0.111997664 0.26945895 0.066353984 0.044476435 -0.448397 -0.44944742 0.30514237
0.5369568 0.15399821 0.18027484 -0.06382909 -0.4412562 0.05833703 -0.13682339 0.17561053
0.1701309 -0.017741337 -0.18830074 0.07646779 -0.58880186 0.28485712 -0.4234908 0.58576655
0.17232695 0.27304998 0.31793505 -0.27214357 0.34621257 -0.18013218 -0.28402796 0.196972
-0.39060274 -0.31878877 -0.37160677 0.62321854 -0.12608792 0.18724968 -0.39023426 0.04885331

network_body._body_endoder.seq_layers.0.bias f4 [128]
00000000: 5ba5 683d 84d2 6bbc e705 333c 1eb4 0abd
00000010: 4742 1e3b 2760 27bc 0526 803c d969 35bc
00000020: f3d6 22bd 1ac1 b2bc 0b09 37bc 6633 ec3c
00000030: dea0 95b8 085b a83b 80af e33c 4c99 4d3d
00000040: 1846 6fbd ae4e e3bc da94 9a3c 1cc2 80ba
00000050: 8132 10bc 87b4 c2bc fa3a 0f3d 796d fabb
00000060: 20d2 c83c 8d29 45bd 7d0c aabb 01ce 52bc
00000070: 9c32 783a 3bfe 333b 8a35 813c ad8b c3bb
00000080: b58a 05bc afa1 6ebc 42ab 56b9 74e4 03bd
00000090: d05d ca3c e36b 13bd f9fa e4bc 52c0 203c
000000a0: e1ff c7bb 1e96 38bc d10b c23c 425a 973b
000000b0: 863a ca3b 48bf 57bd f0d9 a73c fd74 51bc
000000c0: b362 25bd b53f 24bc 8481 d03b 67f4 0f3c
000000d0: 8d4f 8cbd 0f0a 0ebd df76 73bc e12d f6bc
000000e0: d6bf 01bd 7b75 54bc 05d3 8abd 6b18 c83c
000000f0: 6734 14bc cf8f c63c 37de 1fbd 2c9f 513b
00000100: 7060 5b3d b280 fc3b f522 d9bc ea65 a8bc
00000110: 4204 1f3c 11a1 b4bc f356 e9bc 66a5 a7bb
00000120: 0af8 63bd b992 96bc fcb1 403d 9803 563b
00000130: f8ba c3bc 5dd7 f03b 3260 14bc a599 59bd
00000140: 0000 4b3c 796c 593d 57f0 78bc 2eb8 b43b
00000150: 9a36 a5bc 8596 a2bb 4aff d8bb 38eb 58bd
00000160: 63aa 473b 5902 afbc 8045 2cbc bbbe 6fbc
00000170: cc00 5c3c 5995 eb3b 36d9 1ebd fb3c abbb
00000180: 20ed 06bd 4b27 a2bc bcfc b9ba edb9 4bb9
00000190: c071 a8bc 81b5 34bb 9143 b9bb 6a6a b63c
000001a0: d274 a0bc 588f a53c 2888 adbb a79e 05bd
000001b0: 5bbc 373c 82f9 ac3c 0661 36bd c163 00bd
000001c0: 28ea 3f3d 6f99 223b 10ca 64bd 1d37 08bd
000001d0: 4daf bb3c 6bb3 633b 8078 34bc f63c 343c
000001e0: 0563 413a 6e9a bcba 6030 cb3c af7f bd3b
000001f0: d982 693c c081 3fbc 9905 793b 1e54 903c
0.05679832 -0.014393453 0.0109267 -0.03386318 0.002414839 -0.010215796 0.01564313 -0.011072599
-0.039755773 -0.021820594 -0.01117159 0.028833102 -7.1348375e-05 0.005137805 0.027793646 0.050195023
-0.058416456 -0.027747478 0.018869806 -0.0009823474 -0.008801104 -0.023767723 0.034968354 -0.0076424447
0.024514258 -0.04813533 -0.005189477 -0.012866498 0.00094679906 0.0027464766 0.0157726 -0.0059675784
-0.008150746 -0.014564916 -0.00020472429 -0.03220029 0.024702936 -0.03599156 -0.027951704 0.009811478
-0.006103501 -0.0112662595 0.023687275 0.004618914 0.0061715273 -0.052672654 0.020489663 -0.01278424
-0.04037733 -0.010024955 0.0063630957 0.008786297 -0.068511106 -0.03467756 -0.014859884 -0.030051174
-0.03167709 -0.012967463 -0.0677853 0.024425706 -0.009045697 0.024238495 -0.03903028 0.0031985743
0.053558767 0.0077057714 -0.026505927 -0.020556409 0.009705605 -0.022049459 -0.028483843 -0.0051161526
-0.05565647 -0.01838051 0.04704474 0.003265595 -0.023892865 0.007349892 -0.009056138 -0.053125042
0.012390137 0.053081963 -0.01519402 0.00551512 -0.020167638 -0.004961791 -0.0066222297 -0.052958697
0.0030466549 -0.021363424 -0.010514617 -0.014632876 0.013427924 0.0071894345 -0.038781367 -0.0052257753
-0.032940984 -0.019794127 -0.0014189701 -0.00019428851 -0.020562053 -0.0027574005 -0.0056538065 0.022267539
-0.019586954 0.020209953 -0.005295772 -0.032622006 0.011214341 0.021115068 -0.044526123 -0.031345133
0.04685417 0.0024810692 -0.055856764 -0.033255685 0.022910738 0.0034744393 -0.011015058 0.011000862
0.0007377121 -0.0014389285 0.02480334 0.0057830433 0.014252388 -0.01168865 0.0037997721 0.017618235

network_body._body_endoder.seq_layers.2.weight f4 [128, 128]
00000000: 6d72 c73d 8316 8ebd 25ac 3fbe 75cf 14bd
00000010: b7a9 03bd f9bc 7c3a 2919 213e 10e6 ba3d
00000020: 4bce 3abc b13b 14bd f98b 6d3e b737 42be
00000030: a566 fd3d c9eb 983d 6b0c 71bd 9267 f0bc
00000040: 0360 ebbb 1a12 373d 425a e2bc 9393 993d
00000050: 58e3 2b3e 1436 f43c 3ba0 ad3b 81ba 57bd
00000060: 6e98 5dbd 574f 383d ca47 97bc fd0b 1abe
00000070: 99ae 333d c679 1f3d 1324 29bd b9bc 5cbe
00000080: 7865 3abd 4aa6 a6bd cac2 8f3d 9ca3 2bbd
00000090: 8c0a ebbd 56c3 37be 09e9 8cbb 6fdd f43b
000000a0: bbf2 573d f8be 86bd 3a9d fb3d 55c5 a53c
000000b0: 549f f03c 7bb1 65bd cf53 ec3c 1bf7 babd
000000c0: d8ba 40bc 4ca7 fb3d 9bc6 44bc dfcc 453e
000000d0: ca1b eabd 55ac 95bd 79e9 29ba c9e6 f4bc
000000e0: f834 403e 3221 d8bd 5172 0dbc baa5 7f3d
000000f0: b860 26bd 2ac7 af3d 539d bdbd 3127 bc3d
00000100: 8bab 063e 0894 2a3d 7270 a23c 1370 903d
00000110: d8b7 963d 1344 0e3d 3c47 353d c3b3 883c
00000120: a39b 693c 9a4a b2bb 17b2 bcbd 4ba5 563d
00000130: d301 a2bd e79c 41bd 2c36 283d 0104 7e3e
00000140: b131 1d3d adf1 a63d 801b 3d3c 6e0f 053e
00000150: 8a36 f8bb d398 95bd ed85 833e 698e 483d
00000160: d9c6 07be 657b 29bd e91c 43bd 2b95 06bd
00000170: 00c3 3fbd 0559 da3d 107d 283d 8777 073e
00000180: ec8e 6abe b296 32be 3be5 0fbe 217e 863c
00000190: d34a 9bbd c7d5 b6ba f3b1 afbd b499 a8bd
000001a0: 9c2e 3e3e 36aa 86bd 9f0b 563c b7d1 ef3d
000001b0: 7088 5a3c d85f c1bd 351d 163e 09ff de3c
000001c0: 9e19 9b3c 17d5 eebd e3a0 f13c 9e54 70bd
000001d0: 195c fb3c 27e6 9abd c819 0f3e 9177 703d
000001e0: 0954 c73d f829 58bc f698 43be 4a90 8f3d
000001f0: 5196 8d3d 25e6 d23d ef67 ddbd aab1 e8bd
00000200: 2723 70bc 847d d83c 2f22 c0bb bdec 9bbb
00000210: 6797 e3bd 778e 79bd bc9b 7e3d 1484 293d
00000220: b7a9 5f3c 1135 a8ba 86da d7bd 6545 02be
00000230: 25a8 833c 2de8 eabd 008a 9ebd 5915 29be
00000240: 6c8a 6a3d b0af 69bd 2fd0 fc3c a0c9 68be
00000250: f21c 31be f116 063d aca2 5e3d d8ab 8b3c
00000260: 27fd de3c 2601 263d 7da7 10bd 364c 433d
00000270: a777 eebd ad8a b3bd 30de 4f3d c8d0 cf3c
00000280: 4719 a43c b5fc 6dbd 06e8 963d 8104 aabd
00000290: 537c 623c f3a7 13bc ee9d b1bb 1d00 b33d
000002a0: 4eae cc3d 9686 803d c64d b93c 7920 d2bd
000002b0: 02f4 343d 3e1b fdbc be29 e4bb 7846 14be
000002c0: 39eb 3f3c 5b93 a9bd a21e 9b3d 0a73 4f3e
000002d0: ba02 f2bd b019 ca3d 063f cbbc de41 243d
000002e0: 8396 b6bd 25b7 20be e6d3 8dbc f351 b2bc
000002f0: 7dec 7e3d 1ed7 2dbe b6a1 8dbd cd25 1e3d
00000300: 4b4b 9f3d 518d 3cbd 124e 593d c46f 37bd
00000310: 9128 413d 848f 593d 4448 223d ce52 8dbd
00000320: 9aa2 14bc 9dfa a83d 6263 58be b31b e13c
00000330: 79d1 17bd 2f09 dcbd 2651 8d3d 1e33 30bd
00000340: 551e c1bd e823 ddbd 0b0d 383e 49f4 96bd
00000350: edef 27be e124 a3bb a27a 86bd 33d0 883d
00000360: 637e b13d 0599 1cbd ec2c cabd aa61 683d
00000370: fcb1 fa3d 3d99 473d 0f3d dabb fc71 403d
00000380: 2a64 1d3e e2d8 7ebd 770c 22be 9684 a3bd
00000390: 001a ab3d 0bc8 453c 6ffb 3ebe 3dff bebd
000003a0: 5b05 35bd 24e2 13be e1ef 033d dc29 97bd
000003b0: c6d4 15be de0e 2d3c 3458 23bd 43a0 3abe
000003c0: 189a 033d 0ca9 ecb9 cd56 a73d 6bcf d9bd
000003d0: 8e37 653d 7566 f03c 9cf9 963b 5e3f ca3b
000003e0: ae4f 0d3e c80a 1e3d eb5c fdbd 0a8e c7bd
000003f0: 9036 85bd acec 803d 1b17 bcbd 9faa f43d
0.09738622 -0.069378875 -0.18718012 -0.03633066 -0.032144275 0.0009641196 0.15732254 0.09125912
-0.011401723 -0.03618974 0.23197927 -0.18966566 0.123730935 0.074668474 -0.058849733 -0.029346261
-0.0071830763 0.044694997 -0.027630929 0.07498851 0.16785944 0.029810943 0.005298642 -0.0526681
-0.054100446 0.04499754 -0.018466849 -0.15043636 0.04386768 0.03893449 -0.04129417 -0.21556367
-0.045506924 -0.08137186 0.07019575 -0.041904077 -0.11476621 -0.17945608 -0.004300241 0.007472686
0.05272172 -0.06579393 0.12285848 0.020235697 0.029372849 -0.05607746 0.028848557 -0.09129163
-0.011763297 0.12287769 -0.012010242 0.19316433 -0.114310816 -0.0730826 -0.00064816285 -0.029895203
0.18770206 -0.105532065 -0.008633212 0.06241391 -0.040619582 0.085829094 -0.09258523 0.09187163
0.13151376 0.04164508 0.019829009 0.070526265 0.07359284 0.03473289 0.044257388 0.01668728
0.014258298 -0.005441022 -0.092136554 0.05240373 -0.07910504 -0.047268774 0.041067287 0.24806215
0.038377468 0.08151565 0.011542201 0.12994167 -0.007574861 -0.073045395 0.25688115 0.048963938
-0.13259448 -0.041377444 -0.047634993 -0.0328571 -0.046816826 0.106615104 0.041134894 0.1322919
-0.22906083 -0.17440298 -0.14052288 0.016417565 -0.07582631 -0.0013949209 -0.08578863 -0.082324415
0.18572468 -0.06575434 0.013064294 0.11709922 0.013338193 -0.09442109 0.14659579 0.02722122
0.018933114 -0.116617374 0.029495662 -0.058674447 0.030683564 -0.07563429 0.13974679 0.058707777
0.09732825 -0.0131936 -0.19101319 0.07009943 0.06913436 0.10297803 -0.108108394 -0.11362012
-0.0146568185 0.026427038 -0.00586345 -0.004758446 -0.11112862 -0.06092688 0.06216024 0.041385725
0.013651303 -0.0012833198 -0.10539727 -0.12721784 0.016071388 -0.11470065 -0.07741165 -0.1651205
0.057260916 -0.057052314 0.030860988 -0.22733164 -0.17296198 0.032736722 0.054354355 0.017049715
0.027220322 0.04052844 -0.03531598 0.047680102 -0.116439156 -0.08766685 0.050749004 0.02536811
0.020031584 -0.05810233 0.07368474 -0.0830164 0.0138235865 -0.00901221 -0.005420438 0.08740256
0.099941835 0.0627567 0.022620093 -0.102601 0.044178016 -0.03089678 -0.006962984 -0.14480007
0.011713796 -0.08280059 0.07574202 0.20258728 -0.11816926 0.09868181 -0.024810325 0.04010188
-0.089154266 -0.15694864 -0.017312955 -0.021767592 0.06223725 -0.16976592 -0.069156095 0.03861027
0.07778033 -0.046033207 0.05305297 -0.044784322 0.047157828 0.053115383 0.0396197 -0.06900559
-0.00907197 0.08250926 -0.21131662 0.027479028 -0.037065003 -0.10743939 0.069002435 -0.0430175
-0.094296135 -0.10797864 0.17973725 -0.073708124 -0.16400118 -0.0049787615 -0.06566359 0.06680336
0.086666845 -0.03823187 -0.098718494 0.056733765 0.12240979 0.048730124 -0.006660111 0.046983704
0.15370241 -0.062218554 -0.15825067 -0.07984273 0.083545685 0.01207162 -0.18650602 -0.093260266
-0.04419456 -0.14441735 0.03221119 -0.07381031 -0.14631948 0.010562627 -0.03987904 -0.18225197
0.032129377 -0.00045139377 0.08170853 -0.10635265 0.055961184 0.02934573 0.0046073925 0.0061721047
0.13799927 0.0385845 -0.12371238 -0.09743889 -0.065045476 0.062951416 -0.091840945 0.11946606

network_body._body_endoder.seq_layers.2.bias f4 [128]
00000000: 1f5c c6bb 4c73 54bc 108c a23c 7b74 eb39
00000010: 0c9a b9bb df63 3f3a 1620 13bd a14e 27bc
00000020: 7238 34bc bc48 a03c b432 bcbc c8c3 2dbd
00000030: d6c8 ebbc aba6 1dbc 381a 493b 053f d63b
00000040: dfc6 a8bc 5112 00bd 4cd8 b7bb b032 60b8
00000050: ff2f 4cbd 60f8 b33c b507 d2bc 8ce9 05bc
00000060: a45c c73c f445 913c f769 c23c 769c da3b
00000070: a6f4 6fbb b20b 8cbb 7a74 d8bc ae82 b9bc
00000080: 31b3 ecbc 1474 95bc d75a 0e3a 8bb0 83bc
00000090: 0d79 2cbd b45d c73c 375e 92bc d6e9 463c
000000a0: 6e03 a2bb 5ddd d7bb 176c 3c3a 3a18 65bc
000000b0: 6e0e 3cbd 5e46 50bc 7a07 2bbd c46d cbbc
000000c0: c775 f1bb d094 b83b ee7f 383c eff1 9fbc
000000d0: 95e3 a63c 1e43 3ebc 661e 283a 24ce 973c
000000e0: 3656 073c cdd9 2bbd ae3e d8bb e4d3 b8bc
000000f0: 2865 58bc f80a b13c c1dc b3bc 975a adbc
00000100: f748 8fbc d17a ec3b 63a1 f33b 4650 593c
00000110: 418f 4cbb fb39 963a 5a1b 75bd 8f04 3d3c
00000120: 94b8 8cbc 2405 4c3a 07ed d4bc 0e7c 0e3c
00000130: e274 813c 6c4f 58bd f377 36bc ccbe 45bc
00000140: 2d51 573c 8969 9abb 95c6 75bb 0200 ffba
00000150: 094a 04bd a024 4f3c 30b8 01bc 9e19 f8bc
00000160: a29b cbbb c368 5fbc 8baa 443c d489 54ba
00000170: 78bc b7bc a35b 14bd 53f9 d3bc 9dee 9d3b
00000180: a4cf 17bb ee9b cfba 0ff4 fdbc d7ae 9f3b
00000190: db78 0f3d 77ec b9bc 9098 7fbc dbce cfbc
000001a0: 9b99 6ebd 3abd 0fbd f43d aa3c 6008 46bc
000001b0: 6516 ba3a 8c76 51bd 54f8 d4bc 6b35 9fbc
000001c0: dc8c 17bc e259 95bb 042f 48bd 818a 94bc
000001d0: 4a10 033d e6f4 8a3a d880 953c 0f31 0c3b
000001e0: 10c3 8abc 716d 0cbd fe71 64bc 46be 663b
000001f0: 7c2b 15bd e364 633c 9c23 663c 1101 fdbb
-0.006053462 -0.012966942 0.019842178 0.00044909478 -0.005664116 0.0007300954 -0.03591927 -0.010211618
-0.010999786 0.019565932 -0.022973396 -0.04242304 -0.02878229 -0.009622256 0.0030685794 0.006538274
-0.020602642 -0.031267468 -0.0056105014 -5.3452968e-05 -0.04985046 0.02196902 -0.02563844 -0.008173358
0.024336167 0.017733552 0.023732169 0.0066714836 -0.0036614328 -0.004273855 -0.026422728 -0.02264532
-0.028894039 -0.018243827 0.00054304063 -0.016075393 -0.04210763 0.024336673 -0.01786719 0.012140712
-0.0049442565 -0.006587668 0.00071877375 -0.013982827 -0.0459122 -0.012712089 -0.041755177 -0.024832614
-0.0073687765 0.005632974 0.01126097 -0.019524543 0.020372191 -0.011612682 0.0006413221 0.018530913
0.0082603 -0.041955758 -0.006599269 -0.022561975 -0.013207711 0.021611676 -0.02195585 -0.02116136
-0.017490847 0.0072167893 0.0074350103 0.013263768 -0.0031213316 0.0011461371 -0.059840538 0.011536731
-0.017177857 0.00077827484 -0.02599193 0.008696569 0.015802804 -0.052810118 -0.011136997 -0.012069415
0.013141912 -0.004712288 -0.0037502397 -0.0019454958 -0.032297168 0.012643009 -0.007917449 -0.030285653
-0.0062136212 -0.013635817 0.012003551 -0.0008107696 -0.022428736 -0.036220204 -0.025875723 0.0048197047
-0.0023164535 -0.0015839317 -0.031000165 0.0048731375 0.035027366 -0.022695763 -0.015600339 -0.025367191
-0.05825196 -0.03509257 0.020781495 -0.012086958 0.0014197348 -0.051138446 -0.025997318 -0.019434651
-0.009249892 -0.004557834 -0.048872963 -0.01813245 0.031997956 0.001060155 0.018249914 0.0021391546
-0.016938716 -0.03428406 -0.0139431935 0.0035208627 -0.036418423 0.013879034 0.014046576 -0.0077210744

action_model._discrete_distribution.branches.0.weight f4 [3, 128]
00000000: d52e 25bc e2b4 05bc 1478 d7bc 8b33 a63c
00000010: 389e c1bb 68d4 6aba 8e00 e1bb af5f 60bc
00000020: 9b5a 763c 27fb ddba 26a8 91bb 27e6 353c
00000030: 3cbb 483b 285f 97bc eee9 bc3b b6c1 3fbc
00000040: 80a0 f03c 4a85 6d3d 2bd7 84bc 5ae2 32bc
00000050: 02f8 973c efe8 173b 2db5 ea3c 91c4 0a3d
00000060: 7c47 3dbd 6253 e2bc 9b41 f1bc e71b 9d3d
00000070: e803 f0bc 6388 83bc daaa 0a3d 31a5 813d
00000080: 34c5 dbbb e213 b83b 4edf 19bd c8a6 233d
00000090: f438 633d 6484 95bb 66fc 523a c25c ae3b
000000a0: 73cb 81bc 82ac 0a3d 55f7 883b 8823 36bc
000000b0: f327 423c 65c8 d43b 6a1f 183d a3bb 9b3c
000000c0: 8071 55bc d8d1 80ba 0e1e 0fbc a84c 8fbb
000000d0: 62f8 12bd 3a62 fcbb 8f5b 9e3a faa1 ffbc
000000e0: 8bbb a1bb 8e97 803d 9720 063d 9b45 d53b
000000f0: 9e5e 373d 6f1e 59bc 49e3 f53b d990 68bc
00000100: 0a58 b33b 62d1 b1bc 5f51 29bd 5d39 44bd
00000110: b281 e2bb 5975 ba3c 4f82 273d 67b2 2d3c
00000120: cbce 073c dfcb 4abc d6f8 1b3c 8544 f7bc
00000130: 5dfa 28bc 6e3b a33c 1695 e9bc 85d5 ebba
00000140: c092 ddbc 3cfd 9ebc f82f b0bb f457 2b3d
00000150: 7284 803c d007 12bd e8a4 f1bc 3471 563d
00000160: 31a5 8abb c09a 453c 2ec1 c43d 9faf 3cbc
00000170: b657 95bc 18cc 623c ae98 833c d804 193b
00000180: 15f3 a23d 5ab3 89bc a597 823d 409d 9ebc
00000190: dff6 863b edbe 51bb 554c d7bc ba5d 083d
000001a0: 8031 133d eaca 823d 861f a5bc 86c2 cbbc
000001b0: 4b2f f2bb fffb 393d a12c 4b3c f7ee 29bc
000001c0: 4296 343c d3ff f2bc 9f8e 333d 212a e23c
000001d0: 2dcd 09bd 11c4 89bc d8b0 50bc 4704 43bd
000001e0: 1346 1cbc 2874 233d 4a28 5cbc 1a08 b83c
000001f0: 40d4 5d3c 8283 e7bc 7764 f0bc bc71 efb9
00000200: 3891 0639 5ec5 613c 5468 f3b8 feec 603c
00000210: 0e20 623c 0b14 1e3c ab80 2e3c 3050 a33c
00000220: 3564 8abc 093a 533d 2761 52b7 28fa a4bc
00000230: f31e b83a 8f38 b93c 317a 4f3c 9f49 0a3b
00000240: 0a04 96bc e099 443b 26a2 3bbd 30b8 833c
00000250: 24fb 663b 9950 263d ddfa 253b 1c83 bfbc
00000260: 60a4 d3bc 288f 40bc ff42 97bb 8287 33bb
00000270: f832 413c 2a95 963c c447 43bc 134c f63b
00000280: fe98 e63b 13f4 8e3c 5680 e93a 08a4 15bc
00000290: d27c 55bc 76cd 4fbd 5c02 edbb b8c8 d0bb
000002a0: 82c3 ea3c c1c0 00bc e9f0 a33c b011 c6ba
000002b0: 5e71 173c 9830 a93c 502b c5bc 5803 36bc
000002c0: 728a ec3b c912 f93b 17e3 153d 99e4 dbbb
000002d0: d914 08bd 04cb 50bc 2087 afbc 707f 053b
000002e0: 6d10 e43a de79 06bd 8d94 b2bc 887d b9bc
000002f0: 334b 363c 2484 8dbd 80bc fdbc da46 573c
00000300: 322e 9f3b c593 55bc 85ba 30bc 36f4 203d
00000310: 8091 4a3c 08ce 543b 0614 7bbc 7610 313b
00000320: 365f e7bb afc1 b9bc f49d e13c 1063 32bc
00000330: f003 903a ebd6 05bc 34e1 9b3c e257 923c
00000340: 9d3f 2f3d c304 1bbd 0801 173b dc06 92bb
00000350: f0b1 b5ba 2b9c 9bbd b6db ceba b1ac 34bd
00000360: 57ec 443c 363a 08bd d2cc 7bbc f67f a43c
00000370: aae2 bd3b 75c9 80bc e491 9f3b 2b05 f93b
00000380: 5ddc 95b9 9e68 f73c 34f6 c8bc e79e a13c
00000390: 5317 f13c 61f9 963b 0c4b 8d3b b73e 01bd
000003a0: 100e 1ebd 5b80 22bd 21c7 e33c ed85 93bc
000003b0: ac84 953c 9908 1bbd 7a9d edbc 4400 d3bc
000003c0: 6abe c4bb 6f07 8b3c 9562 06bd 7bc0 5ebb
000003d0: f798 0e3d 18a1 1c3c 5aac 9a3c 567b a3bc
000003e0: 48b4 f33b 8b0a 18bd c671 43ba 648c b4bc
000003f0: 524c 4f3b b2c6 55bc 74d6 82bc d370 ba3b
-0.010081966 -0.008160802 -0.026302375 0.02028825 -0.0059087537 -0.00089580426 -0.006866521 -0.013694688
0.01503625 -0.0016935811 -0.0044450937 0.011102236 0.0030629179 -0.018477991 0.0057651913 -0.011703899
0.029373407 0.057988442 -0.016215881 -0.010918224 0.018550877 0.002317961 0.028650844 0.033878867
-0.04621075 -0.02762765 -0.029450228 0.076713376 -0.029298738 -0.016056245 0.033854343 0.06330336
-0.006706858 0.0056176046 -0.037566476 0.039953977 0.055474237 -0.0045629013 0.00080484746 0.005321116
-0.015844082 0.033855923 0.004179875 -0.01111687 0.011850345 0.0064936155 0.037139334 0.01901037
-0.013027549 -0.0009828163 -0.008735193 -0.004373152 -0.035881408 -0.007702139 0.001208173 -0.031205166
-0.004935687 0.06278907 0.032745924 0.0065085418 0.04476797 -0.013251885 0.007503901 -0.014194691
0.0054731416 -0.021706287 -0.041337367 -0.04790627 -0.0069124335 0.022761034 0.040895756 0.010601616
0.008289049 -0.012377708 0.009519776 -0.03018404 -0.0103135975 0.0199258 -0.028513473 -0.0017992711
-0.027047515 -0.019407861 -0.005376812 0.041831926 0.015688155 -0.03565198 -0.029497579 0.052354053
-0.004231118 0.012060821 0.096071586 -0.011516481 -0.0182303 0.013842605 0.016064014 0.0023348834
0.079565205 -0.016809154 0.0637658 -0.019362092 0.004118785 -0.003200467 -0.026281515 0.03329251
0.03593588 0.06386359 -0.020156633 -0.02487303 -0.0073908917 0.045406338 0.012400777 -0.010371915
0.011022152 -0.029663002 0.043837186 0.02760798 -0.033642936 -0.016817125 -0.012737475 -0.0476115
-0.009538191 0.039905697 -0.01343734 0.0224648 0.013539374 -0.02826095 -0.02934478 -0.0004567037
0.00012833334 0.013779966 -0.000116065756 0.013728378 0.013801588 0.009648333 0.010650794 0.019935697
-0.016893486 0.05156902 -1.2539595e-05 -0.020138815 0.001404731 0.022609977 0.01266341 0.002110101
-0.018312473 0.0029998943 -0.045808934 0.016079038 0.0035244906 0.040604208 0.0025326528 -0.023377948
-0.025835216 -0.011752881 -0.004616141 -0.0027394001 0.011791937 0.018381674 -0.011918966 0.007516393
0.007037281 0.017450368 0.0017814736 -0.009133346 -0.013030248 -0.050733052 -0.0072329473 -0.006371584
0.028657679 -0.007858456 0.020012336 -0.0015111472 0.009243337 0.020653054 -0.024068505 -0.011109196
0.0072186524 0.0076011163 0.036593523 -0.0067106006 -0.033223007 -0.012743715 -0.021426737 0.0020370148
0.0017399915 -0.032831065 -0.02179935 -0.022642866 0.011126327 -0.069099694 -0.030973673 0.013139451
0.004857802 -0.013035719 -0.010786657 0.039295398 0.0123637915 0.0032471437 -0.015324598 0.0027017868
-0.0070609106 -0.022675363 0.027541138 -0.010887876 0.0010987502 -0.008168916 0.019028284 0.017864171
0.042785276 -0.037846338 0.0023041386 -0.004456384 -0.0013862234 -0.07598146 -0.0015782032 -0.044110004
0.012019238 -0.03325864 -0.015368657 0.020080548 0.0057948427 -0.015721062 0.0048696864 0.007599493
-0.00028583678 0.030201253 -0.024531461 0.01972909 0.029430067 0.004607365 0.004311925 -0.03155395
-0.03858763 -0.03967319 0.027804913 -0.018008197 0.01825174 -0.037849996 -0.029005755 -0.025756963
-0.0060041444 0.016971318 -0.03280886 -0.003398924 0.034813847 0.009559892 0.018881012 -0.019956272
0.0074372627 -0.03711943 -0.0007455613 -0.0220396 0.0031631184 -0.013047861 -0.0159714 0.005689719

action_model._discrete_distribution.branches.0.bias f4 [3]
00000000: 4891 3bbd e1c1 7a3c 2d14 c23c
-0.045792848 0.015305013 0.023691261

action_model._discrete_distribution.branches.1.weight f4 [3, 128]
00000000: a713 b43b ee45 2cbc 976a 323d 9dd1 cdbc
00000010: c2b4 6fbb 666b 073c 2ff6 c2bb ee4d eb3a
00000020: 0ed4 feba 7e42 1f3d 19df e63b a49d 783b
00000030: 4f73 673b 8c80 a53c 1a8b 763b 74c3 02bc
00000040: ed14 fbbb 0c73 0bbc 3825 b9bb 366e 36bd
00000050: 0552 a63b 5669 ba3c 36d5 2c3c 126d 5cbb
00000060: 09dc f23c fe36 ff3c 6944 033d e267 8c3d
00000070: 759d c13c 2148 5cbc dcef 8dbb da0e c5bc
00000080: 4ef5 abbb 5e9b 68bc aff9 b0bc 54e7 9abc
00000090: c329 79bc b891 113b 291b 363a d9bd 66bc
000000a0: 735d cebb 1f0d 85bc 69bf 78bc 2173 a9bb
000000b0: 6dee 233c db1a 65bc 714c 73bc 0edc a7bb
000000c0: 7df7 8d3c 9c28 34bc f2ad bfbc c70a 4cbc
000000d0: 87b2 433d 7e85 cf3c 62a3 c13b 703f c13b
000000e0: 3a37 65bb 07ac 623c ce40 4fbc c74f 30bb
000000f0: f802 093d bc6d dc3b 6346 9b3c 839b ff3c
00000100: 416c 92bc 4b83 653b e2a8 003c 19ea 6f3d
00000110: a750 dbbc 500f 44bc da8b 223b bc06 8f3d
00000120: 5661 63bc 9f14 fa3b 97b1 8abc ef6e 54bb
00000130: 853a 8dbc ff68 25bc fcd7 e4bb be8c 49bc
00000140: 653d db3b bc96 a03c e5ba 00bd 893a 00b9
00000150: e5cc c63b 9bb2 c33c f57c f93c 8f4c 21bc
00000160: b468 11bb 26a0 843c 08b8 a13d bab0 153c
00000170: 9092 f4bb 7966 bf3b 5913 b2bc f519 183b
00000180: af85 8d3d d248 2fbd 3591 c3ba 31bd 16bc
00000190: 5708 bcbc a151 543b fc98 8e3c 4286 c43c
000001a0: 1a8b 54bc e3a7 51bc 152e 263d b1ea 9f3c
000001b0: 363d 0bbc 291e 8abb 64b4 b13a b603 3f3c
000001c0: a702 2cbd 1a72 103d 7e5b 8ebb 280c 303c
000001d0: 3f6f 19bd ed1d 8bbc 44ed d5bc 5adb b23c
000001e0: f03c 29bb b4ec b4bb 03bf 4f3b a4fa 3d3d
000001f0: cb71 613c 53d2 143d 2da4 9f3c 8eac bd3b
00000200: a62e 053b b77c 8aba 924a a3bc 39ec 103c
00000210: 6b37 6d3c deab ad3b 860b 70bc 1a7d 893c
00000220: dc4b 98bc 5629 c63c 5d2f b53b 165d 503c
00000230: 0d70 b0ba 244a 1abc 5108 49bc 72da ff3c
00000240: 9b78 dfbc 4450 0cbc 9531 51bc 84a6 a33c
00000250: c0c9 bdbb e5e1 0bbc fbcc 08bd 1178 dfbc
00000260: 5b25 943b a71d 1dbc c778 4b3b 6076 e4bb
00000270: bdc5 ca3b 3271 fcbb 3e3d b63a 2cb2 f93b
00000280: 85d1 36bc 9660 de3b 8b6a d539 cc37 10bc
00000290: 6e90 893c e2d4 adba a313 81bc 1e4e 2d3d
000002a0: e29c cdbb d36d 14bc c781 993c 2475 c5bb
000002b0: fa97 fab9 8bc1 143c c469 023c e0f7 56bc
000002c0: bd8b 153b e202 973c eab6 863c 0096 533c
000002d0: 526a 1abd 0f00 05bd 9097 cabc c84c cd3c
000002e0: d2c1 f1bb 4070 5a3c 4d8c 9ebc d5d0 95bc
000002f0: f9a4 d539 55ab 97bc 6176 a8bc 5f83 513b
00000300: 87a3 0e3c ae7e 3f3b b3dd 4ebc c7e2 01bc
00000310: 922d 3f3c 12cd 2a3d 67b5 8d3c fcae 51bd
00000320: 38cf 34bb 65ac 463b d85c cdbb c9ac 2c3c
00000330: 6e1a 0c3d ac39 6cbc ec4c 7039 94d4 d5bb
00000340: 9c6e e33b 9a0a 78bc 3399 063d 34cd c9bc
00000350: 52b6 ac3c 3196 2fbc 4ec1 04bb 2886 f5ba
00000360: 5880 2dbc bd63 55bd 4688 69bc 7a6a 693b
00000370: f014 f1bb a58a 70bc 3858 c63b b698 52bc
00000380: 1064 86bb 6b39 403c 125d 0fbc d52b a63c
00000390: 6528 623c cf64 6bbb 8b01 183c c96d 953a
000003a0: 48db d53b 92ec 5fbc e4aa 4eba 93ee 5abc
000003b0: 0954 0e3c 8600 e5ba 2aad 9dbc 7d45 7fbc
000003c0: 22bd 033d aa66 f2bb 3dd5 14bc 6875 ffb8
000003d0: 6d41 a93b 7554 773c 5960 0a3d 8222 3ebc
000003e0: 0c0f 09bd 36e7 c23b ee84 8b3c a890 06bd
000003f0: d833 37bc b665 87bc 6a56 073c 1e64 183c
0.005495507 -0.010514719 0.043558683 -0.025124365 -0.0036576246 0.008265352 -0.0059497575 0.0017952302
-0.0019441859 0.03888177 0.0070456383 0.0037935758 0.0035316532 0.020202897 0.0037619532 -0.00798117
-0.0076624067 -0.008511316 -0.005650189 -0.0445387 0.0050756955 0.022755306 0.01054888 -0.0033634347
0.029645937 0.031154152 0.032047663 0.068557516 0.023634652 -0.013444931 -0.004331572 -0.024054933
-0.0052477485 -0.014197199 -0.021603433 -0.018909134 -0.015207711 0.00222121 0.0006946796 -0.014083349
-0.006297761 -0.016241608 -0.0151823545 -0.005171195 0.010005576 -0.013983454 -0.014849768 -0.005122668
0.017329926 -0.01099601 -0.023398373 -0.012453741 0.04777768 0.025332209 0.0059093693 0.005897455
-0.0034975545 0.01383496 -0.012649728 -0.002690302 0.033450097 0.0067269485 0.018954461 0.031202083
-0.017873885 0.0035020884 0.007852765 0.058572862 -0.026771856 -0.011966541 0.0024802596 0.06983706
-0.013878187 0.0076318528 -0.016930385 -0.0032414754 -0.017239818 -0.010095834 -0.006983755 -0.012301622
0.0066906684 0.019603126 -0.031428237 -0.00012228837 0.006066906 0.023888877 0.030455092 -0.009844913
-0.0022187652 0.016189646 0.07896429 0.009136373 -0.0074637607 0.005841073 -0.021737741 0.002320883
0.06910264 -0.042794056 -0.0014920594 -0.00920038 -0.022953195 0.0032397287 0.017406933 0.0239898
-0.0129726175 -0.012796375 0.04057129 0.01952109 -0.008498481 -0.004215021 0.0013557789 0.0116586
-0.041994717 0.035265066 -0.004344403 0.010745086 -0.03745961 -0.016982043 -0.026114114 0.02183311
-0.0025823675 -0.0055213813 0.0031699545 0.046381608 0.0137600405 0.036333393 0.019487465 0.0057883924
0.0020321994 -0.0010565732 -0.019933019 0.008845382 0.014478545 0.005300029 -0.014651185 0.016783286
-0.01859086 0.024189632 0.005529328 0.012717506 -0.0013461128 -0.009417091 -0.012270049 0.031232093
-0.027279189 -0.008564059 -0.012768169 0.019976862 -0.0057918727 -0.008537744 -0.03339861 -0.027278932
0.0045210547 -0.009589589 0.003104733 -0.006972119 0.006188123 -0.0077039236 0.001390375 0.0076201167
-0.011158352 0.0067864163 0.00040705907 -0.0088023655 0.016792502 -0.0013262297 -0.015756434 0.042310826
-0.0062748054 -0.009059387 0.01873864 -0.006025927 -0.00047796947 0.009079347 0.007959787 -0.013120621
0.0022818886 0.018433992 0.016444642 0.012914181 -0.03769905 -0.03247076 -0.024730474 0.025061026
-0.0073778415 0.013332427 -0.01935401 -0.018288055 0.0004074944 -0.018514315 -0.02056426 0.0031969172
0.00870598 0.0029219794 -0.012626099 -0.007927603 0.01166858 0.041699477 0.017298413 -0.05119227
-0.0027589332 0.0030315157 -0.0062671714 0.010539242 0.034204893 -0.014418047 0.00022916839 -0.0065255854
0.006940676 -0.015139246 0.032860946 -0.024633981 0.02108303 -0.010716961 -0.002025682 -0.0018731998
-0.010589682 -0.05209707 -0.0142536815 0.0035616443 -0.0073572323 -0.014681493 0.006052997 -0.012853792
-0.004101284 0.0117324395 -0.008750217 0.020284573 0.013803576 -0.003591824 0.009277712 0.0011400516
0.0065263845 -0.013667243 -0.0007883741 -0.013362545 0.008687028 -0.001747147 -0.01924761 -0.015580532
0.032162793 -0.0073974924 -0.009084043 -0.00012181216 0.00516527 0.01509582 0.03378329 -0.011604907
-0.033461615 0.0059479726 0.01703116 -0.0328528 -0.011181794 -0.016527992 0.008260349 0.009301214

action_model._discrete_distribution.branches.1.bias f4 [3]
00000000: e9d6 3a3b 95b4 f63b a21c 33bc
0.0028509444 0.0075288513 -0.01093212

exp_avg f4 [128, 7]
00000000: 0c7b 9c39 cdf9 22b6 bcef 12b8 23aa ce37
00000010: a80b 4cb6 0600 6f37 c120 a938 98c2 50ba
00000020: 6fdd af38 2ff1 1f39 42f5 36ba d72e dc38
00000030: 4fd9 c4b8 40f1 bd39 d5c0 bb38 aacf 1d37
00000040: 2f54 d035 e751 74b8 6494 4537 3867 ecb7
00000050: 8043 1b39 ae2a 85ba a681 cd38 b918 1438
00000060: b3a0 4cba a4a5 0039 4b64 d637 2045 1a39
00000070: f543 133a c6d5 6f37 50d6 0cb9 9193 9cb9
00000080: 0823 9637 4f1e 62b9 e3e2 793a cba5 50ba
00000090: 86c1 7938 a669 3cba 32f7 2dba e358 9c38
000000a0: bc12 5db8 b7dc e839 b411 a5ba 8a70 8138
000000b0: 7461 6f3a 0116 d4b9 f30e a238 16ca 62b8
000000c0: d8c3 37ba 4454 80b9 a802 66b8 a1bf f939
000000d0: cff2 003a 87fc 8fb8 06e2 06b8 4073 e5b9
000000e0: 58ee 34ba ef45 6436 b764 cb3a 571c 2ab8
000000f0: cae5 8e36 2500 d7b7 8bb0 47ba 3196 6dba
00000100: 85f2 5538 206b 8aba f0cc c3b9 58ee 8538
00000110: 142b f0b7 4e97 763a f9b0 f83a 753c 3db9
00000120: 276b 3a3a 0fe3 be3a 76ec 6cb9 22d9 1e38
00000130: db42 8eba 2553 27bb e898 6139 2450 8239
00000140: bd6b e7ba 5239 8d39 c06f c6b7 86a8 1a3a
00000150: 4ede 0dba 19de 1239 0678 46ba 2cd8 86ba
00000160: d2e0 3739 1265 adb8 c37b d23a 443e 51b8
00000170: 5cf9 1138 546f 14ba 5b44 0bba 70c2 3638
00000180: 2a8c 29b8 0f47 153a 985d 2db8 be0c c037
00000190: 7794 14b9 3bff 7db9 4272 f037 3d85 2137
000001a0: ec1f 4939 4c78 453a 0eaf 85b8 9657 3739
000001b0: 606c fe39 445f a7b8 b379 9ab7 98f3 94b9
000001c0: ec21 c339 4c96 e7b7 6c48 b739 517a b839
000001d0: 37f9 10b8 0470 6939 ab65 4cba 7364 843a
000001e0: 308f a8b7 056d 6c3a f40f dc38 4609 d3b7
000001f0: a4b8 3cb8 fef0 c2b9 6766 41bb 758e 6b39
00000200: 6987 c5ba 53a6 c5ba 5675 9339 6032 3539
00000210: 3eba bc39 f565 34ba 2264 a437 9cce 4cba
00000220: be4d f5b9 5cd1 cd37 956a 6338 5f1b 9738
00000230: 2078 a03a 55f1 09b9 531a 243a 22f0 893a
00000240: 4cb4 2cb9 8325 08b3 f72e 43ba bbae 7239
00000250: 3d1e 67b7 c34a 6038 7dbc f738 11ae 90b7
00000260: 607f 59b7 1b5b 3738 248d 0e39 a1c1 42b7
00000270: 6f89 a136 14d7 3438 c4d5 73b7 c3ee 94b8
00000280: 1ee2 2c38 d1d5 f93a 99ff 82b9 aa95 db3a
00000290: 58ca 023b 8f02 a4b9 9b58 1db7 eb6b d9ba
000002a0: 56f7 1eb6 60a3 e4b7 626f 8bb8 24b5 2b39
000002b0: a420 0fb8 321c cbb7 250e 95b9 aef8 3e39
000002c0: 5850 3d38 2e62 19b9 839b 01ba 5b05 6d38
000002d0: 23f3 27b9 fd75 653a ee8e 353b 9c56 37b9
000002e0: 5d6b b73a 121c 883a 208a 65b9 d3dd bcb9
000002f0: 11d2 76b9 0243 fb39 7984 07b8 0a6a 2bb9
00000300: 7f45 4039 faaa 29b8 8cd1 0937 8229 8ab8
00000310: 2276 12b9 2665 ea37 d9f5 abb9 3f7a 70b9
00000320: 38bb 1238 2b85 9cb7 afea d539 d367 1239
00000330: 630b e636 6517 2b38 a2e9 94b8 0102 1037
00000340: 17ec 85b8 ecc6 5739 97c5 27bb 0033 e938
00000350: 8512 4639 2603 08ba 93fb 1139 ab14 aa39
00000360: 8aab a8ba ba61 0dba 986d 8638 ea0b 71ba
00000370: 13a5 19ba d54d a838 ed94 ebb9 eed5 d43a
00000380: 86f3 03ba c557 47b7 5d71 f8b8 2826 fa38
00000390: c493 79b7 e203 d938 8902 15ba 958e f0b9
000003a0: e91c 2138 ef83 a4b9 3bca f8b8 9eb6 4938
000003b0: ba10 4638 97a5 9ab9 9e28 bbba a733 b338
000003c0: 381c af39 8edb 0aba 515c e038 77f6 6a39
000003d0: 786d 07ba 014d da39 a0c0 6db8 f0c9 d039
000003e0: 2346 e639 41d5 94b8 747c 82b7 f926 50ba
000003f0: ea3d fbba 9802 5439 68ed 4bba a776 c2ba
0.00029846316 -2.4285284e-06 -3.5032383e-05 2.463634e-05 -3.0405154e-06 1.4245516e-05 8.064649e-05 -0.0007963567
8.3858955e-05 0.0001525327 -0.0006979295 0.00010499142 -9.386485e-05 0.00036228634 8.9527726e-05 9.40628e-06
1.5521708e-06 -5.825041e-05 1.1776665e-05 -2.8181457e-05 0.00014807098 -0.0010159814 9.799311e-05 3.5308974e-05
-0.00078059285 0.00012268737 2.555749e-05 0.00014712336 0.00056177314 1.4295283e-05 -0.00013431278 -0.00029864584
1.7897706e-05 -0.0002156433 0.0009532405 -0.00079592754 5.954646e-05 -0.00071873737 -0.0006636261 7.455216e-05
-5.2707954e-05 0.00044414934 -0.0012593777 6.1721614e-05 0.0009131648 -0.00040452185 7.7275465e-05 -5.4070806e-05
-0.0007010079 -0.00024476845 -5.4838747e-05 0.00047635756 0.0004918994 -6.865808e-05 -3.215859e-05 -0.00043764152
-0.0006901971 3.4015354e-06 0.0015517686 -4.0557552e-05 4.2586807e-06 -2.5630065e-05 -0.00076175545 -0.0009063213
5.100902e-05 -0.001056049 -0.0003734599 6.386329e-05 -2.863029e-05 0.00094067014 0.001897364 -0.00018046967
0.0007111304 0.0014563518 -0.00022594802 3.7872356e-05 -0.0010853665 -0.0025531736 0.00021514634 0.00024855242
-0.001765601 0.00026936323 -2.3655477e-05 0.0005899746 -0.0005411849 0.00014006383 -0.00075709855 -0.0010287813
0.00017535992 -8.268109e-05 0.0016058612 -4.9887472e-05 3.4802928e-05 -0.0005662341 -0.0005312615 4.3573265e-05
-4.0423278e-05 0.00056944875 -4.133358e-05 2.2894117e-05 -0.00014169687 -0.00024223041 2.8663435e-05 9.62737e-06
0.00019180746 0.0007532879 -6.374541e-05 0.00017484868 0.000485274 -7.980925e-05 -1.8414901e-05 -0.0002841025
0.00037218572 -2.7607333e-05 0.00034958438 0.00035186348 -3.4564375e-05 0.0002226234 -0.0007797132 0.0010100737
-2.0093838e-05 0.0009018931 0.00010493389 -2.5157478e-05 -4.4994653e-05 -0.00037182117 -0.00295105 0.00022464416
-0.0015070263 -0.0015079476 0.00028125447 0.00017280271 0.00035996916 -0.0006881648 1.9596951e-05 -0.00078127696
-0.00046787964 2.4535395e-05 5.422028e-05 7.205339e-05 0.0012242831 -0.00013155241 0.0006260026 0.0010523836
-0.00016470364 -3.1699084e-08 -0.0007445658 0.0002314401 -1.3775713e-05 5.347539e-05 0.000118129865 -1.7247194e-05
-1.2963865e-05 4.371545e-05 0.00013594754 -1.1608384e-05 4.8141733e-06 4.311565e-05 -1.45337e-05 -7.101663e-05
4.1218584e-05 0.0019060915 -0.00024985967 0.0016752977 0.0019957032 -0.00031282424 -9.378559e-06 -0.0016587948
-2.3687803e-06 -2.7255795e-05 -6.648783e-05 0.00016375311 -3.4124256e-05 -2.4212615e-05 -0.00028430033 0.00018212452
4.5135937e-05 -0.00014627792 -0.00049441325 5.651019e-05 -0.00016016937 0.00087532384 0.00277036 -0.00017484504
0.0013993789 0.0010384342 -0.00021890597 -0.00036023426 -0.00023538644 0.00047924375 -3.2309883e-05 -0.00016347333
0.00018336436 -4.0451974e-05 8.214625e-06 -6.588084e-05 -0.00013967653 2.7942075e-05 -0.00032798832 -0.00022933724
3.4983474e-05 -1.865866e-05 0.0004080138 0.00013962323 6.8558597e-06 4.0791365e-05 -7.1007074e-05 8.583535e-06
-6.3859094e-05 0.00020578102 -0.002559995 0.00011119805 0.0001888965 -0.00051884574 0.00013921996 0.00032440326
-0.0012868505 -0.00053932855 6.410031e-05 -0.0009195196 -0.0005861085 8.0253616e-05 -0.0004493365 0.0016238072
-0.0005033541 -1.188176e-05 -0.00011846677 0.00011928036 -1.4875961e-05 0.000103480896 -0.00056842767 -0.000458826
3.8412316e-05 -0.00031378816 -0.0001186323 4.809221e-05 4.7222456e-05 -0.00029496543 -0.0014279073 8.545006e-05
0.00033399626 -0.00052969984 0.000106983476 0.00022407794 -0.00051661534 0.00041637573 -5.66846e-05 0.00039823307
0.00043921274 -7.0969116e-05 -1.555516e-05 -0.00079403777 -0.0019168232 0.00020218862 -0.0007779212 -0.0014836387

exp_avg_sq f4 [128, 7]
00000000: e4e7 1637 19b3 3733 8def 6636 375d 8436
00000010: 9cf9 8f33 2848 7e35 523c 2e37 2b52 2238
00000020: bea7 2d34 23db 8137 46b8 c337 451a 8834
00000030: f1d0 7037 25a7 6737 5d8d 0d37 11b2 0c33
00000040: 13ed 8036 d291 b035 928a 5c33 5ec6 4c35
00000050: 0cfb 8f37 7266 8b37 9fa5 9933 926b fa36
00000060: b492 1937 aad7 f033 4ec2 e936 1001 da36
00000070: 9f50 f937 81aa 1534 296a be37 f84b 9737
00000080: 399a 6a34 0d98 f735 5cab df38 6e84 d338
00000090: dbd5 f534 ebb8 5b38 f5e6 5d38 8bac 4035
000000a0: c0e8 b237 56ad 7639 b7d1 9538 43a9 a334
000000b0: 7d88 1f38 c276 3f38 0b45 0035 b593 a437
000000c0: 6ef9 3638 0785 d337 334c 0f34 3c9f 5b37
000000d0: 7b6c 7937 9f9e 6034 9371 8e36 87a7 5a37
000000e0: efe4 0c39 c45d 1035 da75 5d38 d1c2 9138
000000f0: 8e4b 6235 35d5 f137 c1ff 3138 db92 0f38
00000100: b731 2134 5efb bd37 c63d 9537 33ac 7c34
00000110: e5d3 0437 403d a037 ec1c 0a38 2d4e 1034
00000120: ec3d 8137 fc5b a837 1e33 6234 8115 1f37
00000130: 50aa 5237 a510 da38 6fa2 eb34 cfbe 2238
00000140: 80ee 6538 e1ad 3835 dce8 bf37 107e 3538
00000150: 26c8 f638 54fb ff34 0e97 8338 c937 7c38
00000160: 44a0 4835 9fa9 d337 ed84 5339 71ac 2e38
00000170: 1e6a 4a34 ccdc e337 4fb4 ca37 8da4 9e34
00000180: 5577 e336 c39d 0d39 9921 6b38 0c0d 6834
00000190: c928 2138 f075 9337 c7de b534 38b1 d135
000001a0: ec32 2f39 f518 9937 414e 9633 3b3c 9436
000001b0: 4e2a 8c36 c19a eb33 65c6 1035 f4d6 9c37
000001c0: 45ef 1338 8bfb 2034 ed21 a237 d0b0 a837
000001d0: 5f57 7c34 88b8 0437 0784 3e38 dcc1 a138
000001e0: 201f ae34 6bfd f137 b25a 2d38 dd77 0835
000001f0: 14cb b137 0002 3538 5b30 e738 d02d fa34
00000200: f04a 5638 b9c3 6238 0014 4435 0c5f 8037
00000210: 304f 8939 4378 f338 7af2 2035 b143 e538
00000220: c519 ae38 fa48 7c35 6309 7e37 b1a0 eb39
00000230: c489 0438 fceb 0234 c1ac 5637 24b6 9537
00000240: 8038 4d34 daac e836 5104 0037 dc2d 0135
00000250: ce72 0231 bce8 8f34 e92d 9133 8a7a 4c31
00000260: 3951 1a33 548d 7035 1ec4 3b37 ce8a 3833
00000270: 9f2b 8836 b634 4e36 ada2 9033 be38 7835
00000280: 65ae b437 46fa f437 cbba 2034 4f6d 5637
00000290: 36c0 8d37 baf1 7b34 46e4 a336 64e5 7737
000002a0: fbd8 0437 3cae fe32 9a1c 4f36 bb41 b735
000002b0: 249b 4733 0e6f fc34 11c5 8937 92fb e936
000002c0: d1ef 1d33 11b1 ce36 53d2 b336 f190 7733
000002d0: 71cf d735 97c6 e237 709f 1e39 2c52 2935
000002e0: 2b89 aa38 0921 8538 c0b4 8435 9ea9 e136
000002f0: 8435 cc39 f881 6438 e357 6e34 10d5 0038
00000300: 3999 0138 5ecd ba34 afad 2737 65a5 d138
00000310: 8fa8 4637 6dbb 4933 eca3 dd35 001c 4936
00000320: 9c1b 9e33 4e07 8834 15ea d736 f25f 7636
00000330: f7d4 c832 95ec 0536 b030 3736 2467 1d33
00000340: db27 3a36 7f15 2837 7c16 0439 3875 1635
00000350: 1a10 c638 830f 8838 d0d7 6b35 9b6b 2b37
00000360: 4db5 d139 6949 4739 8eaa 5335 038d d338
00000370: d5bb ee38 f2e4 a535 6fa1 5538 77df 3339
00000380: 6dc4 e837 e06c da33 143d 4937 7661 1737
00000390: f130 2b34 01df d835 0902 9c38 ad5b 9e38
000003a0: 6c2f a134 91df 2738 ec7d 0338 90a8 fc34
000003b0: 9391 1e37 5a84 2d39 4390 de37 b621 f833
000003c0: 9988 3c37 1c6a 7237 4379 4234 066e ec36
000003d0: 3b2d e337 2f1b 0a38 14b3 1834 7642 a137
000003e0: 616a a837 605b 6f34 b69c f136 6b9f 7038
000003f0: b66e 1739 7eb2 2135 bba8 b838 1d46 ab38
8.994688e-06 4.2770896e-08 3.4412108e-06 3.944758e-06 6.70436e-08 9.4727375e-07 1.0385253e-05 3.8700335e-05
1.6172905e-07 1.5480042e-05 2.333162e-05 2.5351088e-07 1.4353763e-05 1.3807589e-05 8.437169e-06 3.275824e-08
3.8422963e-06 1.3155461e-06 5.134877e-08 7.6284584e-07 1.7163831e-05 1.6617796e-05 7.154744e-08 7.4631034e-06
9.153668e-06 1.12151e-07 6.966561e-06 6.49703e-06 2.9720655e-05 1.3938735e-07 2.26992e-05 1.8035978e-05
2.1849054e-07 1.8447187e-06 0.00010665387 0.00010085931 4.5790406e-07 5.2385887e-05 5.29056e-05 7.1776657e-07
2.1327636e-05 0.00023524961 7.143936e-05 3.048427e-07 3.803567e-05 4.564855e-05 4.7784187e-07 1.9619105e-05
4.362448e-05 2.5215106e-05 1.3345634e-07 1.3090492e-05 1.4866814e-05 2.0919332e-07 4.2451516e-06 1.3032818e-05
0.00013436725 5.378063e-07 5.2800264e-05 6.950426e-05 8.430151e-07 2.8828721e-05 4.2438278e-05 3.4230627e-05
1.501238e-07 2.2647608e-05 1.779095e-05 2.3531975e-07 7.917149e-06 1.9102008e-05 3.29287e-05 1.3439485e-07
1.5406833e-05 2.0069994e-05 2.1066487e-07 9.482145e-06 1.2556629e-05 0.0001039815 4.3890347e-07 3.8801514e-05
5.4819975e-05 6.879837e-07 2.2877408e-05 4.3271168e-05 0.00011767475 4.7680317e-07 6.274703e-05 6.0133436e-05
7.4739023e-07 2.5232146e-05 0.00020172047 4.164543e-05 1.8851321e-07 2.7163325e-05 2.416424e-05 2.954952e-07
6.7790193e-06 0.00013505579 5.6059656e-05 2.161143e-07 3.8423375e-05 1.7578684e-05 3.387597e-07 1.5623291e-06
0.0001670827 1.8250643e-05 6.9991536e-08 4.4177555e-06 4.17725e-06 1.097119e-07 5.393288e-07 1.8696745e-05
3.527037e-05 1.4992672e-07 1.9327703e-05 2.0109495e-05 2.3501114e-07 7.910778e-06 4.542249e-05 7.7131874e-05
3.2432672e-07 2.8847446e-05 4.133088e-05 5.083837e-07 2.119461e-05 4.3155625e-05 0.00011023945 4.6599462e-07
5.1091367e-05 5.406488e-05 7.3044794e-07 1.5303049e-05 0.00026189676 0.000116095434 5.9957495e-07 0.000109321794
8.3017665e-05 9.398351e-07 1.5141765e-05 0.00044942417 3.1599557e-05 1.2193044e-07 1.2795616e-05 1.7847e-05
1.9112667e-07 6.9342614e-06 7.6303995e-06 4.812298e-07 1.8982749e-09 2.6805162e-07 6.76044e-08 2.9755562e-09
3.592979e-08 8.9612627e-07 1.1191731e-05 4.296708e-08 4.058194e-06 3.0727074e-06 6.735113e-08 9.246977e-07
2.153888e-05 2.920361e-05 1.4969116e-07 1.2780844e-05 1.6898015e-05 2.3464136e-07 4.884353e-06 1.4775756e-05
7.918333e-06 2.9648724e-08 3.0862052e-06 1.3653693e-06 4.6474398e-08 4.701946e-07 1.6423439e-05 6.9732278e-06
3.6772523e-08 6.1598917e-06 5.3591007e-06 5.7640992e-08 1.6079122e-06 2.7033775e-05 0.0001512745 6.307698e-07
8.131781e-05 6.3480875e-05 9.887372e-07 6.7252686e-06 0.00038949784 5.448048e-05 2.219745e-07 3.0716008e-05
3.0898696e-05 3.4794624e-07 9.9944145e-06 9.996704e-05 1.1840965e-05 4.6969422e-08 1.6513491e-06 2.9967632e-06
7.3624705e-08 2.533729e-07 6.43475e-06 3.6712704e-06 2.337991e-08 1.9956253e-06 2.7297465e-06 3.6648217e-08
2.7739359e-06 1.0018585e-05 0.00012596877 5.604993e-07 9.444375e-05 6.4878746e-05 8.785837e-07 1.0217448e-05
0.00039998666 0.00019005466 7.8851815e-07 0.000100875295 0.00011383711 1.236009e-06 5.0933504e-05 0.00017154017
2.7748023e-05 1.017122e-07 1.19947545e-05 9.022993e-06 1.5943421e-07 1.6158157e-06 7.439039e-05 7.551103e-05
3.002309e-07 4.0024115e-05 3.1350108e-05 4.7061303e-07 9.451428e-06 0.0001654787 2.653164e-05 1.1554532e-07
1.1237477e-05 1.444903e-05 1.8111773e-07 7.0461565e-06 2.708157e-05 3.292708e-05 1.4221251e-07 1.9223644e-05
2.0076697e-05 2.2291852e-07 7.2006032e-06 5.736893e-05 0.00014441725 6.0236914e-07 8.805232e-05 8.166975e-05

exp_avg f4 [128]
00000000: b0f9 22b7 70dd af39 a8cf 1d38 a581 cd39
00000010: c9d5 6f38 86c1 7939 8870 8139 a802 66b9
00000020: cd45 6437 85f2 5539 743c 3dba e998 613a
00000030: 19de 123a 5df9 1139 be0c c038 0eaf 85b9
00000040: 5096 e7b8 2a8f a8b8 758e 6b3a 2264 a438
00000050: 55f1 09ba 3e1e 67b8 a4c1 42b8 98ff 82ba
00000060: 5fa3 e4b8 5750 3d39 9c56 37ba 7984 07b9
00000070: 2665 ea38 680b e637 0033 e939 9b6d 8639
00000080: c657 47b8 e91c 2139 a633 b339 a2c0 6db9
00000090: 9702 543a cb06 20b7 55c9 1739 a156 6d3a
000000a0: fb3d b4b9 1fe8 ae39 e0e2 03ba 3941 8338
000000b0: c2d6 353a fc44 0b39 068d b0b8 16e2 ddb8
000000c0: 4b7b 0339 aef1 c1b7 4617 7ab9 7ca8 d6b8
000000d0: 1367 003a bebf f4b9 f627 c7b7 0ebb 2ab8
000000e0: 664b 253a f7a3 953a ac4d cc38 8cac 6d38
000000f0: f50b acba fc97 4f38 1349 48b7 b391 0bb9
00000100: 866b e439 6766 3438 54e5 8439 a87c 2439
00000110: d93f 95b9 2f76 05b9 2200 45b6 3a26 d638
00000120: ce91 8db9 76f3 0aba 51f0 1cb8 cac3 9439
00000130: 5623 9bb6 92f8 c8b7 44a2 6639 871a c838
00000140: a5f7 f438 4b51 a238 0948 df37 d6b2 87ba
00000150: 7793 01ba eeca 95b8 96be 77b9 0ca9 f636
00000160: 1c43 8c38 0e63 f239 e0c4 a439 2a08 3739
00000170: 027d 4bb8 13d2 8537 488b a0b9 7fb5 2b3a
00000180: 73ce 513a 12c6 8939 b0cf 183a a164 8136
00000190: fa94 2b3a 0a01 5937 4bbe 36ba 0e9c 9db8
000001a0: e28f 9a37 6cb7 c4b7 33f6 9338 317b e7b9
000001b0: f9fa fab8 b9d2 9db7 e1a6 0cb8 91f0 fa37
000001c0: e284 1239 ff39 3737 6b8d 41ba c06a 62ba
000001d0: bda7 d638 5334 ee39 5a80 8d39 7349 c039
000001e0: b5a4 113a 4a21 7eb9 25a5 dbb9 e33d eb36
000001f0: 5b4f 5b39 8faf 1a38 928b 0ab9 6f01 77b9
-9.714087e-06 0.00033543585 3.7625112e-05 0.0003919724 5.7181143e-05 0.00023818584 0.0002468864 -0.00021935499
1.3606111e-05 0.00020403609 -0.0007218786 0.0008605854 0.0005602553 0.00013921173 9.157647e-05 -0.00025498163
-0.00011042936 -8.037531e-05 0.00089857663 7.8387806e-05 -0.00052620965 -5.5102857e-05 -4.6433546e-05 -0.0009994386
-0.000109023174 0.00018054374 -0.0006993802 -0.00012923953 0.0001117683 2.7423448e-05 0.0004447922 0.00025640134
-4.7527043e-05 0.00015364926 0.00034180022 -0.00022673843 0.0008087544 -9.538325e-06 0.00014475484 0.0009053741
-0.00034378454 0.0003336081 -0.00050310604 6.2587154e-05 0.00069366035 0.00013281772 -8.418602e-05 -0.00010580213
0.00012539064 -2.3119934e-05 -0.00023850528 -0.00010235698 0.0004898172 -0.00046682166 -2.3741257e-05 -4.0705367e-05
0.0006305486 0.0011416663 9.7419455e-05 5.66659e-05 -0.0013126122 4.9494192e-05 -1.1937943e-05 -0.0001331035
0.0004356766 4.3010714e-05 0.00025347865 0.00015686697 -0.00028467065 -0.00012727895 -2.9355365e-06 0.000102114354
-0.0002700225 -0.0005300561 -3.741711e-05 0.00028374634 -4.6234736e-06 -2.3957607e-05 0.00021994958 9.541684e-05
0.00011680954 7.739904e-05 2.6617216e-05 -0.001035298 -0.00049429334 -7.142672e-05 -0.00023626754 7.351051e-06
6.68822e-05 0.00046231638 0.000314272 0.00017455281 -4.8515394e-05 1.5952659e-05 -0.0003062135 0.00065501773
0.00080034806 0.0002627825 0.00058292877 3.8562143e-06 0.00065453316 1.293445e-05 -0.0006971105 -7.515411e-05
1.8425231e-05 -2.3450433e-05 7.0553644e-05 -0.00044151538 -0.00011967676 -1.8813984e-05 -3.353402e-05 2.9914345e-05
0.00013973148 1.0921153e-05 -0.00073834386 -0.0008637123 0.00010235559 0.00045433882 0.00026989245 0.00036675818
0.00055558543 -0.00024235729 -0.00041893977 7.0107503e-06 0.0002091503 3.6879963e-05 -0.000132127 -0.0002355629
