Scripts/mount/results/agent_03_2/AgentBehavior.onnx (onnx, 77754 bytes, 11 tensors)

discrete_act_size_vector f4 [1, 2]
0	0x40400000	3.0
1	0x40400000	3.0

network_body.observation_encoder.processors.0.normalizer.running_mean f4 [7]
0	0xbf0458b5	-0.51697856
1	0x3e7ffe9f	0.24999474
2	0x3e09dc0a	0.13462844
3	0xbefdc123	-0.49561414
4	0x3ea04073	0.3129917
5	0xbec7df1f	-0.39037415
6	0x402bde8c	2.6854582

network_body._body_endoder.seq_layers.0.weight f4 [128, 7]
0	0x3e9f69de	0.31135458
1	0x3efc4b0e	0.49276012
2	0x3e505954	0.20346576
3	0x3f1d9c5a	0.615667
4	0x3e5a867c	0.21340364
5	0x3b88e3e4	0.0041775573
6	0x3de8c5d3	0.11365857
7	0x3ec9ead3	0.3943697
8	0xbe0ec346	-0.13941678
9	0xbd732017	-0.059356775
10	0xbed0eb0a	-0.4080432
11	0x3c0e4495	0.008683343
12	0xbe2613f1	-0.16218545
13	0xbe2c9c31	-0.16856457
14	0x3e73a22e	0.23792335
15	0xbe83bb77	-0.25728962
16	0x3e3df3af	0.18549989
17	0xbebf2f65	-0.37340847
18	0xbd48b19a	-0.0489975
19	0xbf1e36a9	-0.61802155
20	0xbea73a63	-0.32661733
21	0xbddc2080	-0.107483864
22	0xbe8c0e7c	-0.273548
23	0x3f00b630	0.50277996
24	0x3df41fd6	0.11920135
25	0x3edcac5b	0.43100247
26	0xbf18813e	-0.5957221
27	0xbea56b59	-0.32308462
28	0xbd05fa46	-0.032709382
29	0xbe40da35	-0.1883324
30	0xbf4edaff	-0.8080291
31	0x3e9ac194	0.30225813
32	0xbf173f09	-0.5908056
33	0x3f124676	0.57138765
34	0xbe706f9a	-0.23480073
35	0x3f2378f4	0.63856435
36	0xbe0f55ef	-0.13997625
37	0x3ec626ea	0.38701564
38	0xbec68534	-0.387735
39	0x3c9e2a90	0.019307405
40	0x3ed731d9	0.42030218
41	0xbda4139c	-0.08011553
42	0xbd2a783e	-0.041618578
43	0xbeccb4ba	-0.39981633
44	0x3e2c617f	0.16834067
45	0xbe957b62	-0.29195696
46	0xbd459081	-0.048233513
47	0x3ebaf67e	0.36516184
48	0x3e368160	0.1782279
49	0xbde67d95	-0.112544216
50	0x3de311f0	0.11087406
51	0xbe55d243	-0.2088099
52	0xbe2b198b	-0.16708963
53	0xbf48da7a	-0.7845837
54	0x3eee3e09	0.46531704
55	0x3e82e033	0.25561675
56	0x3e7ef4ef	0.24898122
57	0xbf600e47	-0.87521785
58	0xbdfaec1e	-0.12252067
59	0xbf52cc35	-0.82342845
60	0xbdfef40b	-0.12448891
61	0x3debe99d	0.115191676
62	0x3e26fd0b	0.16307466
63	0x3e747c9c	0.2387566
64	0x3e523154	0.2052663
65	0xbd9fc20b	-0.07800683
66	0x3eded086	0.43518466
67	0x3f099866	0.53748167
68	0xbe90ffbe	-0.28320116
69	0x3f1b898e	0.60756767
70	0x3f5f4e6d	0.87229043
71	0x3f61e6e4	0.88242936
72	0x3f728321	0.94731337
73	0x3f05b5d0	0.5223055
74	0xbec973c9	-0.3934615
75	0xbe8c5b62	-0.2741347
76	0x3df4fb65	0.11962012
77	0x3f0632bd	0.5242117
78	0xbf514e3b	-0.81759995
79	0x3ce965e3	0.028490966
80	0xbf07fd00	-0.5312042
81	0x3e9fc2cd	0.3120331
82	0x3e256e42	0.16155341
83	0xbf01bf2d	-0.50682336
84	0xbe1e8e79	-0.15484037
85	0x3ecce5b6	0.40019006
86	0xbc461747	-0.012090511
87	0x3e873024	0.26403916
88	0x3ead316b	0.33826765
89	0xbeff8351	-0.49904874
90	0xbeb47e1c	-0.35252464
91	0x3e5478fb	0.20749275
92	0x3f85ee04	1.0463262
93	0x3d918fd1	0.07107509
94	0xbd763838	-0.060112208
95	0x3edd1fa8	0.43188214
96	0xbe1e11a7	-0.15436421
97	0xbeb70942	-0.3574925
98	0x3ed68181	0.4189568
99	0xbddb1377	-0.10697072
100	0x3e13f83d	0.14450164
101	0xbf349af1	-0.7054892
102	0x3eca46c0	0.39507103
103	0xbe39d99c	-0.18149418
104	0xbe4012ae	-0.18757126
105	0x3ec7b5db	0.39005932
106	0xbe95f350	-0.29287195
107	0xbe1fd8ad	-0.15609999
108	0x3e0921c2	0.13391784
109	0xbee439d9	-0.44575384
110	0x3f0d60d0	0.5522585
111	0xbcf2980b	-0.029613515
112	0xbf40c33a	-0.7529789
113	0x3e84fb7f	0.25973126
114	0x3e10410b	0.14087312
115	0x3da751d3	0.081699036
116	0xbe86ff25	-0.26366535
117	0xbe659a4e	-0.22422144
118	0xbeb5aacd	-0.35481873
119	0x3ee022ec	0.43776643
120	0xbdda581b	-0.10661336
121	0xbf0ed936	-0.5580019
122	0x3e387aeb	0.1801564
123	0xbedef41d	-0.4354562
124	0xbc85a019	-0.016311692
125	0x3e77c8f6	0.24197754
126	0x3efd68f5	0.49494138
127	0xbf057623	-0.5213339
128	0xbe82582a	-0.2545789
129	0xbebb12f5	-0.365379
130	0xbdafb7fd	-0.08580015
131	0xbcb32915	-0.021870175
132	0xbec89ca1	-0.39181998
133	0xbf2a4359	-0.66509014
134	0x3f3daa8e	0.7408837
135	0x3ea597ef	0.3234248
136	0xbf1da5a5	-0.6158088
137	0xbe3e4352	-0.18580368
138	0xbe81e416	-0.25369328
139	0x3eecfb31	0.46285394
140	0xbf486a53	-0.7828724
141	0xbe08661a	-0.13320199
142	0xbeb51e98	-0.35374904
143	0x3c93815c	0.01800602
144	0xbed89e3d	-0.42308226
145	0xbeb1abc0	-0.34701347
146	0xbe84e6ff	-0.25957486
147	0x3c8538bb	0.016262403
148	0xbeeac3b8	-0.45852447
149	0x3e37d78f	0.17953323
150	0xbee4f971	-0.4472156
151	0xbf079251	-0.52957636
152	0x3f5b2b11	0.8561259
153	0x3df40466	0.119149014
154	0x3ea079ba	0.3134287
155	0x3eb04667	0.34428713
156	0xbd8366a9	-0.06416065
157	0x3f2ea929	0.6822687
158	0x3eb2cb5b	0.34920773
159	0x3e79d6e5	0.24398382
160	0x3ec69da3	0.38792142
161	0x3d640b87	0.055675056
162	0xbe992bb3	-0.29916152
163	0x3e1d94fe	0.15388867
164	0x3ecefa00	0.4042511
165	0xbdd870d5	-0.10568396
166	0x3f2a0dc1	0.66427237
167	0xbe363c0a	-0.1779634
168	0xbed713a6	-0.42007178
169	0xbf040177	-0.51564735
170	0x3f182f26	0.5944694
171	0x3e691ab5	0.22764094
172	0xbdf8f159	-0.121554084
173	0x3ef4cc18	0.4781196
174	0x3f2adb8e	0.66741264
175	0xbcdef0c1	-0.02721441
176	0x3cff1a59	0.031140493
177	0x3e1ebbce	0.1550133
178	0x3ed872b2	0.42275006
179	0xbed0e580	-0.40800095
180	0x3ef69950	0.48163843
181	0x3ebc07d3	0.3672472
182	0xbde3c834	-0.1112217
183	0x3ef22c0f	0.4729924
184	0xbe3decee	-0.18547413
185	0x3f132be7	0.57488865
186	0xbebe065d	-0.3711423
187	0xbeb5c855	-0.35504404
188	0x3f107f2f	0.56444067
189	0xbee1439b	-0.4399689
190	0xbedaaa78	-0.42708182
191	0xbe6e7ee0	-0.23290586
192	0xbf3e994f	-0.7445268
193	0x3ed3b6c1	0.41350368
194	0xbeb324b0	-0.34988928
195	0x3e9a2cc9	0.30112293
196	0x3d7c7e15	0.06164368
197	0x3dcc8a96	0.09987371
198	0xbd9189ed	-0.071063854
199	0x3e56ec30	0.20988536
200	0x3d132fc6	0.035934232
201	0x3f11b36b	0.56914395
202	0xbe09ab06	-0.13444147
203	0x3c0b6257	0.008507333
204	0xbdd9797d	-0.10618875
205	0x3d5c16db	0.053732734
206	0x3ed5a84d	0.41729966
207	0x3ddd4425	0.10804013
208	0x3dda17a8	0.10649043
209	0x3eb2887c	0.34869754
210	0xbf30066f	-0.68759817
211	0xbe53774d	-0.20650978
212	0xbef931b5	-0.48670736
213	0xbe8db6a1	-0.27678397
214	0xbf120a35	-0.57046825
215	0x3e225280	0.15851784
216	0x3d103dd2	0.035215206
217	0x3e3f97cd	0.18710251
218	0x3f647fed	0.892577
219	0xbe8bdedd	-0.2731847
220	0x3e33be56	0.17553076
221	0xbea911cc	-0.3302139
222	0x3f83523b	1.025947
223	0x3e7f665f	0.24941395
224	0x3f4cc6fb	0.7999112
225	0x3c8fdb36	0.017560583
226	0x3f22c74c	0.6358535
227	0xbe45d06f	-0.19317792
228	0x3dd1bc37	0.10240977
229	0xbe637483	-0.22212414
230	0xbe5915a9	-0.21199669
231	0xbeb7d5ce	-0.35905308
232	0x3e814fe9	0.2525628
233	0x3ead00d0	0.33789682
234	0xbf1af91a	-0.6053635
235	0x3eeb3fbc	0.45947063
236	0xbd9bfa83	-0.07616141
237	0xbdc2014e	-0.09472905
238	0x3ce3759c	0.027766041
239	0xbe5cd119	-0.2156414
240	0x3ea41b19	0.32051924
241	0xbddcf796	-0.10789411
242	0x3d9eb61a	0.07749577
243	0xbe50d991	-0.20395495
244	0x3f2260ba	0.63428843
245	0x3efed715	0.4977347
246	0x3e280602	0.16408542
247	0xbea65f0e	-0.32494396
248	0xbef23c70	-0.47311735
249	0x3e98a642	0.29814345
250	0xbf33f8e8	-0.70301676
251	0x3e0eb933	0.13937835
252	0xbf017429	-0.5056787
253	0x3f88efad	1.0698143
254	0x3e1665ac	0.14687222
255	0x3f0453f6	0.51690614

network_body._body_endoder.seq_layers.0.bias f4 [128]
0	0x3d7148db	0.05890737
1	0x3ca428db	0.020039013
2	0x3d802dfb	0.0625877
3	0x3dae5e0c	0.08514032
4	0x3d038fab	0.032119434
5	0x3d4a704b	0.049423497
6	0xbe1d01ba	-0.1533269
7	0xbbb16146	-0.005413207
8	0x3caf2d4d	0.021383906
9	0xbcb9d967	-0.022686673
10	0xbbfa0427	-0.0076298895
11	0x3d7f67b4	0.06235476
12	0x3cd3fc8b	0.025877258
13	0x3d8aafdd	0.067718245
14	0x3d9c870c	0.07642946
15	0xbd03da52	-0.03219063
16	0x3dae0b42	0.08498241
17	0x3c21265e	0.009835808
18	0x3c29ffe5	0.010375951
19	0xbd9a1fc5	-0.07525591
20	0x3d7561ae	0.059907608
21	0x3d2280d5	0.039673645
22	0x3c4ec57f	0.012620329
23	0x3b8c952f	0.004290245
24	0xbd2173f8	-0.039417237
25	0xbd0368ed	-0.032082487
26	0x3d380fe6	0.044937037
27	0xbcec0108	-0.028809085
28	0x3be61b4a	0.007022296
29	0x3d32c8ed	0.04364865
30	0x3bd25c44	0.0064196903
31	0x3a95b563	0.0011421855
32	0x3d9e8902	0.07740976
33	0x3c6ee1f3	0.014580238
34	0xbe2e9234	-0.1704796
35	0xbbe62ffb	-0.0070247627
36	0x3dc756e2	0.097333685
37	0xbe1273b5	-0.14301951
38	0x3e0f1c5a	0.13975659
39	0x3d9e8cd3	0.07741704
40	0x3d1b98a5	0.03798737
41	0x3da3f5e8	0.08005887
42	0x3dbfbc71	0.09362114
43	0x3cdb6441	0.026781203
44	0x3cd734be	0.026270267
45	0x3d25870f	0.040412005
46	0xbe20422c	-0.15650243
47	0xbd874fe0	-0.06607032
48	0x3dae4f23	0.08511188
49	0x3cf509a0	0.029911816
50	0xbd7312fb	-0.059344273
51	0x3cf68fa2	0.030097786
52	0x3c47e2e1	0.012200088
53	0xbcc62c73	-0.024191117
54	0xbd9244bb	-0.071420155
55	0xbc717178	-0.014736526
56	0x3d5d8452	0.05408127
57	0xbd3b1be0	-0.04568088
58	0xbd93b8af	-0.0721296
59	0x3dd88bf3	0.10573568
60	0x3d4ae00b	0.04953007
61	0x3dd71684	0.105023414
62	0xbdce570e	-0.10075198
63	0x3b9a8c16	0.0047164066
64	0x3ba96aa8	0.005170185
65	0x3d447e59	0.047972057
66	0x3c8146a0	0.015780747
67	0x3cdcb2f3	0.026940798
68	0xbd1407ad	-0.036140133
69	0x3c0a7688	0.008451112
70	0x3d7a78a9	0.061150227
71	0x3d441d76	0.04787966
72	0x3c8a849a	0.016908932
73	0xbcc1c830	-0.023655027
74	0xbcfff36a	-0.031243999
75	0x3c9516df	0.018199382
76	0x3c64ebe4	0.013972256
77	0x3cb354a0	0.021890938
78	0x3ce9c457	0.028536005
79	0xbdd5ae3f	-0.104336254
80	0x3d0066d3	0.03134806
81	0x3d7098e2	0.05873955
82	0x3d14719a	0.03624115
83	0x3d97361f	0.0738337
84	0xbd0ad928	-0.033898503
85	0xbd54e299	-0.051973913
86	0x3c9895a9	0.018626051
87	0xbda9510a	-0.0826741
88	0x3d829b2f	0.06377255
89	0x3e00d3b4	0.12580758
90	0x3d09be30	0.033628643
91	0xbd2a13be	-0.041522734
92	0x3d83c350	0.06433737
93	0xbd9eff48	-0.07763535
94	0xbb192df3	-0.0023373335
95	0xbbc6b967	-0.006064582
96	0x3d989a16	0.074512646
97	0x3c7ec56d	0.01555
98	0x3caf70ab	0.021416029
99	0xbd0b4d59	-0.03400931
100	0x3da0fbc9	0.07860524
101	0x3cd68e96	0.026191037
102	0xbd154599	-0.036443327
103	0x3ac82d48	0.0015272284
104	0x3bfee94d	0.0077792765
105	0x3cde6d50	0.027151734
106	0x3d3d4670	0.046209753
107	0x3d72d530	0.059285343
108	0x3d0d368d	0.03447585
109	0x3dd6985a	0.104782775
110	0x3d768211	0.060182635
111	0x3d027a5d	0.031854976
112	0x3d9a53be	0.07535504
113	0xbd5fb514	-0.05461605
114	0xbc975c0d	-0.01847651
115	0x3c36e00f	0.011161818
116	0x3cc85d9c	0.024458699
117	0x3dc5a049	0.096497126
118	0x3dabc413	0.083870076
119	0xbca4ae3c	-0.020102613
120	0x3cf6741d	0.030084664
121	0x3d811137	0.063021116
122	0x3bc4d365	0.0060066455
123	0xbd2d9bd3	-0.042384934
124	0x3d144983	0.03620292
125	0x3dd1c5b9	0.10242791
126	0x3d475155	0.04866155
127	0x3cee0ecb	0.029059788

network_body._body_endoder.seq_layers.2.weight f4 [128, 128]
0	0x3ccf99fc	0.02534198
1	0x3e0f411b	0.1398968
2	0x3e1d7fc0	0.15380764
3	0xbdc5ec56	-0.09664218
4	0x3e82711f	0.2547693
5	0xbb0b44be	-0.002125069
6	0xbd8d29cc	-0.06892738
7	0x3d931395	0.07181469
8	0x3dc3ab69	0.09554178
9	0x3c70f40e	0.014706625
10	0x3d830d3b	0.06399008
11	0x3e863998	0.26215816
12	0xbb6e3daf	-0.0036352684
13	0xbd3bee05	-0.04588129
14	0x3e0a16d0	0.13485265
15	0xbd0d848c	-0.034550235
16	0x3c13fede	0.009032933
17	0x3e49d4f7	0.19710146
18	0x3dc439b0	0.095813155
19	0xbca73bb5	-0.020414213
20	0xbd46acb2	-0.04850454
21	0x3e42bc51	0.1901715
22	0xbd22208a	-0.039581813
23	0x3e0aa6bb	0.13540165
24	0x3c9c9364	0.01911325
25	0xbe70e4b9	-0.23524751
26	0xbe3c7d81	-0.18407251
27	0xbdb97dbd	-0.09057186
28	0x3c839278	0.016061053
29	0x3d50dbc0	0.05099082
30	0xbbde7d49	-0.0067898375
31	0x3d567f89	0.05236772
32	0x3d9d1a2a	0.07671006
33	0x3e63a112	0.22229412
34	0xbdaafea0	-0.08349347
35	0x3ce60de4	0.028082795
36	0xbd98e1fa	-0.074649766
37	0xbd46d3d5	-0.048541863
38	0xbd15bb85	-0.036555786
39	0xbe005955	-0.12534077
40	0x3cd0c5ff	0.025485037
41	0xbe58a358	-0.2115606
42	0xbe3f4cdc	-0.18681663
43	0x3dabab54	0.083822876
44	0xbdc2a7b4	-0.09504643
45	0x3dc68d8d	0.096949674
46	0x3d02e75a	0.031958915
47	0xbda2b178	-0.07944006
48	0xbe98ada8	-0.2981999
49	0x3dd267d5	0.10273711
50	0xbc8d2ac8	-0.017232314
51	0x3e423254	0.18964511
52	0x3d33537d	0.043780793
53	0x3d2684bf	0.04065394
54	0x3e048602	0.12941745
55	0x3dc1c63b	0.094616376
56	0x3b9feb43	0.0048803403
57	0xbc06f38a	-0.008236775
58	0xbdb9ad71	-0.090662844
59	0xbda6877a	-0.08131309
60	0xbe3dd9f8	-0.1854018
61	0xbe57adac	-0.21062344
62	0xbe211c3f	-0.15733431
63	0xbd41bd42	-0.04729963
64	0xbcf79905	-0.030224333
65	0x3d1b7aef	0.037959035
66	0x3e959157	0.29212448
67	0x3d26bcb2	0.040707298
68	0x3d70419c	0.05865632
69	0x3db15790	0.08659279
70	0xbdebd9f3	-0.1151618
71	0x38c8d9fe	9.5773474e-05
72	0xbd94f851	-0.07273925
73	0xbc6ad76b	-0.014333586
74	0x3da100d6	0.078614876
75	0xbbb913f1	-0.005648129
76	0x3d5a29f3	0.053262662
77	0x3c8f9092	0.017524991
78	0x3d9de75d	0.07710145
79	0x3d9845d8	0.07435197
80	0xbd5f87eb	-0.05457298
81	0x3dfb94bd	0.12284229
82	0x3d78eb94	0.06077154
83	0x3df8594d	0.12126408
84	0x3e19f1fb	0.15033714
85	0x3dd3e218	0.10345858
86	0x3c46ed86	0.012141591
87	0x3c5e08e5	0.013551925
88	0x3d373399	0.04472694
89	0xbd7158f4	-0.058922723
90	0x3bf1b257	0.007375996
91	0xbd3e497c	-0.0464568
92	0xbd9c0d00	-0.07619667
93	0xbdd80e9c	-0.105496615
94	0xbdcd4e8f	-0.100247495
95	0x3cbdc0f9	0.023163306
96	0xbe5a6f4c	-0.21331519
97	0x3c4093dc	0.011754002
98	0x3d56c454	0.052433327
99	0x3c943dab	0.018095812
100	0x3d0fa286	0.035067104
101	0x3d35bb33	0.04436798
102	0x3c987612	0.018610988
103	0x3cacd58a	0.021097917
104	0x3d80642f	0.062691085
105	0x3c88591b	0.016644051
106	0x3e2ec5b8	0.17067611
107	0xbca2be97	-0.019866271
108	0xbd793888	-0.060844928
109	0xbe8c13be	-0.27358812
110	0x3e358eb1	0.17730214
111	0x3e5b8b34	0.2143982
112	0xbe1eabdc	-0.15495247
113	0x3d2393af	0.039935764
114	0x3dfea295	0.12433354
115	0xbe463f76	-0.19360146
116	0xbe33a250	-0.17542386
117	0xbd199007	-0.03749087
118	0xbcc6e8ef	-0.024280993
119	0xbc87805b	-0.016540697
120	0x3a231422	0.00062209566
121	0x3d22ec3a	0.039776064
122	0xbd8f25da	-0.069896415
123	0x3dc568ce	0.096391305
124	0x3ddec3db	0.108772
125	0xbd00731e	-0.031359784
126	0xbe139ee5	-0.14416082
127	0xbd2f862b	-0.042852562
128	0xbe3d7653	-0.18502168
129	0xbcca67f8	-0.02470778
130	0xbaed9f95	-0.0018129224
131	0xbcf4eb78	-0.029897436
132	0xbd71a89d	-0.058998693
133	0xbc85791e	-0.016293105
134	0xbd93851a	-0.072031215
135	0x3d2bf8dd	0.04198538
136	0xbdcf0e45	-0.101101436
137	0x3d572e81	0.052534584
138	0xbe686eb4	-0.2269848
139	0xbd77a6b6	-0.060461722
140	0x3e09009b	0.13379137
141	0x3df67484	0.12033942
142	0x3c219ba6	0.00986377
143	0xbd2bc2fc	-0.041934
144	0x3e2fc1f2	0.17163828
145	0xbdac4cc3	-0.08413079
146	0xbce1e924	-0.02757699
147	0x3e2f4890	0.17117524
148	0x3d4a79b7	0.049432483
149	0x3dddf10d	0.108369924
150	0xbd7e8f34	-0.062148288
151	0xbdf1dad7	-0.118093185
152	0xbdacbabc	-0.08434054
153	0xbeb4fbff	-0.35348508
154	0xbdef61e3	-0.11688592
155	0x3d53cf08	0.051711112
156	0x3dd22622	0.102611795
157	0xbe0d05e5	-0.1377178
158	0xbd42a327	-0.047518875
159	0xbdc55413	-0.096351765
160	0xbd9c215c	-0.0762355
161	0x3de55bfd	0.11199186
162	0x3e0949f7	0.13407122
163	0xbd2516e0	-0.04030502
164	0x3df84c55	0.12123934
165	0xbd1eb24a	-0.03874425
166	0x3ccc7743	0.024959212
167	0x3ba11afb	0.0049165464
168	0x3ce022b9	0.027360307
169	0x3c04abfe	0.008097647
170	0x3d964ba9	0.0733865
171	0xbe3e5916	-0.18588671
172	0x3d4da381	0.050204758
173	0x3d26eb49	0.04075173
174	0xbdba44ef	-0.09095179
175	0xbdaa4861	-0.083145864
176	0x3d096018	0.033538908
177	0x3d436ca0	0.047711015
178	0xbe2ae795	-0.16689904
179	0x3bf1295e	0.0073596677
180	0x3d97484d	0.07386837
181	0xbe16bc7f	-0.14720343
182	0xbbefd7fc	-0.0073194485
183	0xbe51cd8f	-0.2048857
184	0x3e29596b	0.16538016
185	0xbe03865e	-0.12844226
186	0xbe20d11f	-0.15704773
187	0x3da35e62	0.079769865
188	0x3d340554	0.043950394
189	0x3d25d1ea	0.040483393
190	0xbe3af7c8	-0.18258584
191	0x3e0f2ccb	0.13981931
192	0xbc9da898	-0.01924543
193	0x3d15bbe5	0.036556143
194	0xbd96c683	-0.07362082
195	0xbd9aec4e	-0.07564603
196	0xbd2d63a3	-0.04233135
197	0xbd26886b	-0.040657442
198	0xbdb272ba	-0.087132886
199	0x3d1256e2	0.03572739
200	0x3e43b8ed	0.19113512
201	0x3daff28d	0.08591185
202	0xbe397f4c	-0.18114966
203	0x3df856ab	0.121259056
204	0x3e258485	0.16163833
205	0xbc94a4f2	-0.018145058
206	0xbe190235	-0.14942248
207	0xbd63f90a	-0.055657424
208	0x3c58364c	0.013196539
209	0x3dc144b1	0.0943693
210	0x3cd3de50	0.025862843
211	0x3d39d196	0.045365892
212	0xbd35d1bc	-0.04438947
213	0x3d44d50e	0.048054747
214	0x3bfd1e4e	0.00772456
215	0xbcc38abf	-0.02386987
216	0xbe86ea27	-0.2635052
217	0x3e8a4969	0.27009133
218	0x3b3ecfb9	0.0029115512
219	0xbe63245c	-0.22181839
220	0xbd400552	-0.046880074
221	0xbc3dcd85	-0.011584644
222	0xbd2c3c5d	-0.042049754
223	0x3c9f67a9	0.019458609
224	0x3d65c572	0.0560965
225	0x3d8384f1	0.06421841
226	0x3e27a717	0.16372333
227	0xbc554226	-0.013016259
228	0xbccf81c9	-0.025330441
229	0x3da3929b	0.07986947
230	0xbe69afb7	-0.22820936
231	0x3b46abe3	0.0030314855
232	0x3e387400	0.18013
233	0x3d84a844	0.064774066
234	0xbd452b82	-0.048137195
235	0x3e422644	0.1895991
236	0xbc9f054f	-0.019411711
237	0xbc3487cd	-0.011018706
238	0xbe2b59d4	-0.16733485
239	0xbe4e7989	-0.2016355
240	0x3e07a877	0.13247858
241	0xbe909412	-0.2823797
242	0xbd684b53	-0.05671246
243	0xbded0260	-0.115727186
244	0x3da44784	0.08021453
245	0x3d948bc9	0.072532244
246	0xbda1e2a3	-0.07904556
247	0xbe137faf	-0.14404176
248	0xbda6bb6f	-0.08141219
249	0xbdb9ccb6	-0.09072249
250	0xbcae64e9	-0.021288352
251	0x3db62933	0.08894577
252	0xb8c5cbb6	-9.431636e-05
253	0x3c8a9720	0.016917765
254	0xbdaeb0a4	-0.08529785
255	0x3e177465	0.14790495

network_body._body_endoder.seq_layers.2.bias f4 [128]
0	0x3c9ca96b	0.019123754
1	0x3d685ecd	0.056731034
2	0x3d3c5810	0.04598242
3	0x3db5433a	0.08850713
4	0xbc7b991f	-0.015356331
5	0xbb0e9210	-0.002175454
6	0xbd19c4f4	-0.037541345
7	0x3aeb0ba3	0.0017932545
8	0x3d9f982d	0.07792697
9	0x3d0ea074	0.03482099
10	0x3d3352fd	0.043780316
11	0x3b44e3cd	0.0030043006
12	0x3d8a5180	0.06753826
13	0x3dbc4585	0.09192947
14	0x3b1fe0cf	0.002439547
15	0x3c717daa	0.014739433
16	0x3d41b466	0.047291182
17	0x3c4a8783	0.01236141
18	0x3ce545e8	0.027987435
19	0x3d254bf3	0.040355634
20	0x3c647160	0.013943046
21	0x3dbd146b	0.0923241
22	0xbbe88e3b	-0.0070970333
23	0xbb063a84	-0.0020481655
24	0x3cf16b48	0.029470101
25	0xba023ba7	-0.00049679953
26	0x3ce79901	0.0282712
27	0x3ca34ceb	0.019934138
28	0x3cb9ff17	0.022704644
29	0x3d58ff2a	0.05297772
30	0x3d8cb77a	0.06870933
31	0x3c75aa43	0.014994207
32	0x3d8f3314	0.06992164
33	0x3d999ca8	0.07500583
34	0x3d08bf9a	0.03338585
35	0x3b36673e	0.0027832533
36	0x3dc54c85	0.096337356
37	0x3de7e880	0.11323643
38	0xbc79a500	-0.015237093
39	0x3cea60a5	0.028610537
40	0x3da24f07	0.079252295
41	0xbda22124	-0.07916477
42	0xbc91b009	-0.017784135
43	0x3d3cd397	0.046100225
44	0x3c62d39b	0.013844396
45	0x3da1df44	0.07903913
46	0xbc8bf0cb	-0.017082592
47	0x3d276a8f	0.040873107
48	0x3d70b40a	0.05876545
49	0x3db0393f	0.08604669
50	0xbaaa4dc3	-0.0012993146
51	0x3d3c45f3	0.045965146
52	0x3d84b634	0.06480065
53	0xbcb1b57f	-0.02169299
54	0x3cb8173d	0.022472018
55	0x3dc509fa	0.096210435
56	0x3be8471a	0.007088554
57	0xbcbafe0d	-0.022826219
58	0x3daaaec3	0.083341144
59	0x3da96b83	0.08272459
60	0x3cd0bdf3	0.0254812
61	0x3d33ba82	0.04387904
62	0x3d860bdd	0.065452315
63	0x3de2659b	0.11054536
64	0xb991b37e	-0.00027790287
65	0x3d91705a	0.071015075
66	0xba9990eb	-0.0011716163
67	0x3b8d99b7	0.0043213028
68	0x3d840cda	0.06447764
69	0x3d36cd11	0.04462916
70	0x3d2f044c	0.042728707
71	0x3dac6194	0.08417049
72	0xbcfc33d9	-0.030786442
73	0x3c12fb77	0.008971087
74	0x3dd0b9e4	0.10191706
75	0x3dc6e041	0.09710742
76	0x3db276e8	0.08714086
77	0xbd717c1e	-0.058956258
78	0xbbac33a3	-0.005255179
79	0x3c3254a6	0.01088444
80	0x3d09739a	0.033557512
81	0xbd1b2312	-0.037875243
82	0x3d34347b	0.04399536
83	0x3cd9491c	0.02652412
84	0x3c5ba0fe	0.013405083
85	0x3d88b5d6	0.066753075
86	0x3bb208ac	0.0054331627
87	0x3d867c18	0.06566638
88	0xbd8733d1	-0.0660168
89	0x3c550568	0.013001777
90	0xbd896b27	-0.06709891
91	0x3d6ed9df	0.058313247
92	0x3ddf3e3d	0.10900543
93	0xbceffa83	-0.029294258
94	0x3d7ff933	0.062493514
95	0x3d0e175a	0.03469024
96	0x3b71b8ba	0.0036883787
97	0x3d066372	0.032809682
98	0x3cb613ce	0.02222624
99	0x3d3096fd	0.043112744
100	0x3d92d38a	0.07169254
101	0x3c97f932	0.018551443
102	0x3dfae891	0.1225139
103	0x3d13ec0f	0.036113795
104	0xbd906bb5	-0.070517935
105	0x3d8dae97	0.06918066
106	0x3b8e9173	0.004350835
107	0x3c981dfd	0.018568987
108	0xbd866f84	-0.06564239
109	0x3d894998	0.0670349
110	0xbd2f6b74	-0.042827085
111	0xbc4870cc	-0.012233924
112	0x3d849a0c	0.064746946
113	0x3c97aa9b	0.018513968
114	0xbbdcca32	-0.0067379707
115	0xbd91a0fc	-0.071107835
116	0x3c910e92	0.017707143
117	0x3d824f6d	0.063628055
118	0xbb810416	-0.0039372547
119	0xbd310b33	-0.04322357
120	0x3ce4045b	0.027834108
121	0x3ce6511d	0.02811485
122	0x3d89f925	0.06736974
123	0x3d428c87	0.0474973
124	0x3db8272d	0.08991847
125	0x3d07e828	0.033180386
126	0x3dc9492d	0.0982841
127	0x3d6dc2f1	0.05804724

action_model._discrete_distribution.branches.0.weight f4 [3, 128]
0	0x3c8386cf	0.016055493
1	0x3d6a4131	0.057191078
2	0xbd104003	-0.035217296
3	0x3bee1596	0.007265757
4	0xbcc6bcec	-0.024260007
5	0xbc0f6785	-0.008752708
6	0xbc8bb6fd	-0.017055029
7	0xbd43c3fe	-0.047794335
8	0xbce2da00	-0.027691841
9	0xbd8c8c49	-0.06862695
10	0x3b815881	0.003947318
11	0xbd26c964	-0.040719405
12	0xbca85504	-0.020548351
13	0xbc7e7f46	-0.015533274
14	0xbc31a515	-0.010842581
15	0x3c921816	0.01783375
16	0x3d13050e	0.035893492
17	0xbd545961	-0.05184305
18	0x3b2d1ba6	0.0026414185
19	0xbc8a2d40	-0.01686728
20	0xba058c15	-0.0005094421
21	0x3cc1da61	0.023663701
22	0xbc87dbed	-0.016584361
23	0x3bcc8bb2	0.006242239
24	0xbdae8b56	-0.0852267
25	0xbd4a7dbe	-0.049436323
26	0xbc339985	-0.010961895
27	0x3d13dca0	0.036099076
28	0x3c811c46	0.015760552
29	0x3d506256	0.05087503
30	0xbd11a056	-0.0355533
31	0x3ce8c0f6	0.028412323
32	0x3c82f569	0.015986161
33	0xbccf0835	-0.025272468
34	0x3d5c81e6	0.05383482
35	0x3d3a3650	0.045461953
36	0xbc0448ee	-0.008074028
37	0x3cacaf23	0.021079605
38	0x3d0663ea	0.03281013
39	0x3d3eeadf	0.04661071
40	0xbca65419	-0.020303773
41	0xbb6eb090	-0.0036421157
42	0x3c18059a	0.009278679
43	0x3b15a5c1	0.0022834393
44	0xbc10a6ed	-0.008828861
45	0xbccb86da	-0.024844576
46	0x3c192fe1	0.009349794
47	0x3b3de5d1	0.0028976093
48	0xbda1c75f	-0.07899355
49	0x3d99740c	0.07492837
50	0x3c735156	0.014850935
51	0xbb0fb7db	-0.0021929655
52	0x3c15d90d	0.009145987
53	0xbce17547	-0.027521743
54	0xbc68ebcd	-0.014216376
55	0x3cba67bc	0.022754543
56	0xbd2b6e46	-0.04185321
57	0xbd871209	-0.06595237
58	0x3d9a1070	0.075226665
59	0xb93fe27d	-0.00018299553
60	0xbd72814f	-0.05920535
61	0x3d688541	0.056767706
62	0x3c869f5a	0.016433407
63	0xbced0977	-0.028935177
64	0xbb96cf46	-0.0046023456
65	0x3bc951c2	0.0061437795
66	0xbc32be51	-0.010909633
67	0xb7ffee83	-3.0509435e-05
68	0x3b825f20	0.003978625
69	0x3a01444f	0.0004931138
70	0xba208994	-0.00061240164
71	0x3b8afec7	0.0042417976
72	0x3afff03c	0.0019526551
73	0xbcb00847	-0.021488322
74	0x3d4ab26b	0.04948656
75	0x3d0bfac8	0.03417471
76	0x3d881ced	0.06646142
77	0xbd2ca10f	-0.042145785
78	0x3ac95e84	0.0015363251
79	0xbc333947	-0.010938949
80	0xbb94a9b4	-0.0045368318
81	0x3bab9778	0.0052365623
82	0x3d212a44	0.03934695
83	0xbc31ad48	-0.010844536
84	0xba7ef01e	-0.00097251113
85	0x3cade756	0.021228474
86	0xbcc888bc	-0.024479263
87	0xbd15bfe8	-0.03655997
88	0x3aa3c32e	0.0012494081
89	0x3c9f3a50	0.019436985
90	0xbd3fd6b7	-0.046835627
91	0x3d91c03e	0.071167454
92	0x3d1d1a67	0.038355257
93	0x3ccab901	0.02474642
94	0x3c389e95	0.011268278
95	0xbc09a94e	-0.008402182
96	0x3c94c942	0.018162373
97	0x3c391624	0.011296783
98	0xbd7aef54	-0.061263397
99	0x3d42839b	0.04748879
100	0xbcef99df	-0.029248176
101	0x3bd2fad8	0.0064385943
102	0x3d37904e	0.044815354
103	0xbcdcb11a	-0.026939917
104	0xbbd25077	-0.0064182836
105	0xbccb4918	-0.024815127
106	0xbbe9a764	-0.00713055
107	0xbd0835c8	-0.033254415
108	0x3c8e919d	0.017403418
109	0x3cf72909	0.030170934
110	0xbc739acd	-0.01486845
111	0x3ba4216d	0.0050088675
112	0xbd34902e	-0.044082813
113	0xbb0df0f9	-0.0021658523
114	0x3b66b32c	0.003520201
115	0xbc5c9c5b	-0.013465012
116	0x3c95033d	0.01819002
117	0xbd220021	-0.039550904
118	0xbbec352a	-0.007208486
119	0x3c056a27	0.0081429845
120	0x3c95e2cc	0.018296622
121	0xbd481ce6	-0.048855685
122	0xbd092113	-0.033478808
123	0xbc5eaa6a	-0.013590435
124	0x3c936ce0	0.017996252
125	0x3d037be4	0.032100573
126	0xbc7cd27a	-0.015431041
127	0xbcc12ae9	-0.023580031
128	0x3dc00255	0.09375445
129	0xbdb9ec2d	-0.0907825
130	0xbddc6672	-0.107617274
131	0xbe236db5	-0.15959819
132	0x3cdc494a	0.026890416
133	0x3ba82da9	0.0051323962
134	0x3cd962f9	0.026536452
135	0x3d98f03c	0.07467696
136	0xbdb8c04d	-0.090210535
137	0xbd55f7c1	-0.05223823
138	0x3dcae4ea	0.09906943
139	0x3d24634f	0.04013377
140	0xbcf4b58c	-0.029871725
141	0xbe2433fe	-0.16035458
142	0x3c8cf98e	0.01720884
143	0x3be06627	0.006848115
144	0x3d7034f5	0.058644254
145	0x3dc8ff32	0.098143
146	0xbcd66dcb	-0.0261754
147	0x3e140874	0.1445635
148	0x3c6ecff1	0.014575944
149	0xbe23b2ff	-0.1598625
150	0x3cf9b1ce	0.030480292
151	0x3d5b74c7	0.053578164
152	0xbc9ff5ce	-0.019526388
153	0x3c2a1070	0.010379896
154	0xbd69d06f	-0.057083543
155	0x3d7e3c02	0.062068947
156	0x3dcd945b	0.10038062
157	0xbd35f515	-0.04442318
158	0xbdab30a9	-0.083588906
159	0x3ccd935c	0.02509468
160	0xbd94684e	-0.07246457
161	0xbe174c17	-0.1477512
162	0xbd7afb79	-0.06127498
163	0x3d57e879	0.052711938
164	0xbda2aebc	-0.07943484
165	0xbda69efc	-0.081357926
166	0xbc2d9c1e	-0.010596303
167	0x3d7a415d	0.06109749
168	0xbd108344	-0.035281435
169	0x3bdbcec3	0.0067079975
170	0xbc06f813	-0.008237856
171	0x3dd849e0	0.105609655
172	0x3d795138	0.06086847
173	0xbe129c0f	-0.14317344
174	0x3cec9bf9	0.028882967
175	0x3d0aca24	0.033884183
176	0xbd2e31ea	-0.04252807
177	0xbbb8d3a7	-0.0056404653
178	0x3d38a654	0.045080498
179	0x3de04fd8	0.10952729
180	0xbd4469da	-0.04795251
181	0x3d94c7c5	0.072646655
182	0x3cd6ff95	0.026244918
183	0xbdddc68e	-0.10828887
184	0xbc8f56ee	-0.017497506
185	0x3cf32cb0	0.029684395
186	0xbe0720ef	-0.13196157
187	0x3dbdc659	0.092663474
188	0xbd9154cc	-0.07096252
189	0x3cfe6034	0.031051733
190	0x3dcab090	0.09896958
191	0x3d36d430	0.04463595
192	0x3dba8dbc	0.09109065
193	0x3c662d54	0.014048893
194	0x3d576fe7	0.052596953
195	0x3e004881	0.12527658
196	0xbdb0e34b	-0.08637103
197	0x3e19649b	0.14979784
198	0xbd4f2781	-0.050574783
199	0xbdf46978	-0.11934179
200	0x3d92b175	0.071627535
201	0x3dfd4be5	0.12367991
202	0xbdd06a03	-0.1017647
203	0xbb8676f4	-0.004103536
204	0xbe06d1f6	-0.13166031
205	0x3c87be5e	0.016570266
206	0xbc8af392	-0.016961847
207	0x3da250bd	0.07925556
208	0x3da59326	0.08084707
209	0x3d39db01	0.045374874
210	0xbc8b73bd	-0.017022962
211	0x3c161824	0.009161029
212	0xbc961461	-0.018320264
213	0xbd3c43d9	-0.045963142
214	0x3dbe4587	0.09290605
215	0xbb245f07	-0.0025081055
216	0xbb53deaa	-0.0032328763
217	0x3c8e72bb	0.017388692
218	0x3c80b2bc	0.015710227
219	0xbdc0b71b	-0.094099246
220	0x3ad3813a	0.0016136535
221	0x3d59004e	0.052978806
222	0x3d3c0795	0.04590567
223	0xbd5415cb	-0.051778596
224	0x3d93f125	0.07223729
225	0x3da9ba7d	0.08287523
226	0x3dd4aefe	0.103849396
227	0xbcf547db	-0.02994149
228	0xbdc11f08	-0.09429747
229	0x3dd03ca1	0.10167814
230	0xbde4cb1b	-0.11171552
231	0x3c9f66ae	0.019458141
232	0x3d5c6fe1	0.053817634
233	0xbe180223	-0.14844565
234	0x3d1ca3ec	0.038242266
235	0xba49272a	-0.00076733774
236	0x3ce52418	0.027971312
237	0xbd777c5d	-0.060421336
238	0xba89fdeb	-0.0010527944
239	0x3c692069	0.014228919
240	0xbdceb2c9	-0.10092694
241	0x3d96d4b5	0.073647894
242	0x3cf13343	0.029443389
243	0x3dab6f9a	0.08370896
244	0x3d9cec45	0.07662252
245	0xbdef6e53	-0.116909645
246	0xbc8e47c1	-0.0173682
247	0x3d9eb62c	0.0774959
248	0x3d9d14bd	0.07669971
249	0x3de2c023	0.110718034
250	0xbd4b22e1	-0.04959381
251	0x3d97adcd	0.07406197
252	0xbe304b01	-0.17216112
253	0x3d0fd5f1	0.03511614
254	0xbd59cd56	-0.05317434
255	0xbda6ead7	-0.08150261

action_model._discrete_distribution.branches.0.bias f4 [3]
0	0x3d0c60f6	0.034272157
1	0xbd43b0bf	-0.04777598
2	0x3c871840	0.016491055

action_model._discrete_distribution.branches.1.weight f4 [3, 128]
0	0xbbb6a563	-0.005573915
1	0x3be7c71c	0.0070732962
2	0xbcb75bc1	-0.022382619
3	0xbd157a0d	-0.03649335
4	0xbd72d925	-0.059289116
5	0x3cb84c18	0.022497222
6	0x3c942e53	0.018088495
7	0xbbd5f3e8	-0.00652932
8	0xbd4ddcf3	-0.05025954
9	0x3c0c2884	0.008554582
10	0xbc21e447	-0.009881086
11	0xbcdaf948	-0.026730195
12	0xbcafa4ab	-0.021440824
13	0x3d01ef70	0.031722486
14	0xbd7a5663	-0.06111754
15	0xbcc46a35	-0.023976425
16	0x3d7c325b	0.06157146
17	0xbca3945c	-0.019968204
18	0xbcc986e9	-0.024600463
19	0xbb6a6bac	-0.0035769744
20	0xb7cb5e23	-2.4243322e-05
21	0xbce42ee4	-0.02785439
22	0xbd3b1334	-0.04567261
23	0x3c08e788	0.008355983
24	0xbd0b279e	-0.03397333
25	0xbd2c0532	-0.041997142
26	0xbd2292c1	-0.039690737
27	0x3c67c83f	0.0141468635
28	0xba90ba5f	-0.0011041871
29	0x3c1aa6f4	0.009439219
30	0xbd026993	-0.031838965
31	0xbb8fee20	-0.0043924004
32	0xbd8e66db	-0.06953212
33	0xbc365fc2	-0.011131229
34	0xbc81f2a6	-0.015862774
35	0xbc4e3867	-0.01258669
36	0xbb73cc03	-0.0037200458
37	0x3c5c76d1	0.013456062
38	0xbd2c697f	-0.042092796
39	0xbb3cff85	-0.0028838825
40	0x3bb45233	0.005502963
41	0x3b7fbac2	0.0039021228
42	0xbd63fb79	-0.055659745
43	0x3cabb7a8	0.020961598
44	0x3d1d8a74	0.038462117
45	0x3b71d147	0.003689842
46	0xbccdb7ad	-0.025111998
47	0x3bbb571b	0.005717171
48	0xbd20769b	-0.03917561
49	0x3d2b1719	0.041770075
50	0xbce1990b	-0.027538797
51	0xbb542a31	-0.003237378
52	0x3c9a3875	0.018825749
53	0xbc788a30	-0.015169665
54	0x3cea2af3	0.028584933
55	0xbd6be9f8	-0.057596177
56	0xbd4eb28b	-0.05046324
57	0xbd26038e	-0.040530734
58	0x3cbfe1c3	0.023423081
59	0x3cea82d2	0.028626833
60	0xbc6ae273	-0.014336216
61	0x3d604467	0.054752734
62	0xbca7e138	-0.020493135
63	0x3cdf1199	0.02723007
64	0xbc775007	-0.015094764
65	0x3c918eaa	0.017768223
66	0xbba90a85	-0.0051587247
67	0xbc7b6364	-0.015343521
68	0xbd3a1589	-0.045430694
69	0xbba05c5a	-0.0048938217
70	0xbd50c97c	-0.0509734
71	0xbc53d539	-0.012929254
72	0xbc21eb0f	-0.0098827025
73	0x3cc8f3c3	0.024530297
74	0xba98a203	-0.0011644963
75	0x3d3af93d	0.04564785
76	0x3b1d0cf9	0.002396403
77	0xbc907324	-0.017633028
78	0xbc9edf0a	-0.019393463
79	0xbc949613	-0.018137967
80	0x3c5a5133	0.013325023
81	0x3c8f54cd	0.01749649
82	0xbd1e6c65	-0.03867759
83	0xbd8face7	-0.070154004
84	0xbd266f92	-0.040633745
85	0xbb9c5e02	-0.004771949
86	0x3bc7937b	0.006090579
87	0xbc0c7ffb	-0.008575435
88	0x3c2f21b1	0.010689185
89	0x3be8f4df	0.007109269
90	0x3bce5eab	0.0062979064
91	0xbc88fafc	-0.016721241
92	0x3c2b4b76	0.010455003
93	0x3cb384e9	0.021913962
94	0x3d08d9c5	0.033410806
95	0xbd79aded	-0.060956884
96	0x3b8bc0b2	0.0042649144
97	0x3b0e0369	0.0021669513
98	0xbc3fcbeb	-0.011706333
99	0xbcef97fa	-0.029247273
100	0xbd011c98	-0.03152141
101	0x3c087b02	0.008330109
102	0x3c0b2d2c	0.0084946565
103	0xbca0f36e	-0.019647326
104	0x3c05ad09	0.008158931
105	0xbc853e5c	-0.016265087
106	0xbcd648e9	-0.026157813
107	0xbd316b2d	-0.0433151
108	0x3c617999	0.013761901
109	0xbc8601d6	-0.016358297
110	0x3d4f5518	0.05061826
111	0xbd57b168	-0.052659422
112	0xbb825e3c	-0.003978519
113	0xbcac6ad6	-0.021047037
114	0xbcaa855c	-0.020815544
115	0x3d3d1271	0.046160165
116	0x3a9a31a1	0.0011764058
117	0x3d2d77e9	0.042350683
118	0xbd62ceec	-0.055373117
119	0x3c4c77a1	0.012479694
120	0x3c578f46	0.013156718
121	0xbd433ce9	-0.04766551
122	0xbd5e75df	-0.05431163
123	0x3c6505eb	0.013978462
124	0x3c2a47d2	0.0103931
125	0xb9ebf981	-0.00045008588
126	0x3aac721f	0.0013156569
127	0x3cd9279d	0.026508147
128	0xbd79a82f	-0.060951408
129	0x3cdda202	0.02705479
130	0xbd11dc43	-0.03561045
131	0x3bc29c65	0.005939054
132	0x3c2120b4	0.009834457
133	0x3cc66b04	0.02422095
134	0xbe2d04ec	-0.16896409
135	0xbd152419	-0.03641138
136	0xbbcaa24d	-0.0061838985
137	0x3cc19872	0.023632262
138	0x3c472f54	0.01215728
139	0x3cf4eab1	0.029897066
140	0x3ddf3311	0.10898412
141	0x3d2a7680	0.041616917
142	0xbc685813	-0.014181155
143	0xbe4a6801	-0.19766237
144	0x3d9e9339	0.07742924
145	0x3c994081	0.018707516
146	0xbe3f3947	-0.18674193
147	0xb99a6c59	-0.00029453894
148	0xbdd2af8b	-0.102873884
149	0xbd8479f8	-0.06468576
150	0xbd921b01	-0.07134057
151	0x3d00d686	0.031454585
152	0x3c8c7b86	0.017148744
153	0xba2263f6	-0.0006194705
154	0xbd1ff57d	-0.039052475
155	0x3b18cfc0	0.0023317188
156	0xbca185f6	-0.019717198
157	0x3cf3c76a	0.029758174
158	0xbce47868	-0.027889445
159	0x3c74b2c3	0.014935198
160	0x3c066c42	0.008204522
161	0x3c3acb63	0.01140103
162	0xbe45c06e	-0.19311687
163	0xbd92bb16	-0.0716459
164	0x3dbfa55f	0.09357714
165	0x3e0b4ce7	0.13603555
166	0xbe177243	-0.14789681
167	0xbd82fbab	-0.06395658
168	0x3da9282b	0.082596146
169	0xbdd9b6ff	-0.10630607
170	0x3cae3b20	0.021268427
171	0x3cb97f2d	0.02264365
172	0x3d87e109	0.06634719
173	0x3ce6c5e5	0.028170535
174	0xbc97bf36	-0.018523794
175	0x3dba729b	0.091038905
176	0x3d00bcc7	0.031430032
177	0x3dd51c35	0.10405771
178	0xbcb5ec9a	-0.022207547
179	0x3c5f8253	0.013641912
180	0x3dad892a	0.084734276
181	0xbcc2ca5b	-0.023778131
182	0x3d66bcbe	0.056332342
183	0x3d53afc7	0.051681306
184	0x3ca59d5d	0.020216638
185	0x3a2a0c5f	0.0006486829
186	0x3d7fddaf	0.062467273
187	0x3df2fb1b	0.11864301
188	0xbd7f7078	-0.062363118
189	0x3d2a32eb	0.041552465
190	0x3dec5145	0.115389384
191	0x3e20326b	0.15644233
192	0xbd44f7d5	-0.048087914
193	0x3dc36de6	0.09542446
194	0x3c88cb36	0.016698461
195	0xbd376112	-0.044770308
196	0x3c2e5771	0.010640965
197	0x3acef892	0.0015790632
198	0xbdf15037	-0.11782878
199	0x3d89ef3a	0.06735082
200	0xbdea3028	-0.11434966
201	0x3ce7bb76	0.02828763
202	0x3dcc38b4	0.09971753
203	0x3e31a28f	0.17347167
204	0x3d1e3ec5	0.03863408
205	0xbcd9909e	-0.026558217
206	0xbda193ec	-0.07889542
207	0xbd3ab224	-0.045580044
208	0x3dada125	0.084780015
209	0xbb0031a0	-0.0019560829
210	0xbe1fdfea	-0.1561276
211	0xbc80f94c	-0.015743874
212	0xbdd79bae	-0.105277404
213	0x3dcbc67b	0.099499665
214	0x3d2ae3de	0.041721217
215	0x3da85eee	0.082212314
216	0xbda897c4	-0.08232072
217	0xbd20d97b	-0.039269906
218	0xbc9349ad	-0.017979467
219	0xbc89342f	-0.016748516
220	0x3e37e71d	0.17959256
221	0xbd114254	-0.035463646
222	0x3dea79c0	0.11449003
223	0xbca8b780	-0.020595312
224	0xbda26b9c	-0.07930681
225	0x3cb5f22f	0.022210209
226	0x3d32821a	0.043581106
227	0xbde5de96	-0.112240955
228	0xba8dd54a	-0.0010821011
229	0x3cf4d16c	0.029885016
230	0x3e0d4af7	0.13798128
231	0x3db01dce	0.08599435
232	0xbc179835	-0.009252598
233	0xbc473ce4	-0.012160514
234	0xbcc0ff1d	-0.023559147
235	0x3d834f51	0.06411613
236	0xbd518997	-0.051156607
237	0x3d3c067a	0.045904614
238	0xbbf92954	-0.0076038036
239	0x3ce69c90	0.028150827
240	0x3d1e6966	0.038674735
241	0xbdcae6ef	-0.09907328
242	0xbd29d61e	-0.041463964
243	0xbcbac1bc	-0.022797458
244	0x3c7034f2	0.014661061
245	0xbbbd7e7b	-0.0057829
246	0xbc7c8bb6	-0.015414169
247	0xbd4b74a6	-0.04967179
248	0x3d33c093	0.043884825
249	0x3d0c679c	0.034278497
250	0x3d881800	0.06645203
251	0x3da96782	0.08271696
252	0x3c7d5400	0.015461922
253	0x3cf30646	0.029666077
254	0x3dcaa5fc	0.0989494
255	0x3d3faa77	0.046793427

action_model._discrete_distribution.branches.1.bias f4 [3]
0	0xbd4992fb	-0.049212437
1	0x3d6da995	0.058023054
2	0xbc3655f4	-0.011128891

onnx::Div_68 f4 [7]
0	0x40100b7c	2.250701
1	0x3b5565cd	0.0032561899
2	0x401c068a	2.437899
3	0x40157117	2.3350275
4	0x3b58ee20	0.0033100918
5	0x40154e13	2.3328903
6	0x3fe1900c	1.7622085
